checkpoint_v1_obstacle/dqn_episode_200.pth (torch, 343593 bytes, 24 tensors)

fc1.weight f4 [128, 31]
00000000: bc90 c7bd f295 99bd d88f e8bc a24c b9bd
00000010: 1ff4 9f3c 4d3f 2fbd 653a 63be 94da 933d
00000020: 3292 12bd 7caa e43d 7b1d 6ebe 9d85 1dbe
00000030: cb32 273e 1b79 ce3d abbe bc3d b508 ca3d
00000040: 9814 6dbd d85e c9bd 74ab 2abc 8708 53be
00000050: 35cd 94bb 9545 5c3d fc82 9dbd 2697 823d
00000060: 0578 a8bc a3d4 a43d f96c a93d a680 8a3d
00000070: 2ae2 b83c ebc9 893c 228c 98bd a95b 19be
00000080: 96ed 44be 7547 c6bd a04b 4abe a5f0 9dbb
00000090: 924d 1abd 51b9 d8bd 03fb a93d 2236 833b
000000a0: 40d2 c53b c5ff 8d3d 77d5 38be 937d 463d
000000b0: 13d6 a93d 33d0 5f3d 9112 4dbd a6a9 cd3d
000000c0: 221b 163e 5b51 f63b e901 9e3d a912 f5bd
000000d0: 6542 a63d 0130 d93d d495 82bd dc4f 373d
000000e0: a90c d2bc 3842 ad3b 5f38 5bbd cdde 27bc
000000f0: 278b 1e3e 65bb 2abe 478c 88bd dac4 c33e
00000100: 56d7 0b3e dfa3 05bd 67f0 e4bc e3f7 6abf
00000110: 5815 043f 6ea3 cb3e f82f cebe 80b5 d53e
00000120: 17ff 21bf fd76 cb3d 1608 a73e 997b adbe
00000130: c8ce aa3c 85ef 92bd c20e a73e 066e 0bbf
00000140: 3aa0 b03e 3be4 f8bd cdd6 173e 391c 6dbd
00000150: 6f73 473e c505 9d3d ef75 693e 5fd1 763d
00000160: f57c 77be 9b6e 303d a973 77be cfdc b43d
00000170: 4554 773e b7df 9e3d 8d99 f9bd 2cbd 023d
00000180: 2ee4 acbd bc70 40be f1b9 1f3e d639 b33d
00000190: 3f36 3bbe 6373 bfbd 2b66 553e 3d7d 963e
000001a0: ce75 c7be 20b2 2bbe 8a19 423e 7fc4 4dbd
000001b0: bbb0 dc3c b2f3 c5bb e412 55bd ac0a 893d
000001c0: 0f64 7c3d bbf3 c23f ab6a e03f 2847 ddbf
000001d0: b6a3 803e 6c50 973f 6a11 813e b17a f2be
000001e0: 04ca f63d ec2c 203f 0a15 7cbe c00f d4bd
000001f0: 73d5 80be 12f8 37be b454 863d 2dbf e13c
00000200: 3cfc f3bd 03a4 17be 9478 c9bd d849 9fbc
00000210: c797 23be e26c 8b3e f5e2 b33d 3f93 2abe
00000220: 2edf 3abe 8d28 a3bd 0a42 663d 4c72 c73d
00000230: a4a1 4c3e a8bd 453e 9cd4 df3d 80ca 07be
00000240: 68cb 553e 1ba7 e9bc 81e9 1b3e eb47 dbbb
00000250: f46c 14bd a58a 3a3e 58d3 0abe 2469 2b3d
00000260: 75f6 86bd e3cd 50bd 4d5f d6bc 34cb 5fbe
00000270: 7822 48be 101c 043e 5aed 33be 5461 653f
00000280: f572 443f 3aad 42be 9f4e 11be 6c02 0cbf
00000290: 97d2 b23f 9e11 653f c7ee 35be 76c5 b0bd
000002a0: 1e6a 63be 8172 90be cd95 26bd e242 013e
000002b0: abfd 643e a4b3 293e 2ae9 c6bd 2bfd 563e
000002c0: 379b 9d3e 15b5 a63e 54d6 d93d 1f3f 823e
000002d0: f998 bd3e e3be 0c3d 7e9f f63d 2dd1 ff3d
000002e0: d77c e73e 49c0 863e af4c 103e 6e48 8cbe
000002f0: 680a fe3d ef8f 5d3e 9b8d b2bf ef58 9fbe
00000300: e575 943e 1be7 bd3e f62e f3be b79d 133f
00000310: bce7 07bf 3d19 633e 2a49 013d c945 203f
00000320: f164 f43e 37c6 8d3e 66ed 00bf 7a71 d73e
00000330: 6965 413f 4fc7 be3e 3307 793d 4db6 d23e
00000340: 5e89 423d 4fa5 4d3e b974 5dbc 01a5 afbd
00000350: b95f 013e f20f 903d 3244 3abe 96e7 5f3e
00000360: 0d16 59bc f138 97bd 32dc b7be 8e77 2f3e
00000370: aaed 8e3c 4853 8c3f a236 a8bf 7327 11be
00000380: 67d1 71be df61 80be 5725 10bf 3b76 843f
00000390: 2944 433d a77b f03e a986 0a3f 15d2 d33d
000003a0: a01a 093d 9be1 50be 51fb ed3e b8a0 213f
000003b0: 211c 263e 364e c2bd 81b1 81bd 7de1 8c3e
000003c0: b1f6 c1bd 6ceb 86be bbee a13e 0343 1bbe
000003d0: 7f4d 4e3d bec2 233d 8a58 023e c65a 8dbd
000003e0: 6173 b83d ffb9 0ebf c429 0fbd 7693 b83d
000003f0: 9cdf c6bf b835 d43e 5c79 3c3e 7260 a6bd
-0.09744403 -0.07499303 -0.028388903 -0.0904782 0.019525586 -0.042784978 -0.22190244 0.07219425
-0.035783954 0.1116533 -0.23253433 -0.15383 0.1632797 0.10081693 0.092160545 0.09864942
-0.057880968 -0.09832543 -0.010416854 -0.20608722 -0.004541064 0.053777296 -0.07690999 0.063764855
-0.020565042 0.0804837 0.08272738 0.06762819 0.02256878 0.016819915 -0.07448603 -0.14976372
-0.19231257 -0.09681598 -0.19755411 -0.004819947 -0.037671633 -0.10582221 0.0829983 0.004004256
0.0060370266 0.0693355 -0.1805018 0.0484596 0.082927845 0.054641914 -0.050066534 0.100421235
0.14658788 0.0075170225 0.07715208 -0.1196645 0.081181325 0.10604859 -0.06376234 0.044753894
-0.025640802 0.005287435 -0.053520557 -0.010245991 0.1548277 -0.16673048 -0.06667381 0.38236123
0.13656363 -0.032626983 -0.027946664 -0.91784495 0.5159507 0.39773124 -0.40270972 0.41740036
-0.6327986 0.099348046 0.32623357 -0.3388336 0.020850554 -0.07174591 0.32628447 -0.5446476
0.34497243 -0.121529065 0.14828034 -0.057888243 0.19477628 0.07667116 0.22798894 0.060258266
-0.24168761 0.04307423 -0.24165215 0.088311784 0.2415324 0.07757514 -0.121874906 0.03191869
-0.08441959 -0.18793005 0.15598275 0.08751266 -0.18282412 -0.0934818 0.20839755 0.29392424
-0.38957065 -0.16767168 0.18955055 -0.05023622 0.02693974 -0.0060410136 -0.05201997 0.066914886
0.06161886 1.5230631 1.7532552 -1.728734 0.25124902 1.1821418 0.25208598 -0.4735923
0.1205025 0.62568545 -0.24617401 -0.103545666 -0.2516285 -0.17965725 0.065591246 0.02755698
-0.11913344 -0.1480866 -0.098374516 -0.019444391 -0.15975867 0.27231508 0.08783523 -0.16657732
-0.18249199 -0.07966719 0.056215324 0.09738597 0.19983536 0.1931063 0.10929224 -0.13260841
0.20878375 -0.028522065 0.15225793 -0.006691923 -0.03623672 0.18216951 -0.13557184 0.041848317
-0.06589977 -0.0509776 -0.02616849 -0.2185486 -0.19544399 0.1290133 -0.17571011 0.89601636
0.7673791 -0.19011393 -0.14190148 -0.54691195 1.3970517 0.89480007 -0.17766868 -0.08631413
-0.22208449 -0.2821236 -0.040670205 0.1262317 0.22362392 0.16572434 -0.09712441 0.20995013
0.30782482 0.3256003 0.10636583 0.25438783 0.3703077 0.03436173 0.120421395 0.12491069
0.45212433 0.26318577 0.14091752 -0.2739901 0.124043286 0.21636938 -1.3949465 -0.31122538
0.28996196 0.37090382 -0.47496766 0.5766253 -0.53087974 0.22177596 0.031563915 0.62606484
0.47733262 0.27690288 -0.5036224 0.42078763 0.75545365 0.37261435 0.06079788 0.4115471
0.047494285 0.20082591 -0.013516598 -0.08576394 0.12634172 0.07034291 -0.18190077 0.21865687
-0.013249886 -0.073839076 -0.35910183 0.1713545 0.017447311 1.0962915 -1.3141673 -0.14175205
-0.23615037 -0.2507467 -0.56306976 1.0348581 0.047672424 0.4696934 0.54111725 0.10342804
0.033472657 -0.20398562 0.46480802 0.6313586 0.16221668 -0.09487574 -0.06332684 0.27515784
-0.09470881 -0.26351488 0.3162745 -0.15162282 0.050366875 0.039980642 0.12729087 -0.06902079
0.09006382 -0.5575256 -0.03495194 0.09012501 -1.553699 0.41447234 0.1840567 -0.08123864

fc1.bias f4 [128]
00000000: 4675 1ebe e28c 6a3d 2c76 b0bc 6fbf 4cbd
00000010: 03f6 9fbd df4a 0f3d 553c 3bbd b25a 70be
00000020: 215a 01be 91c2 d7bd ee6e 4f3d 8791 b8bd
00000030: a49c 54be a5a9 c4bd 5172 54bd 4bb4 ab3c
00000040: 71f5 54be 2ce9 323d 1618 f93d c793 efbd
00000050: 38df bdbc cb90 08be 51da a3bd 18ba 38be
00000060: e29e 2dbe cdcd 67bd aeaf b0bd 6087 c53d
00000070: e55f 04be 2064 c0bd e64f 37be eff6 41bb
00000080: feeb 213d 9b2d 5abd e5a7 2b3c d3cc a9be
00000090: b36a 02be 54a9 34be 0acf 28be b6db ffbd
000000a0: 7f97 cebd 4944 713e 8943 0abe e23f 98bc
000000b0: 20d7 0a3d 44f2 06be 9197 37bd 6446 ba3d
000000c0: 3802 8ebd b211 05be acfb d73d 227e d13d
000000d0: bb1e 36bd e3cd cfbd f68f 5bbe 4c3d 73bd
000000e0: a597 67bd 83f6 24be 2199 a5bd 3f15 183e
000000f0: 5d0c 30be e6eb aabb ac05 4c3d 9244 21be
00000100: b2e1 9e3d 2064 d9bd 46af 57be 25dd e43c
00000110: bf2b 063e 16be b8bd 848a 11be a944 08be
00000120: cab9 d7bd 2512 3c3d fa23 d03d d7b2 1a3e
00000130: 8a02 1abe ed5e 663d b960 96bc 0b05 0dbe
00000140: 7550 bdbd e744 e03d c229 a3bd 15ae 763e
00000150: 71ca ebbb 0762 4ebe bbb2 f33d cfd3 7cbe
00000160: b287 34be fe2e 3fbe 3ad2 3dbe a7b4 e3bd
00000170: 6205 193d c233 15be 3e51 a53d 6bfe 0abe
00000180: 1f4f ef3b cd71 9ebd 8ab7 143c cc2f f23d
00000190: 4b5c bcbd 8de5 1b3c edbd 15be 314f 0abe
000001a0: b957 fd3d 7b21 adbc ca79 11be 902c 38be
000001b0: 34f0 b93d ba6c 883d 46c4 76bd dbed 6ebd
000001c0: c277 013e df36 34be dafc 75be d423 c33d
000001d0: a049 46bd c274 10be 9f5e cfbd e945 89bd
000001e0: 837b cbbd dc90 88bd b45b 213e e13f e63d
000001f0: 34bc c5bd ab3b f2bd 19c8 22be e7e9 35be
-0.15474424 0.057263263 -0.021540724 -0.049987253 -0.07810595 0.034983512 -0.045711834 -0.23472098
-0.12632038 -0.105351575 0.0506429 -0.09012132 -0.20762879 -0.096026696 -0.051866833 0.020959994
-0.20796753 0.0436794 0.12162797 -0.11698108 -0.023177728 -0.13336484 -0.08000625 -0.18039739
-0.1695514 -0.05659275 -0.08627258 0.09644961 -0.12927206 -0.09394097 -0.17901573 -0.0029596647
0.0395317 -0.05326615 0.010477041 -0.3316408 -0.12736015 -0.17642719 -0.16485229 -0.124930784
-0.10087489 0.23561205 -0.13502325 -0.01858515 0.033896565 -0.13178355 -0.04482228 0.09095457
-0.06934017 -0.12995031 0.105460495 0.10229136 -0.0444629 -0.10146692 -0.21441635 -0.05938463
-0.056541104 -0.16109662 -0.08085848 0.14851855 -0.17192216 -0.0052161096 0.049810097 -0.15748814
0.07757892 -0.106148005 -0.21062955 0.027937481 0.13102625 -0.09020631 -0.14212996 -0.13307442
-0.10533483 0.04591574 0.10163112 0.15107284 -0.15040031 0.056242872 -0.018356668 -0.13771455
-0.092438616 0.10950642 -0.07966949 0.24089845 -0.0071957638 -0.20154582 0.118993245 -0.24690174
-0.17629889 -0.1867027 -0.18537226 -0.11118441 0.03735865 -0.14570525 0.08072136 -0.13573615
0.007303133 -0.077365495 0.009076962 0.11825523 -0.09197291 0.009515178 -0.14623232 -0.13506772
0.123702474 -0.021134129 -0.14206615 -0.17985749 0.09079018 0.06661363 -0.060245775 -0.058332305
0.1264334 -0.17599057 -0.24022236 0.09528318 -0.048410058 -0.1410704 -0.101254694 -0.067027874
-0.09935667 -0.06668255 0.15757638 0.11242653 -0.096550375 -0.11827787 -0.15896644 -0.17765008

fc2.weight f4 [128, 128]
00000000: 0ddb 7f3d b381 683d 8600 47be 6400 633d
00000010: 180b bfbc f05d 56be 063e 2ebc dde1 0fbd
00000020: f247 0d3d 8b34 a33d 26db 10bf 92bf 6dbe
00000030: 1342 d9bf 7380 093f 6cee 40bf c3a2 30be
00000040: 84ad 5ebb 1eae c53e 95df 02bf 5cbc 95bd
00000050: 141e 133e 433b 5e3d c7a0 df3d f8e1 11bc
00000060: c482 ba3d 7716 81bd eeeb e6bc 21a8 c93d
00000070: 257a 733e ff6a 0ebd 3e99 413e cf15 95be
00000080: d3e0 743e c704 80bd 832c aabd 69e8 14bd
00000090: f8f1 9b3e 8e94 e03c 5858 20bd ddec c6be
000000a0: 46de 223e c13b 5f3e 628c 533e c727 283e
000000b0: ee34 a53e 9771 27bd 8ccc 303d 5b0a dc3e
000000c0: 6f22 b93c ff86 acbf 403f f83e 1642 463e
000000d0: 20a0 7c3b 1ecf b43e dbf4 a7bd ebeb 14be
000000e0: 0d21 033e 2831 c73e 34ee 7ebe 4d0c e63d
000000f0: 172d 39bd 4ebf d33e 52c4 973e 7d4e 1cc0
00000100: c8c1 143d f216 293c 1a09 b73c 7e70 bcbc
00000110: 5acc 5f3e 412f d5bd 8e71 99bd dd69 6cbe
00000120: 1be6 29be 3609 33bf 4d55 953e b553 8d3e
00000130: 79c2 9bbe 00e8 c03e 011d c0be e05a 3e3c
00000140: 104c 8dbc 1687 6ebe 1fb7 8d3e e5d5 a9bd
00000150: d319 243e 3bcc 7b3d 3669 2b3e 6ca8 91bd
00000160: bfc3 a3bd 730f 553e 5bd3 a6be b427 3f3e
00000170: 7541 363e 70dd 84bd d125 59bd 77dc d2be
00000180: c96c f43d 486d ecbe 4e71 103d a617 173d
00000190: c095 593b 5492 8f3e e34f 323e 1f26 a9bd
000001a0: 9f53 f7bc 5150 bdbf bf1e eb3a 18aa 18bd
000001b0: 041d 013e f2e9 e53d 9bc4 65be 7995 7cbd
000001c0: 289b d83e c00f 02bf e3cd 9b3d 328f 4cbe
000001d0: fd2d 903d b50f ca3d 4957 033f 8f66 7ebe
000001e0: 6b73 ecbc 70f9 21bd 9708 18be 8f37 3c3e
000001f0: ffa2 36be 8722 babd 9ec3 11bd f668 1f3c
00000200: 4212 8c3d 721c 98bd 7d98 8ebe 43dd 963e
00000210: 165e cebd c767 cc3e 0eee 063e 194b 0abb
00000220: 9627 a13d 0abe 93bd f7fd a1bf c060 5d3c
00000230: 4fe0 b4bf 25b8 7a3e 3572 7a3e df26 4c3d
00000240: bea9 993d a040 773d f253 26bf be83 99bd
00000250: 5194 e6bd ecca 9fbc 10a4 823e a350 a5be
00000260: 0594 ad3d 0e72 ea3c 73ec 8bbd 1a8e a23b
00000270: fb0e 0b3e 3ee6 06bc 6211 aa3d 1dc8 34bc
00000280: 80bd 793c e522 8ebe 86dd 103e fde5 d8bd
00000290: 0d06 493e 2b79 b03b a38c 98bc 2267 8c3c
000002a0: 92e8 67bb dd58 4b3e 9a0d 1a3e 6a04 003e
000002b0: edc6 853e 8a72 d0bd 2c26 30bd fc4b 67be
000002c0: 5e0f 2ebd 24d6 1fbf 500e 563e a9e5 a33e
000002d0: ea65 81bc acfc 1b3d 9e14 27be 5107 333e
000002e0: 9569 55be f95a c3be 2a7e 46be efd1 70bd
000002f0: 08a7 de3c b81d c33d 2cd8 58be 7e61 cabf
00000300: 618d 20be 5ab9 b6be c7bc 853d 9ac1 79be
00000310: 8021 9f3e 5569 433d 30e0 5fbe 4dfd 36bd
00000320: 2942 45bd 082c a0bf 6443 c03e 4946 913e
00000330: 5055 11bf 4be9 563e c235 543e 442f a33c
00000340: 855c f93d 8dbb 2d3e b358 0fbe 9e82 9b3c
00000350: 4a1a 353e f965 923c a7c0 803d d692 bbbe
00000360: 6ea0 b3bd 2d91 5e3d 60ef 923e 8e85 043e
00000370: d7c5 0d3e 3e72 253d 48af a53d 40bd a4bd
00000380: 111e 9a3e cf1f 92be 2afa 61bd 4aef 903e
00000390: c810 5f3c b5e3 8b3e 35f1 213e 9034 02be
000003a0: e6da 063d 38c3 82bf f256 6c3d 5dad 033d
000003b0: f6ce 4fbe bfeb 413d c2c7 2fbf 9ce7 3e3d
000003c0: ec23 c53e d7be 70bf c4fa 34bd 7bb0 633e
000003d0: 8a74 603d 4861 e6bd b52c 353e 056e ad3d
000003e0: a1fe b53c 9a86 f73d 17a7 db3d 95e4 093f
000003f0: 4385 babe fa0e a6be c613 6f3e b1c8 d4bd
0.062464762 0.056764316 -0.19433793 0.055420294 -0.02332072 -0.20934272 -0.010634905 -0.03512751
0.03449244 0.07969006 -0.56584394 -0.2321761 -1.6973289 0.5371162 -0.753638 -0.17249589
-0.0033977935 0.38609403 -0.5112241 -0.07311317 0.14366943 0.054255735 0.10919338 -0.008903973
0.09106973 -0.06303113 -0.028188672 0.09846521 0.23777063 -0.03477001 0.18906114 -0.291182
0.23913889 -0.06250911 -0.08309271 -0.036354456 0.30458045 0.027414586 -0.03914675 -0.38852587
0.15905103 0.21800138 0.2065902 0.16421424 0.32266945 -0.040879812 0.04316382 0.4297665
0.022599427 -1.3478698 0.48485756 0.19361147 0.003854759 0.35314268 -0.08200999 -0.1454312
0.12805577 0.3890469 -0.24895555 0.11232815 -0.045209017 0.4135689 0.29641968 -2.4422905
0.036317617 0.010320412 0.022343207 -0.02300286 0.21855298 -0.104094036 -0.07492362 -0.23087259
-0.16591685 -0.6993593 0.29166642 0.27602926 -0.30421808 0.37677002 -0.37522128 0.011618346
-0.017248183 -0.23293719 0.27678773 -0.0829275 0.16025476 0.061474066 0.16739354 -0.07112202
-0.0799632 0.20806675 -0.32583126 0.1866749 0.17798407 -0.06487548 -0.05301458 -0.41183826
0.119348116 -0.46177125 0.035264306 0.036887787 0.003320083 0.28041327 0.17413287 -0.08259224
-0.03019124 -1.4790136 0.001793824 -0.03727159 0.12608725 0.11226262 -0.2243828 -0.061665986
0.42305875 -0.5080528 0.07607629 -0.199765 0.070400216 0.09866277 0.5130506 -0.2484381
-0.02886363 -0.039544523 -0.14847027 0.18380569 -0.17835616 -0.09088617 -0.035586946 0.0097296145
0.0683942 -0.074273005 -0.27850714 0.29465684 -0.10076539 0.39922926 0.13176748 -0.002110189
0.078688785 -0.072139814 -1.2655629 0.0135118365 -1.4130954 0.24484308 0.24457629 0.049841758
0.07503079 0.060364366 -0.6497184 -0.07495831 -0.11258758 -0.01950594 0.25515795 -0.32288083
0.08475498 0.028618839 -0.068322085 0.0049607875 0.13579933 -0.008233605 0.08304097 -0.011034039
0.015242934 -0.27760997 0.14147004 -0.10590742 0.19631214 0.005385538 -0.018621748 0.017139021
-0.0035386425 0.19858117 0.15044251 0.12501684 0.2612833 -0.101780966 -0.043005154 -0.2258758
-0.042495124 -0.6243613 0.20903897 0.32011154 -0.015795667 0.038082764 -0.16316459 0.1748326
-0.20841058 -0.38155344 -0.19384065 -0.05879396 0.027179256 0.09527153 -0.21176213 -1.5811002
-0.15678932 -0.35688287 0.06530147 -0.2439026 0.31080246 0.047707874 -0.21862864 -0.04467516
-0.0481588 -1.2513437 0.37551415 0.28373936 -0.567708 0.20987432 0.20723632 0.019919999
0.1217585 0.16966076 -0.1399868 0.018983182 0.1768581 0.01787089 0.062867455 -0.36635464
-0.08770834 0.05433767 0.28698254 0.12941572 0.13845001 0.040392153 0.08090073 -0.08043909
0.30101064 -0.28539893 -0.055170216 0.28307563 0.013614841 0.27322164 0.1581467 -0.12715364
0.0329236 -1.0215826 0.057700105 0.032147754 -0.20293793 0.047343966 -0.6866418 0.0466076
0.3850397 -0.940412 -0.04418446 0.2223529 0.05479864 -0.11249024 0.17692836 0.0846825
0.022216143 0.1208622 0.10725229 0.53864413 -0.36429796 -0.324333 0.23347387 -0.10389841

fc2.bias f4 [128]
00000000: 8e0e c5bc 68fa 813c 3f0a 01bd 3e98 a23e
00000010: db93 99bd f13c 83be 37c9 1cbc 6aba 04be
00000020: f806 2bbe 10d1 1cbd dbe6 18be 2003 26be
00000030: 4011 2f3e 316d 333f 1c3e 0fbe 5410 e0bd
00000040: e932 6a3d 74e8 133f bf92 92bd 6ae2 d3bd
00000050: de2e e83e eb79 f6bd 977e 86bd daf7 b0bd
00000060: c60a a33e 9b08 4ebc d69f 86be 503b 313e
00000070: b683 ce3c 07a4 87bd 17cc ae3d 20b4 dd3e
00000080: 2a0b c8bd eca7 7c3e 36dc cd3c bb41 d9bd
00000090: d313 fdbd 5814 a0bd 2afa 1a3e 3f65 f7bc
000000a0: 9a6c a2bc b851 e73e 2393 b1bb 0b3f 4d3d
000000b0: bdf9 66bd bda4 49bc 6787 a23e f964 3f3e
000000c0: 36c8 d63e 1fff 1dbe 9065 3abd ac78 38bd
000000d0: 8787 19be 267e 50be c8e6 a73e 43b3 b1bd
000000e0: 5d02 0a3e 70b5 ecbd 63b1 20be 7d2d a1bd
000000f0: a627 2fbd 7749 6cbe e33e 473e 4f45 cd3e
00000100: 25ab e1bd dbdb 9fbc 18fd 84be 78f7 a8bd
00000110: cac3 f5bd 207a debc 6633 b1bd 8be7 24bc
00000120: 7405 a8bd e209 fdbd 0535 2fbd 4b82 d63c
00000130: 96a0 efbd ba08 f4bd 933c b8bd 3a71 083e
00000140: 29e1 fd3d 51cd b2bd 7992 0a3e 701d 633b
00000150: 6f6e ca3e 9b19 783c e0aa cc3d 662e a13e
00000160: f891 f23c ca1f d3bc 51e3 6b3d 69d5 983e
00000170: fb26 843d ca6d ee3c fa87 f9bd acc8 763e
00000180: 8fec e23d 2118 ae3a 5ffd e0bd abb4 29bb
00000190: dd92 a23b d679 973c 694a 9f3e f752 ff3d
000001a0: 2843 d83d 16fd b0bd 7d2e 4e3e 3283 293e
000001b0: d99e be3e d3fe f5bd 58a2 bd3d 3a54 38bd
000001c0: ab7e 9ebd 6da5 83be d8fa cf3c 59b9 af3e
000001d0: 0a64 8cbe d848 d0bb dfef 0c3e 239e 11be
000001e0: 9cf8 fe3e 144d 56b8 4915 e23b 2523 dabc
000001f0: 6894 f53e ab01 aebd c6a5 bfbd 1f17 dfbd
-0.024054792 0.015866473 -0.031503912 0.31756777 -0.07498904 -0.25632432 -0.009569458 -0.12961736
-0.16701877 -0.038285315 -0.14931814 -0.1621213 0.17096424 0.7008849 -0.13988537 -0.10940614
0.057177458 0.5777657 -0.07156896 -0.103459194 0.45348257 -0.12034973 -0.06567114 -0.08641024
0.31844157 -0.012575294 -0.2629382 0.17307782 0.025209289 -0.066230826 0.08535021 0.43301487
-0.097677544 0.24673432 0.025129419 -0.1060824 -0.12357297 -0.0781638 0.15134493 -0.030199645
-0.019827176 0.45179534 -0.0054191514 0.05010895 -0.056390513 -0.012307343 0.3174393 0.18690862
0.41949624 -0.15429352 -0.045507014 -0.045036957 -0.14993106 -0.20360622 0.3279326 -0.086767696
0.13477464 -0.11558044 -0.15692668 -0.07870004 -0.04276242 -0.230749 0.19457583 0.4009194
-0.11018971 -0.019514015 -0.25974345 -0.08250326 -0.120002344 -0.027157843 -0.086523816 -0.01006497
-0.08204165 -0.123554006 -0.042775173 0.026185175 -0.11700551 -0.11915727 -0.089959286 0.13324443
0.123964615 -0.08730567 0.13532437 0.0034654997 0.3953738 0.015142824 0.09993529 0.31480712
0.029610619 -0.025771994 0.057589833 0.2985032 0.064527474 0.029105086 -0.121841386 0.24099988
0.11080276 0.0013282337 -0.10985827 -0.002589504 0.004961355 0.018490713 0.31111458 0.12466996
0.10559684 -0.08642022 0.20134921 0.16553953 0.37230566 -0.120114945 0.0925948 -0.0450022
-0.07739004 -0.25712147 0.025388166 0.34321097 -0.27420074 -0.00635634 0.13763379 -0.1422048
0.4979905 -5.109336e-05 0.00689951 -0.026628086 0.47964787 -0.08496412 -0.09357791 -0.10893082

fc3.weight f4 [2, 128]
00000000: a425 213f d7d9 f63e 95db bfbc 699c 99bf
00000010: 96ce 9b3e bafa c5be 5877 98bd 142b 873d
00000020: 8e19 903e af7c afbc ccb5 1abf ce6a 673d
00000030: 8f95 b33e 3518 9fbf a740 4a3f f9c5 60bd
00000040: abc1 163f dbba bfbf 21a3 a0be 3ddd 153d
00000050: 9788 9bbf f304 6cbb 631a f7bd cc42 803e
00000060: 31c5 01c0 3c94 4b3c 713a 8abe e706 25bf
00000070: 45d6 2c3e 4b2c bcbb 2919 f53e 3437 2ebf
00000080: 3a40 7e3e 9cf6 913e 1503 98bc 8e73 37bc
00000090: b247 673f 6e4d 063c 56e7 053f e5bb bfb9
000000a0: 27b5 103f 37ad cabf 802a b9be 0de5 973e
000000b0: 5b76 3e3f ebd2 a93c fbe7 54bf f722 273f
000000c0: 8461 5fbf 0ad2 debe b104 c13c 837c 533c
000000d0: cc35 4abf 2842 513f 9d1e 1abf 2fc2 113e
000000e0: 1905 643e 02ba 223f 9bfb 94bf d832 faba
000000f0: 3233 bdbc fa9e 19bb 87db 0c3d 9579 163f
00000100: 7887 683a 29c3 253e cc32 333e ccae 94bc
00000110: f195 fc3c 970f 2f3f 4780 a0bc 0834 81bb
00000120: 687f a3bc 8d29 46bf 3d41 093d 0117 013f
00000130: c7ac 363d dc93 b3bb d9ed 80bc 1f60 dabe
00000140: 2ebe 003f 257d a53c 397a 0b3f fa17 443f
00000150: d900 26be 5d02 b53f b7af af3e e151 0ac0
00000160: ec30 073f e970 163f fd80 b03e 6612 e1bf
00000170: 8886 c13e 2a03 023f 10fc 86bc fe4b cfbf
00000180: 062a e33e 3292 02bd e51f f53c 107b 363d
00000190: 28a5 9c3f c6a9 4f3f 3efd d4bf d87c 943e
000001a0: 738a 593e 8958 db3c d231 f7be 2e50 0e3f
000001b0: 9cbd bfbf 43cb e3be f731 2b3f e839 713e
000001c0: a114 cfbe e997 7a3f 97f2 66bd 28bc edbe
000001d0: 51f5 a3be 8178 1c3f 6597 b53e 4864 bdbc
000001e0: 8123 c7bf 0333 1d3f 2620 f5bb 53c9 d2bc
000001f0: 4c88 dfbf 87fa 0ebd 70bd 303d 7e20 233c
00000200: af2a 3f3f f6a8 bc3e eb8c e0bc 62bc 04c0
00000210: ae44 c93e 5138 04bf a77c 1c3d 1e3b 153c
00000220: 101f debe ddd5 093e 723c c7be 560f 5f3a
00000230: 5597 b83e 2a34 aabf 7438 2fbe 27dd acbc
00000240: 58c9 7e3e d487 cbbf f332 ad3e c881 3f3d
00000250: 4f57 81bf 12c8 243d 6d93 d83e 00a4 a0be
00000260: 99b9 37bf c214 f43a 73ed 42be d6e7 34bf
00000270: aa60 2bbf 8375 9f3a 21e1 003f 971a 7ebf
00000280: 3548 e73e bcd7 ba3e 569f 843d 9d4d 97bb
00000290: 13b1 42bf 6036 003e 2d7b 9f3e c1f4 01bd
000002a0: af36 c63e c193 5dbf 7203 a2bd 5ae4 223f
000002b0: 5215 1f3f ec3c 07bd ff23 50bf d789 e73e
000002c0: 1a74 a7bf c593 c0be bf85 6dbb 0c49 b83d
000002d0: 0990 25be a9c6 86be befe 07c0 76da c73f
000002e0: 0857 603e d55b 303f a02b 523f b4af 22bb
000002f0: 6489 2bbd d6c8 4b3c febf 0d3f 1ed6 073f
00000300: 037e f63c 52e6 a73e f779 a9be a8f7 863b
00000310: 06c5 efbd be69 cb3e 798e 093d e47c 833d
00000320: 5c16 5dbb 52af 5dbf b6e4 ff3b b64e 0d3f
00000330: f556 303d 15d2 033d 2b51 273d 7106 693f
00000340: 8d71 133f 8b75 1e3a f7e2 313f 92fb 1f3f
00000350: a67a debf 44d2 b5bf d037 bf3e 93d2 48bf
00000360: 62ad 053f 89f0 4d3e 5536 333f e192 03bf
00000370: c34b d43d 7f09 fdbe 1a98 2c3d 6349 34bf
00000380: 6dfc bc3e 2329 6b3d 20d0 083d cd2c de3d
00000390: 9cc1 8a3e 0142 643f c794 efbf 0c6a 733e
000003a0: 83d0 e03e 4c86 03bd 3a1d 38bf 1c40 0b3f
000003b0: 142b f4bf 24c4 633e d4c9 803f 4a25 fabe
000003c0: ef52 cc3e 6869 8a3f 6d54 2cbd f8cb cdbe
000003d0: b5bb 58bf b5d4 0bbf d85e 9c3e 4ec4 183d
000003e0: f07a e6bf f593 2abd 2d87 0e3d c3cd 973c
000003f0: 92c2 42bf 8d08 1abd 7daf 89bd e726 c7bc
0.6294806 0.48213074 -0.023420135 -1.2000858 0.3043105 -0.38667852 -0.07444638 0.066000134
0.28144497 -0.021421758 -0.6043365 0.05649834 0.35075042 -1.2429262 0.790049 -0.0548763
0.58889264 -1.4978899 -0.31374457 0.036587942 -1.2151059 -0.0036013692 -0.1206558 0.25050962
-2.0276606 0.012425479 -0.26997712 -0.6446366 0.16878612 -0.005742585 0.47870758 -0.68052983
0.24829188 0.2850846 -0.018556157 -0.011196984 0.90343773 0.008197172 0.52306116 -0.0003657035
0.56526417 -1.5834111 -0.36165237 0.2966694 0.74399346 0.020730456 -0.83166474 0.6528773
-0.8725817 -0.43519622 0.023561807 0.012908104 -0.7898834 0.8174157 -0.6020296 0.14234231
0.2226757 0.63565075 -1.1639284 -0.0019088639 -0.0230957 -0.0023440705 0.034389045 0.5877927
0.0008870284 0.16187729 0.17499846 -0.018149756 0.030833216 0.68383163 -0.019592417 -0.00394297
-0.019958213 -0.7740715 0.03350948 0.50425726 0.044598367 -0.0054802727 -0.015738415 -0.4265146
0.5029019 0.020201275 0.5448337 0.76599085 -0.16211261 1.4141346 0.34313747 -2.1612475
0.52809024 0.5876604 0.3447341 -1.758374 0.37797952 0.5078608 -0.016477615 -1.6195066
0.44368 -0.031877704 0.029922435 0.044550955 1.2237902 0.8111843 -1.6639783 0.29001498
0.2124422 0.026775615 -0.48280197 0.55591094 -1.4979739 -0.44491014 0.66873115 0.23557246
-0.40445426 0.97888047 -0.056383695 -0.46432614 -0.320231 0.61121374 0.35467067 -0.023119107
-1.555771 0.6140596 -0.007480639 -0.025730764 -1.746347 -0.03490689 0.04314941 0.009956477
0.74674505 0.36847657 -0.027410945 -2.073998 0.3931021 -0.5164843 0.038204815 0.009108333
-0.43383074 0.13460489 -0.38913304 0.000850906 0.36052957 -1.3297169 -0.17111379 -0.021101547
0.24881494 -1.5900826 0.33827934 0.04675463 -1.010477 0.040229864 0.42299977 -0.31375122
-0.71767575 0.0018621909 -0.19035892 -0.70666254 -0.6694437 0.0012165759 0.5034352 -0.9925932
0.45172277 0.36492717 0.064757034 -0.0046174065 -0.76051444 0.12520742 0.31148663 -0.031727556
0.38713595 -0.8655358 -0.079108134 0.63629687 0.6214191 -0.033017084 -0.81304926 0.4522235
-1.3082306 -0.3761274 -0.003624305 0.089983076 -0.16168226 -0.2632344 -2.1249232 1.5613544
0.219082 0.68890125 0.82097816 -0.0024823966 -0.041879073 0.01243802 0.5537108 0.5306109
0.030089384 0.32792908 -0.33100864 0.0041188784 -0.11707501 0.39729112 0.03358314 0.06420305
-0.003373525 -0.8659564 0.007809247 0.5519823 0.04305168 0.03218277 0.040848892 0.91025454
0.5759514 0.0006044737 0.69486946 0.6249324 -1.7381179 -1.4204793 0.3734727 -0.7844631
0.52217686 0.20111288 0.7000478 -0.51395994 0.10366013 -0.49421307 0.042137243 -0.7042448
0.36911336 0.057412278 0.03340161 0.10848389 0.27100837 0.89163214 -1.8717278 0.23770922
0.43909082 -0.032110497 -0.71919596 0.543947 -1.9075646 0.2224279 1.0061593 -0.48856574
0.39907023 1.0813417 -0.042072702 -0.40194678 -0.8466142 -0.5462144 0.3054111 0.037296586
-1.8006268 -0.04164501 0.034796882 0.018530732 -0.7607814 -0.03760581 -0.06722925 -0.024310542

fc3.bias f4 [2]
00000000: c42b 363d 2d85 e93c
0.044475332 0.028505886

fc1.weight f4 [128, 31]
00000000: bc90 c7bd f295 99bd d88f e8bc a24c b9bd
00000010: 1ff4 9f3c 4d3f 2fbd 653a 63be 94da 933d
00000020: 3292 12bd 7caa e43d 7b1d 6ebe 9d85 1dbe
00000030: cb32 273e 1b79 ce3d abbe bc3d b508 ca3d
00000040: 9814 6dbd d85e c9bd 74ab 2abc 8708 53be
00000050: 35cd 94bb 9545 5c3d fc82 9dbd 2697 823d
00000060: 0578 a8bc a3d4 a43d f96c a93d a680 8a3d
00000070: 2ae2 b83c ebc9 893c 228c 98bd a95b 19be
00000080: 96ed 44be 7547 c6bd a04b 4abe a5f0 9dbb
00000090: 924d 1abd 51b9 d8bd 03fb a93d 2236 833b
000000a0: 40d2 c53b c5ff 8d3d 77d5 38be 937d 463d
000000b0: 13d6 a93d 33d0 5f3d 9112 4dbd a6a9 cd3d
000000c0: 221b 163e 5b51 f63b e901 9e3d a912 f5bd
000000d0: 6542 a63d 0130 d93d d495 82bd dc4f 373d
000000e0: a90c d2bc 3842 ad3b 5f38 5bbd cdde 27bc
000000f0: 278b 1e3e 65bb 2abe 1876 8fbd 6541 ab3e
00000100: 56d7 0b3e 8ef5 04bd 61ee 9cbc e879 5cbf
00000110: f476 073f 7622 d13e 68ae ebbe dabc d03e
00000120: b5ce 22bf decf cb3d 5647 a33e 80a2 a8be
00000130: 5dcc cf3c bebb 89bd 4508 a63e 6e16 0abf
00000140: 271f ac3e bc35 02be c0ab 0d3e 2c69 53bd
00000150: d841 283e 0e97 913d fc76 513e 50d1 8d3d
00000160: abf4 80be 8987 c33c a8dd 82be a8a8 7f3d
00000170: 6cc8 683e 0f76 aa3d 1ff3 0bbe 2cbd 023d
00000180: 4593 8bbd 1500 40be f222 163e 90dd c93d
00000190: 1928 2dbe 6d5d 0dbe 38d1 653e 97be 9a3e
000001a0: bd3a bdbe 89c0 1ebe f6df 3f3e bafd 43bd
000001b0: e410 fb3c 1359 1b3b dcb2 71bd d365 8d3d
000001c0: 5ac8 893d 6402 c53f be2b d43f 3205 ddbf
000001d0: 3d89 833e e229 953f 294e 653e c76e e2be
000001e0: 3030 013e 8518 1c3f bb57 8bbe 3425 79bd
000001f0: 73d5 80be 12f8 37be b454 863d 2dbf e13c
00000200: 3cfc f3bd 03a4 17be 9478 c9bd d849 9fbc
00000210: c797 23be e26c 8b3e f5e2 b33d 3f93 2abe
00000220: 2edf 3abe 8d28 a3bd 0a42 663d 4c72 c73d
00000230: a4a1 4c3e a8bd 453e 9cd4 df3d 80ca 07be
00000240: 68cb 553e 1ba7 e9bc 81e9 1b3e eb47 dbbb
00000250: f46c 14bd a58a 3a3e 58d3 0abe 2469 2b3d
00000260: 75f6 86bd e3cd 50bd 4d5f d6bc e96f 5dbe
00000270: 29ef 5cbe 101c 043e 0f92 31be c60f 633f
00000280: 3854 393f ba51 40be 47f3 0ebe 4d03 0fbf
00000290: 1d60 b73f 9a4a 5d3f b7bf 1fbe b8c1 b4bd
000002a0: b540 56be 99a4 8cbe 5cf1 01bd 4098 043e
000002b0: c024 6d3e 63f5 203e 5432 c2bd 928e 483e
000002c0: 07f5 893e ef99 8f3e 228d de3d 6b9c 893e
000002d0: 2d4b 993e e265 783d 3356 fb3d 0a06 fd3d
000002e0: 7dcc 163f 18b1 723e 2a3d 053e b10a 6bbe
000002f0: 680a fe3d 1bf2 543e 037c a6bf ad30 adbe
00000300: a0b3 a33e 2985 c03e aba2 bebe 2ce5 1e3f
00000310: 2d9d febe 774f 573e 10b8 493d b22e 183f
00000320: b505 f73e 30db 883e e0d0 04bf 8fe5 d13e
00000330: b9ce 483f 6303 c03e 3012 813d d45b e13e
00000340: 73bd 923d d47c 503e 7740 c5b9 7eaa 93bd
00000350: 7c31 1a3e a149 ae3d 60a6 1dbe 8e12 753e
00000360: 0a4c 7e3c 4284 94bd 725b b7be 8e77 2f3e
00000370: 2ec0 993c 74e0 873f 7d35 a5bf 15cd 0fbe
00000380: ff76 70be 0920 78be ce92 f4be 7403 803f
00000390: 64ad 483d 74ec e53e 66a7 0b3f cb86 d63d
000003a0: dc83 0e3d d1e3 26be a521 e83e 426f 133f
000003b0: 5dfe 243e 7912 c1bd d1dc 8dbd aeb5 893e
000003c0: a179 c0bd 8179 88be 34ab 9f3e 9f3e 18be
000003d0: 7d4d 383d 35c1 f53c b2ee f63d 1b97 9dbd
000003e0: c574 b33d 7d23 08bf c429 0fbd 6a59 af3d
000003f0: 49e2 bbbf 59b3 df3e 3488 273e a54a c1bd
-0.09744403 -0.07499303 -0.028388903 -0.0904782 0.019525586 -0.042784978 -0.22190244 0.07219425
-0.035783954 0.1116533 -0.23253433 -0.15383 0.1632797 0.10081693 0.092160545 0.09864942
-0.057880968 -0.09832543 -0.010416854 -0.20608722 -0.004541064 0.053777296 -0.07690999 0.063764855
-0.020565042 0.0804837 0.08272738 0.06762819 0.02256878 0.016819915 -0.07448603 -0.14976372
-0.19231257 -0.09681598 -0.19755411 -0.004819947 -0.037671633 -0.10582221 0.0829983 0.004004256
0.0060370266 0.0693355 -0.1805018 0.0484596 0.082927845 0.054641914 -0.050066534 0.100421235
0.14658788 0.0075170225 0.07715208 -0.1196645 0.081181325 0.10604859 -0.06376234 0.044753894
-0.025640802 0.005287435 -0.053520557 -0.010245991 0.1548277 -0.16673048 -0.070049465 0.3344833
0.13656363 -0.03246074 -0.019156637 -0.86123514 0.52915883 0.40846604 -0.460315 0.40769082
-0.6359666 0.09951757 0.31890363 -0.32936478 0.025366003 -0.06725262 0.32428184 -0.53940475
0.33617517 -0.1271581 0.13835049 -0.05161397 0.16431367 0.071088895 0.20455545 0.06924689
-0.25186667 0.02386834 -0.25559735 0.062416703 0.22732705 0.08323299 -0.13666962 0.03191869
-0.06815199 -0.18750031 0.14661768 0.09856713 -0.16909827 -0.1380517 0.22443092 0.30223534
-0.36958876 -0.15503134 0.18737778 -0.047849394 0.030647703 0.0023704215 -0.059008464 0.06904187
0.06727667 1.5391355 1.6575849 -1.726721 0.25690642 1.1653407 0.22393097 -0.4422514
0.12616038 0.60974914 -0.2721537 -0.060826495 -0.2516285 -0.17965725 0.065591246 0.02755698
-0.11913344 -0.1480866 -0.098374516 -0.019444391 -0.15975867 0.27231508 0.08783523 -0.16657732
-0.18249199 -0.07966719 0.056215324 0.09738597 0.19983536 0.1931063 0.10929224 -0.13260841
0.20878375 -0.028522065 0.15225793 -0.006691923 -0.03623672 0.18216951 -0.13557184 0.041848317
-0.06589977 -0.0509776 -0.02616849 -0.21624722 -0.21575607 0.1290133 -0.17340873 0.88695943
0.7239413 -0.18781176 -0.1395999 -0.5586441 1.4326206 0.8644196 -0.15600477 -0.088260114
-0.20923121 -0.27469328 -0.03172432 0.12948704 0.2315855 0.15718608 -0.094822556 0.19585636
0.26944754 0.2804713 0.10866763 0.2687715 0.29940167 0.060644038 0.122723006 0.123546675
0.58905774 0.23700368 0.13011613 -0.22953297 0.124043286 0.20795481 -1.3006595 -0.338262
0.3197298 0.37601593 -0.3723348 0.6206844 -0.4972929 0.21026407 0.0492478 0.5944625
0.48246542 0.26729727 -0.5188122 0.40995452 0.78440434 0.37502584 0.06302297 0.44015372
0.07165041 0.20360118 -0.00037622798 -0.07210253 0.1505794 0.08510137 -0.15395498 0.2393286
0.015521059 -0.07251789 -0.35811955 0.1713545 0.018768396 1.0615373 -1.2906948 -0.14043076
-0.23482893 -0.2423097 -0.47768253 1.0001054 0.048993483 0.44906962 0.54552305 0.104749285
0.03479372 -0.16297843 0.4533817 0.5759164 0.16112657 -0.094273515 -0.06926883 0.26896423
-0.09398199 -0.266552 0.31185305 -0.14867638 0.044995774 0.029999355 0.12057246 -0.07694837
0.087625064 -0.5317915 -0.03495194 0.08561976 -1.4678432 0.4369152 0.16360551 -0.094380654

fc1.bias f4 [128]
00000000: 4675 1ebe e28c 6a3d 0aca cbbc d392 35bd
00000010: 03f6 9fbd 70b8 183d 827a 67bd 4a00 6fbe
00000020: 74d9 03be 48fd e5bd f546 133d 818d 79bd
00000030: e22b 55be 5992 c2bd de76 5ebd d923 533c
00000040: 71f5 54be 471a 443d 23fd ee3d f3a8 e8bd
00000050: 22b7 bdbc cb90 08be 53ad b7bd 90f4 34be
00000060: e29e 2dbe cdcd 67bd aeaf b0bd cb73 dd3d
00000070: f389 03be 2064 c0bd d484 3cbe fcdc a5bb
00000080: b7f5 b93c 16c2 56bd 5d9e 843c d3cc a9be
00000090: 33ca 02be 54a9 34be 0859 37be 8fef febd
000000a0: e670 c8bd df00 713e 322a fabd 99e3 12bc
000000b0: fe58 2a3d 3a6c f3bd 3b60 eebc c1bc e03d
000000c0: 94e1 babd ba8f 01be 2c11 c73d 7437 c73d
000000d0: bb1e 36bd 85aa 65bd 888e 5dbe 16a2 86bd
000000e0: 9472 60bd 4020 14be 76b1 94bd a2f5 1d3e
000000f0: 5d0c 30be c8d8 883a f163 173b 598c 15be
00000100: a8e9 a33d cd95 b4bd 46af 57be 68f5 fd3c
00000110: 9528 043e 16be b8bd 21cc 06be 72d7 06be
00000120: cab9 d7bd 5b38 343d e3b2 dc3d 1f1a 1d3e
00000130: 5d2d 14be 9742 673d 9936 8cbc 0b05 0dbe
00000140: bd0b f8bd 4dda e93d 469a 95bd 3f2e 793e
00000150: 1ba2 debb 0762 4ebe 6a3b 003e 9134 7fbe
00000160: b287 34be 9aea 37be 30b5 34be 5100 d2bd
00000170: 6b1c 493d c233 15be 3e51 a53d d718 05be
00000180: 489d b93c 80b7 92bd 8ab7 143c ba7e df3d
00000190: 4b5c bcbd 34f7 ab3c 9e4e 0abe 4007 fabd
000001a0: b957 fd3d 1112 77bc 15a0 09be 902c 38be
000001b0: 14f0 b73d 68fc 6e3d 6018 97bd dbed 6ebd
000001c0: 675c f93d 5cc9 27be dafc 75be 99aa a33d
000001d0: a049 46bd a2a6 0abe 6410 bdbd d630 afbd
000001e0: 837b cbbd dc90 88bd 216b 263e 8dbb a83d
000001f0: 74c6 aabd 4938 f9bd 0a77 2cbe 610b 21be
-0.15474424 0.057263263 -0.024876613 -0.044329476 -0.07810595 0.03728527 -0.056513317 -0.23339954
-0.1287592 -0.1122995 0.03595634 -0.060925964 -0.20817521 -0.0950057 -0.05431258 0.012886965
-0.20796753 0.047876623 0.11669376 -0.113603495 -0.023158614 -0.13336484 -0.08968606 -0.17671418
-0.1695514 -0.05659275 -0.08627258 0.108131014 -0.12845592 -0.09394097 -0.18410045 -0.005061744
0.022700174 -0.05243119 0.016188795 -0.3316408 -0.12772445 -0.17642719 -0.17905056 -0.12448036
-0.09787159 0.23535489 -0.12215079 -0.008965396 0.041588776 -0.11885877 -0.02909862 0.10973502
-0.09125057 -0.12652484 0.09720072 0.09727374 -0.0444629 -0.056070823 -0.21636403 -0.06573884
-0.05479677 -0.14465427 -0.072604105 0.15425733 -0.17192216 0.0010440582 0.0023100341 -0.1460432
0.08003551 -0.08817635 -0.21062955 0.031000808 0.12906106 -0.09020631 -0.13163806 -0.13168123
-0.10533483 0.043999057 0.107763074 0.15341996 -0.1447043 0.05645999 -0.017115878 -0.13771455
-0.12111614 0.11418591 -0.07304816 0.24334048 -0.006794227 -0.20154582 0.12522665 -0.24922396
-0.17629889 -0.17960587 -0.17647243 -0.102539666 0.049099367 -0.14570525 0.08072136 -0.12997757
0.022658005 -0.07163906 0.009076962 0.10912843 -0.09197291 0.0209919 -0.13506553 -0.12208414
0.123702474 -0.015079991 -0.13439973 -0.17985749 0.08981338 0.058346182 -0.07377696 -0.058332305
0.121758275 -0.16385406 -0.24022236 0.07991523 -0.048410058 -0.13540128 -0.09231642 -0.085542366
-0.09935667 -0.06668255 0.16251804 0.082388975 -0.08338633 -0.12168939 -0.16842285 -0.15726997

fc2.weight f4 [128, 128]
00000000: 0ddb 7f3d b381 683d d2a3 5cbe 7d7d 2d3d
00000010: 180b bfbc bde9 31be b0ae 833c 89a1 b2bc
00000020: 3665 a83d 9fa1 c13d f900 14bf ea3d 88be
00000030: c084 d9bf 3de3 063f 9c5b 2ebf c866 52be
00000040: 84ad 5ebb 93b1 c03e 2218 03bf 8170 67bd
00000050: a93f bf3d 433b 5e3d 254d de3d 4429 a53c
00000060: c482 ba3d 7716 81bd eeeb e6bc 61ad cb3d
00000070: 32e6 273e ff6a 0ebd c774 e53d c084 8dbe
00000080: a9d3 733e 561e a6bd c685 33bd 69e8 14bd
00000090: 4c9d 9a3e 8e94 e03c eee3 be3c 3848 abbe
000000a0: 61ef 3a3e bd9f 5b3e fd93 663e 1360 453e
000000b0: a423 a03e 7fee 91b9 1df1 d13c 25a1 cc3e
000000c0: 7fa1 323d 2e79 a7bf 6c97 003f 8e8e 473e
000000d0: 20a0 7c3b 1c56 b93e 2880 b4bd 0c73 2cbe
000000e0: 7c92 fa3d 4e25 b53e 48b1 83be ce30 f93d
000000f0: 172d 39bd 4375 d73e 4ec4 6c3e 3061 1cc0
00000100: 61f2 3f3d a957 553c 1a09 b73c 372b 16bd
00000110: 9884 663e 412f d5bd 6a1e f9bc 56f1 6dbe
00000120: 1be6 29be e454 20bf a444 933e 8e6f 8b3e
00000130: 6d45 82be 46ce c43e adc3 d1be e05a 3e3c
00000140: e655 3cbd bd2c 54be 3d91 6f3e 3ff8 c5bd
00000150: 40c6 1a3e 3bcc 7b3d 4012 533e d036 adbd
00000160: bfc3 a3bd 0833 623e 8ff9 bdbe d54b 333e
00000170: e00e 493e 70dd 84bd d125 59bd 6417 c0be
00000180: c7c7 0c3e eb5f cbbe 4e71 103d 70cb 4d3d
00000190: c095 593b 5e1c 943e 1566 283e 0e9b 1cbd
000001a0: 9f53 f7bc 4c79 c1bf bb66 b73b 18aa 18bd
000001b0: 5bfc de3d 18bd b53d 4fba 94be 7995 7cbd
000001c0: 4a16 d03e 752d ecbe e3cd 9b3d a485 53be
000001d0: fd2d 903d 64a2 f23d 5012 003f 64dc 8fbe
000001e0: 6b73 ecbc 70f9 21bd ec8c 2abe 2095 303e
000001f0: 6249 34be dae3 a9bd baea 8cbc 8fab 923d
00000200: 4212 8c3d 721c 98bd 8e84 9cbe cce6 9f3e
00000210: 165e cebd 8ea0 c93e 723a f33d 8809 7cbd
00000220: caa8 ce3d 762e c8bd b8c1 a0bf 9255 b13c
00000230: cf15 b3bf a3dc 723e c73b 863e 7945 3e3d
00000240: bea9 993d 98ec 6b3d b32f 29bf 0c4b 9abd
00000250: 8c87 cbbd ecca 9fbc b235 6d3e 1e3e 9bbe
00000260: 0594 ad3d 0e72 ea3c 73ec 8bbd 1ba1 ab3d
00000270: 3310 ed3d 3ee6 06bc ce21 ceba d309 d0bc
00000280: dea1 75ba 7351 67be f51c dd3d fde5 d8bd
00000290: 6294 4c3e 2b79 b03b 4492 77bd 26b9 483c
000002a0: 6ed1 14bc 275f 453e a5d9 433e 19dc 0b3e
000002b0: 1fb6 723e f8c7 4fbd eb50 4abd 79aa 8bbe
000002c0: d797 b6bc 2db6 1bbf 1a57 643e 4282 a73e
000002d0: ea65 81bc 562e 233d 6d4a 31be b9c6 273e
000002e0: 9e5e 4cbe 044a babe a33f 1ebe d2de 7cbd
000002f0: 08a7 de3c 1b08 983d a480 b2be c176 c6bf
00000300: f9ea 2cbe cfa3 b3be c7bc 853d 5d6c 52be
00000310: e60c 9d3e 5569 433d 5684 67be 7933 98bd
00000320: 2942 45bd be74 97bf c661 bb3e fc1e 913e
00000330: f6a6 0ebf 2282 4c3e d076 3a3e 442f a33c
00000340: baac 003d a470 4e3e a599 19be b6ca 653c
00000350: f6d7 433e f965 923c 21c4 833d 6aa3 c2be
00000360: 6ea0 b3bd 3489 083d 7eec 723e b9c7 003e
00000370: e563 003e 3e72 253d 48af a53d e325 c0bd
00000380: 7a1c a03e 71fb 85be 2afa 61bd 5fe6 953e
00000390: c810 5f3c cde2 913e 15a6 323e c5e8 9dbd
000003a0: e6da 063d 1592 84bf 9c95 1f3d 5dad 033d
000003b0: 0d63 40be a3c9 313d b3bd 0dbf 9ce7 3e3d
000003c0: ccff c23e 3dae 6fbf c4fa 34bd cfbd 7a3e
000003d0: 8a74 603d aeef dabd 0d06 313e 28b8 0e3e
000003e0: a1fe b53c 9a86 f73d cd0b 073e c919 ed3e
000003f0: 7575 9dbe 2a92 a3be dbda 7b3e d1ef 23bd
0.062464762 0.056764316 -0.21546867 0.042356003 -0.02332072 -0.1737432 0.016074508 -0.021805542
0.082224295 0.09454655 -0.57813984 -0.26609737 -1.6993637 0.5269049 -0.68108535 -0.2054702
-0.0033977935 0.37635478 -0.512087 -0.056503776 0.09338314 0.054255735 0.10854558 0.020161279
0.09106973 -0.06303113 -0.028188672 0.09945179 0.16396406 -0.03477001 0.11203914 -0.27640343
0.2381121 -0.08111255 -0.04382875 -0.036354456 0.30198133 0.027414586 0.023302045 -0.33453536
0.18255378 0.21447654 0.2251739 0.1927493 0.31277192 -0.0002783425 0.025627667 0.39966694
0.043611046 -1.3083856 0.5023105 0.19487974 0.003854759 0.3619851 -0.08813506 -0.16840762
0.12234971 0.35380024 -0.25721192 0.12167512 -0.045209017 0.4208165 0.2312176 -2.4434319
0.04686201 0.013021388 0.022343207 -0.036662307 0.22511518 -0.104094036 -0.03041001 -0.23236594
-0.16591685 -0.6262953 0.28763306 0.27233547 -0.25443593 0.38438624 -0.409696 0.011618346
-0.045980357 -0.20720191 0.23395248 -0.0966649 0.15114689 0.061474066 0.2061243 -0.0845772
-0.0799632 0.2208978 -0.3710446 0.17509396 0.1963458 -0.06487548 -0.05301458 -0.37517846
0.13748084 -0.39721617 0.035264306 0.05024284 0.003320083 0.28927892 0.16445191 -0.03823381
-0.03019124 -1.5115142 0.005596963 -0.03727159 0.10887977 0.088739574 -0.29048392 -0.061665986
0.40642005 -0.4612843 0.07607629 -0.20656449 0.070400216 0.1184738 0.5002794 -0.28097832
-0.02886363 -0.039544523 -0.1665532 0.17244387 -0.17606118 -0.08295412 -0.01720177 0.071616285
0.0683942 -0.074273005 -0.3056988 0.31230772 -0.10076539 0.39380306 0.11876382 -0.061532527
0.10090788 -0.09774487 -1.2559118 0.021647248 -1.399103 0.23716979 0.26217481 0.046452973
0.07503079 0.05759868 -0.6608841 -0.07533845 -0.09937963 -0.01950594 0.23165014 -0.3032083
0.08475498 0.028618839 -0.068322085 0.08380338 0.115753554 -0.008233605 -0.0015726627 -0.02539531
-0.00093701284 -0.22589664 0.10796539 -0.10590742 0.19978479 0.005385538 -0.060442224 0.012251174
-0.009083135 0.19274579 0.19125994 0.1365818 0.23702286 -0.050727814 -0.049393576 -0.27278498
-0.0222892 -0.60824853 0.22298852 0.32716566 -0.015795667 0.03983911 -0.17313547 0.163844
-0.19957969 -0.36384594 -0.15453963 -0.061735936 0.027179256 0.07423421 -0.3486377 -1.5504991
-0.1688651 -0.35085914 0.06530147 -0.2054915 0.30673903 0.047707874 -0.22609076 -0.07431693
-0.0481588 -1.1832502 0.36598033 0.28343952 -0.5572351 0.19971517 0.18209386 0.019919999
0.031414725 0.20160156 -0.15000017 0.014025381 0.19125351 0.01787089 0.06433893 -0.380153
-0.08770834 0.033333972 0.23723027 0.12576188 0.12538107 0.040392153 0.08090073 -0.09382226
0.31271726 -0.26168397 -0.055170216 0.29277322 0.013614841 0.28493348 0.17446168 -0.07710413
0.0329236 -1.0357081 0.038961038 0.032147754 -0.18787785 0.043405186 -0.55367583 0.0466076
0.38085783 -0.9362524 -0.04418446 0.24486469 0.05479864 -0.106902465 0.17287464 0.13937438
0.022216143 0.1208622 0.13188095 0.46308735 -0.30753675 -0.31947452 0.24595205 -0.04002363

fc2.bias f4 [128]
00000000: f650 fabc 520d 123c 3f0a 01bd 7884 a43e
00000010: 6233 b1bd aa6c 75be 37c9 1cbc 6aba 04be
00000020: 3f34 40be 10d1 1cbd b4a5 19be 2003 26be
00000030: d10a 343e 78ea 2a3f 122f 06be 5410 e0bd
00000040: 05a8 8f3d ed3f 153f 2699 2ebd 6ae2 d3bd
00000050: 966f e73e eb79 f6bd 91f4 8cbd 7261 cbbd
00000060: 17d5 a63e 9b08 4ebc 1869 88be 6e20 1f3e
00000070: 5fdc 093d 07a4 87bd 13f7 b03d 413b df3e
00000080: 8c8b cfbd b881 6d3e 36dc cd3c bb41 d9bd
00000090: 825a debd 5814 a0bd 7a46 1d3e 3f65 f7bc
000000a0: c2df b1bb ada5 db3e 3ac3 fc39 3bd0 863d
000000b0: edf1 43bd bda4 49bc 876b 963e 3f3a 303e
000000c0: cc00 dd3e e260 2cbe 9065 3abd ac78 38bd
000000d0: 2561 05be e05a 85be 868f ac3e f93d b4bd
000000e0: db98 f33d e26f 96bd 1e3a a5bd 7d2d a1bd
000000f0: a627 2fbd 7749 6cbe f475 3f3e e897 c53e
00000100: 25ab e1bd e4e7 11bd 9414 83be 78f7 a8bd
00000110: cac3 f5bd 767a 36bd 6633 b1bd 8be7 24bc
00000120: 7405 a8bd dcd7 fdbd 5f75 c7bc b466 3d3d
00000130: 96a0 efbd ba08 f4bd 933c b8bd 14ec fa3d
00000140: 630b e83d 51cd b2bd f855 e63d c088 4b3c
00000150: 12f6 c83e 30b8 163d 5945 d43d f4ae 983e
00000160: 7428 be3c 8be4 edbc 43ab 803d 6047 983e
00000170: 3d34 893d 966f e73c fa87 f9bd 9636 743e
00000180: 300e fa3d 2118 ae3a 5ffd e0bd abb4 29bb
00000190: 8eec 21bc 1063 963c 2550 9d3e 4bbf 183e
000001a0: 0c0e d63d 16fd b0bd 233e 583e d076 3b3e
000001b0: 5cc4 b63e e776 90bd cd49 a63d ee7d 4cbc
000001c0: 794e 82bd e6b2 84be d8fa cf3c cb3c ac3e
000001d0: 3525 89be de0a c6bc bf13 013e 239e 11be
000001e0: 7ebb f93e fb05 43bc 4915 e23b 2523 dabc
000001f0: cf76 f93e ab01 aebd c6a5 bfbd 1f17 dfbd
-0.030556183 0.008914309 -0.031503912 0.32132316 -0.086523786 -0.23967233 -0.009569458 -0.12961736
-0.1876993 -0.038285315 -0.15004617 -0.1621213 0.17582251 0.6676402 -0.13103893 -0.10940614
0.07014469 0.5830067 -0.042626522 -0.103459194 0.4520232 -0.12034973 -0.06882585 -0.099306956
0.3258445 -0.012575294 -0.2664268 0.15539715 0.033657428 -0.066230826 0.08640876 0.43599895
-0.10134038 0.23194015 0.025129419 -0.1060824 -0.10857107 -0.0781638 0.15358916 -0.030199645
-0.0054282853 0.42899838 0.0004821064 0.065826856 -0.04783814 -0.012307343 0.29378912 0.17209719
0.4316467 -0.16833833 -0.045507014 -0.045036957 -0.13025339 -0.26045895 0.3370325 -0.08800883
0.11894389 -0.07345559 -0.080677256 -0.07870004 -0.04276242 -0.230749 0.1869734 0.38592458
-0.11018971 -0.03562154 -0.25601637 -0.08250326 -0.120002344 -0.04455038 -0.086523816 -0.01006497
-0.08204165 -0.123946875 -0.02434796 0.046240523 -0.11700551 -0.11915727 -0.089959286 0.122520596
0.11330297 -0.08730567 0.11246866 0.01242274 0.39250237 0.03679675 0.103647895 0.2982098
0.023212649 -0.029039642 0.062826656 0.29741955 0.06699417 0.02825145 -0.121841386 0.23848948
0.12209737 0.0013282337 -0.10985827 -0.002589504 -0.009883059 0.018357784 0.30725208 0.14916722
0.10451898 -0.08642022 0.21117453 0.18307042 0.35696685 -0.07053929 0.08119545 -0.012481196
-0.06362624 -0.2591774 0.025388166 0.3364013 -0.267862 -0.024175104 0.12605189 -0.1422048
0.48775858 -0.011903281 0.00689951 -0.026628086 0.48723456 -0.08496412 -0.09357791 -0.10893082

fc3.weight f4 [2, 128]
00000000: b314 213f 2f75 fd3e 95db bfbc 3628 90bf
00000010: bee6 c13e 242f d0be 5877 98bd 142b 873d
00000020: c691 a13e af7c afbc 33a7 17bf ce6a 673d
00000030: 8509 ac3e 1d25 a1bf 0892 583f f9c5 60bd
00000040: 5a00 233f 616a bbbf 6126 a6be 3ddd 153d
00000050: 331d 94bf f304 6cbb d2fa 50be 5770 923e
00000060: 7084 f9bf 3c94 4b3c 5de4 72be 9ec8 1abf
00000070: fbf2 3a3e 4b2c bcbb a13f ec3e a1d8 23bf
00000080: 334f 8c3e 4925 923e 1503 98bc 8e73 37bc
00000090: 001a 5c3f 6e4d 063c 70ee 073f e5bb bfb9
000000a0: 2a4f de3e aa02 c9bf eb63 d4be 0966 983e
000000b0: abdd 413f ebd2 a93c 9de5 4abf ed02 2b3f
000000c0: 94e5 4dbf 8456 cfbe b104 c13c 837c 533c
000000d0: 608c 41bf d3f5 4b3f 2799 10bf 1380 143e
000000e0: 0150 503e a24b 2b3f 789a 9abf d832 faba
000000f0: 3233 bdbc fa9e 19bb 17e7 743d 2d6d 153f
00000100: 7887 683a eb4c 0f3e b549 223e ccae 94bc
00000110: f195 fc3c 4d99 2d3f 4780 a0bc 0834 81bb
00000120: 687f a3bc 428c 44bf 1897 853d c4fa e73e
00000130: c7ac 363d dc93 b3bb d9ed 80bc 7ccb cabe
00000140: b868 fc3e 257d a53c 1572 0f3f d9b5 343f
00000150: 821b 07be 9905 b63f d8ef aa3e 91e8 08c0
00000160: adc6 083f 98a5 013f 6ced a93e a020 dabf
00000170: b340 933e e9a2 023f 10fc 86bc 387e cbbf
00000180: 7b47 d43e 3292 02bd e51f f53c 107b 363d
00000190: 94cc 9d3f 64d6 463f 8725 ccbf 9544 943e
000001a0: 56b4 0f3e 8958 db3c 10f4 febe fe0d 093f
000001b0: 27cf babf 715d f2be da3a 1d3f 7cb9 6b3e
000001c0: 9d68 f8be 0ff2 7d3f 97f2 66bd 4cae 00bf
000001d0: 5145 babe 39a9 203f f3ce bd3e 4864 bdbc
000001e0: 06db c2bf ae63 1d3f 2620 f5bb 53c9 d2bc
000001f0: 7df6 d7bf 87fa 0ebd 70bd 303d 7e20 233c
00000200: e792 3f3f 9200 b13e eb8c e0bc cebc 02c0
00000210: dda2 d83e 4afa 07bf a77c 1c3d 1e3b 153c
00000220: 4f82 dabe ddd5 093e f3b0 c6be 560f 5f3a
00000230: c063 c13e c0ed a6bf adbf 2ebe 27dd acbc
00000240: 0c10 3d3e 416b babf 2dcb b43e c881 3f3d
00000250: 157a 7ebf 12c8 243d f4d6 d33e 1eed 9cbe
00000260: 2a49 41bf c214 f43a 0578 59be 6014 2dbf
00000270: 59c6 2dbf 8375 9f3a f9b9 fd3e c8c7 76bf
00000280: f1fa db3e 197c b93e 569f 843d 9d4d 97bb
00000290: 80be 44bf 6036 003e 0a32 993e c1f4 01bd
000002a0: 3aea cc3e 9a9f 5bbf 68d4 79bd e1c0 153f
000002b0: 546e 1d3f ec3c 07bd d904 49bf 6121 da3e
000002c0: 046b a5bf e6fc c1be bf85 6dbb 0c49 b83d
000002d0: e756 2ebe 4c75 5abe 676f 05c0 2751 bc3f
000002e0: cf2c 683e d55b 303f 5bc1 4d3f b4af 22bb
000002f0: 6489 2bbd d6c8 4b3c 098f 023f 19e2 043f
00000300: 037e f63c 5601 ae3e 522c abbe a8f7 863b
00000310: 06c5 efbd 6b8c b13e 798e 093d e47c 833d
00000320: 5c16 5dbb 856c 5abf 037b 0e3d 3f47 093f
00000330: f556 303d 15d2 033d 2b51 273d 02b5 563f
00000340: 2380 133f 8b75 1e3a c8c5 2e3f 0abe 203f
00000350: 8151 d9bf eb58 b5bf b845 bd3e 41cf 4fbf
00000360: 52a1 023f 771b 2e3e 04a4 2d3f e04f f6be
00000370: 47af e63d 0ec5 00bf 1a98 2c3d 7ac1 2fbf
00000380: 2c33 b53e 2329 6b3d 20d0 083d cd2c de3d
00000390: 34f7 873e 22d7 713f c78f eabf 8361 653e
000003a0: 4e02 f33e 4c86 03bd f0a7 39bf 0473 0b3f
000003b0: d8f7 f6bf b00e 5f3e ae61 823f f9ad f7be
000003c0: 6b0e c03e cc80 873f 6d54 2cbd fe3c c1be
000003d0: 7f14 58bf 2e0c 07bf ccce 983e 4ec4 183d
000003e0: b7ae e9bf 15e9 83bb 2d87 0e3d c3cd 973c
000003f0: c041 49bf 8d08 1abd 7daf 89bd e726 c7bc
0.6292221 0.49503466 -0.023420135 -1.1262271 0.37871355 -0.40660965 -0.07444638 0.066000134
0.3155653 -0.021421758 -0.592395 0.05649834 0.33601013 -1.2589451 0.84597826 -0.0548763
0.6367241 -1.4641839 -0.32451156 0.036587942 -1.1571411 -0.0036013692 -0.2040818 0.28601333
-1.9493542 0.012425479 -0.23719926 -0.6046237 0.18256752 -0.005742585 0.46142295 -0.64002424
0.27404174 0.2854407 -0.018556157 -0.011196984 0.8597717 0.008197172 0.530982 -0.0003657035
0.43419772 -1.5703938 -0.4148248 0.29765347 0.75728863 0.020730456 -0.7925661 0.6680134
-0.80428433 -0.40495694 0.023561807 0.012908104 -0.7560482 0.79671973 -0.5648369 0.14501981
0.20343019 0.6691228 -1.207839 -0.0019088639 -0.0230957 -0.0023440705 0.059790697 0.58369714
0.0008870284 0.13994186 0.1584843 -0.018149756 0.030833216 0.67812043 -0.019592417 -0.00394297
-0.019958213 -0.76776516 0.065229595 0.45308506 0.044598367 -0.0054802727 -0.015738415 -0.3960837
0.49298644 0.020201275 0.5603345 0.7058998 -0.13194087 1.4220458 0.3338611 -2.1391947
0.53428155 0.506433 0.3318895 -1.7041206 0.287603 0.5102983 -0.016477615 -1.5897894
0.41460785 -0.031877704 0.029922435 0.044550955 1.2328057 0.77670884 -1.5948952 0.28958574
0.14033636 0.026775615 -0.4979558 0.53536975 -1.4594468 -0.47336915 0.61417925 0.23019975
-0.48517314 0.9919748 -0.056383695 -0.50265956 -0.3638101 0.62758213 0.37071952 -0.023119107
-1.5223091 0.61480224 -0.007480639 -0.025730764 -1.6872097 -0.03490689 0.04314941 0.009956477
0.7483353 0.34570748 -0.027410945 -2.0427737 0.42311755 -0.53116286 0.038204815 0.009108333
-0.42677543 0.13460489 -0.38806877 0.000850906 0.37771416 -1.3041306 -0.17065306 -0.021101547
0.18463153 -1.4563981 0.3531126 0.04675463 -0.9940503 0.040229864 0.41374934 -0.30649656
-0.75502264 0.0018621909 -0.2123719 -0.67609215 -0.6788078 0.0012165759 0.49555948 -0.9639859
0.4296489 0.36227491 0.064757034 -0.0046174065 -0.7685318 0.12520742 0.2992099 -0.031727556
0.4002245 -0.8579041 -0.060993582 0.58497435 0.6149647 -0.033017084 -0.7852302 0.4260359
-1.2923284 -0.3788826 -0.003624305 0.089983076 -0.17025338 -0.21333808 -2.0849245 1.4712266
0.22673343 0.68890125 0.8037316 -0.0024823966 -0.041879073 0.01243802 0.50999504 0.519075
0.030089384 0.33985394 -0.3343225 0.0041188784 -0.11707501 0.34677443 0.03358314 0.06420305
-0.003373525 -0.8532184 0.034785282 0.5362434 0.04305168 0.03218277 0.040848892 0.83869946
0.57617396 0.0006044737 0.6827054 0.62789977 -1.6977998 -1.4167761 0.36967254 -0.8117562
0.51027405 0.17002665 0.67828393 -0.48107815 0.112639 -0.5030068 0.042137243 -0.68654597
0.35390604 0.057412278 0.03340161 0.10848389 0.2655579 0.9446889 -1.8325127 0.22400479
0.47462696 -0.032110497 -0.7252188 0.54472375 -1.9294386 0.21782947 1.018606 -0.48374918
0.37511 1.0586181 -0.042072702 -0.37741846 -0.84406275 -0.5275296 0.29845273 0.037296586
-1.8256444 -0.0040255883 0.034796882 0.018530732 -0.7861595 -0.03760581 -0.06722925 -0.024310542

fc3.bias f4 [2]
00000000: 1801 743d 0006 69bc
0.059571356 -0.014222622
