checkpoint_v1_obstacle/dqn_final.pth (torch, 343377 bytes, 24 tensors)

fc1.weight f4 [128, 31]
00000000: bc90 c7bd f295 99bd d88f e8bc a24c b9bd
00000010: 1ff4 9f3c 4d3f 2fbd 653a 63be 94da 933d
00000020: 3292 12bd 7caa e43d 7b1d 6ebe 9d85 1dbe
00000030: cb32 273e 1b79 ce3d abbe bc3d b508 ca3d
00000040: 9814 6dbd d85e c9bd 74ab 2abc 8708 53be
00000050: 35cd 94bb 9545 5c3d fc82 9dbd 2697 823d
00000060: 0578 a8bc a3d4 a43d f96c a93d a680 8a3d
00000070: 2ae2 b83c ebc9 893c 228c 98bd a95b 19be
00000080: 96ed 44be 7547 c6bd a04b 4abe a5f0 9dbb
00000090: 924d 1abd 51b9 d8bd 03fb a93d 2236 833b
000000a0: 40d2 c53b c5ff 8d3d 77d5 38be 937d 463d
000000b0: 13d6 a93d 33d0 5f3d 9112 4dbd a6a9 cd3d
000000c0: 221b 163e 5b51 f63b e901 9e3d a912 f5bd
000000d0: 6542 a63d 0130 d93d d495 82bd dc4f 373d
000000e0: a90c d2bc 3842 ad3b 5f38 5bbd cdde 27bc
000000f0: 278b 1e3e 65bb 2abe 9d08 babe 9b19 7c3f
00000100: 56d7 0b3e 4b71 08be cf1a f8bf b7c6 04c0
00000110: 1900 e03f 3564 a73f cb1d 0cc0 c807 ab3f
00000120: ace4 b7be 94e8 793e 11a8 ea3e 07d7 2fbf
00000130: e0e6 273f 55c0 0e3f b364 d13d 2a64 10bf
00000140: 0764 a73f c1ef 8abe 9d20 8b3e 4f40 7cbe
00000150: 0322 533f fce5 22be 0c3e d03e 9bac 18bf
00000160: c915 67be 4edb 69bd 5d32 3cbf 9f3c 173f
00000170: 6782 e23e 6fc5 583d 4238 873d 2cbd 023d
00000180: 6842 40bd 35bc 48be 2010 abbd fd04 463d
00000190: 6a4f 55be 8f96 723e 2808 733e 2587 cf3d
000001a0: bceb bdbd dbfc 87be 46da b53d 09da 263d
000001b0: 1799 013e dd92 473e bfa4 18bc 207c 573d
000001c0: 92a5 833d 0b03 7a40 1411 de3d 4e3a d8c0
000001d0: 1900 823e b948 1140 7d36 6e3f fbe1 80bf
000001e0: 22db 033e 9a80 ad3f ee92 f3bd fa7d 9dbe
000001f0: 73d5 80be 12f8 37be b454 863d 2dbf e13c
00000200: 3cfc f3bd 03a4 17be 9478 c9bd d849 9fbc
00000210: c797 23be e26c 8b3e f5e2 b33d 3f93 2abe
00000220: 2edf 3abe 8d28 a3bd 0a42 663d 4c72 c73d
00000230: a4a1 4c3e a8bd 453e 9cd4 df3d 80ca 07be
00000240: 68cb 553e 1ba7 e9bc 81e9 1b3e eb47 dbbb
00000250: f46c 14bd a58a 3a3e 58d3 0abe 2469 2b3d
00000260: 75f6 86bd e3cd 50bd 4d5f d6bc 19c9 41bf
00000270: b129 ccbf 101c 043e 8fd1 36bf c0a7 0440
00000280: 516f bc3e 6280 3abf f528 2ebf a97d b3bf
00000290: da25 c23e edf5 ef3f de2c f3be 5f40 92be
000002a0: 9936 bb3c 86ac 50be 596a ffbc e0a1 d53a
000002b0: 4f0d 273f e1df 74bd 25b3 22bf 179f 77bf
000002c0: e8e3 0c40 b30e be3f 2f36 ddbe f0f5 4fbf
000002d0: 3768 cf3f 111f 763c e35b d2be 4234 04be
000002e0: d250 523f d47e 4a3e 0d90 a4bb 131c 11bf
000002f0: 680a fe3d 81be e23d a9e9 e1bf 6924 b1be
00000300: c004 093f 10be d63e bdb6 58bf 6697 de3f
00000310: a6bd 383d 85f5 1a3e a1ad 02bf 5113 cd3f
00000320: b38e 843f be56 f73e 8540 793e 95f2 d03f
00000330: c27d 303e 1b7f bb3e 0605 6ebe 99af 2cbe
00000340: 8fcb 3ebf 1913 9a3e 5228 dd3e b78b 7c3e
00000350: a498 38be 1245 003f c705 35be da1b 1e3f
00000360: d813 713f a80f dcbe edf4 a33d 8e77 2f3e
00000370: efdf abbe 42ac 2940 04c2 0ac0 4646 f7be
00000380: e206 12bf bc45 6a3f b3d3 18c0 0973 1340
00000390: cf9a 0bbf e435 503f 5336 99bf 32fc 52be
000003a0: f5d9 ebbe 86a7 863e 70c7 51bf ab09 bc3f
000003b0: 3c4e 2f3e ff53 983c b97c 8fbd 9678 5e3e
000003c0: d48d d7bc 980a 20bf 1bc7 e53f fc4d 053f
000003d0: 06cf e6bd 31f4 23be 8e41 7b3d 0a7e 35bf
000003e0: b0c0 6a3e f4e0 03c0 c429 0fbd df2d e53e
000003f0: 48e6 83c0 3362 183f 0ed3 583f b337 1f3f
-0.09744403 -0.07499303 -0.028388903 -0.0904782 0.019525586 -0.042784978 -0.22190244 0.07219425
-0.035783954 0.1116533 -0.23253433 -0.15383 0.1632797 0.10081693 0.092160545 0.09864942
-0.057880968 -0.09832543 -0.010416854 -0.20608722 -0.004541064 0.053777296 -0.07690999 0.063764855
-0.020565042 0.0804837 0.08272738 0.06762819 0.02256878 0.016819915 -0.07448603 -0.14976372
-0.19231257 -0.09681598 -0.19755411 -0.004819947 -0.037671633 -0.10582221 0.0829983 0.004004256
0.0060370266 0.0693355 -0.1805018 0.0484596 0.082927845 0.054641914 -0.050066534 0.100421235
0.14658788 0.0075170225 0.07715208 -0.1196645 0.081181325 0.10604859 -0.06376234 0.044753894
-0.025640802 0.005287435 -0.053520557 -0.010245991 0.1548277 -0.16673048 -0.36334696 0.9847657
0.13656363 -0.13324468 -1.9383181 -2.0746286 1.750003 1.3077456 -2.1893184 1.336175
-0.3591665 0.24405128 0.4583135 -0.6868748 0.6558666 0.55762225 0.10224285 -0.5640284
1.3077401 -0.27136043 0.2717332 -0.24633907 0.8247377 -0.15908045 0.40672338 -0.59638375
-0.22566904 -0.05709391 -0.7351435 0.59076875 0.44240114 0.052922662 0.06602527 0.03191869
-0.04693833 -0.19603045 -0.08352685 0.0483446 -0.20831075 0.23690246 0.2373358 0.10133199
-0.092734784 -0.265601 0.08879523 0.04073528 0.12656055 0.19489618 -0.009316622 0.05260861
0.064280644 3.9064357 0.10843101 -6.7571173 0.253907 2.2700636 0.9305189 -1.0068964
0.12876561 1.3554871 -0.11893259 -0.30760175 -0.2516285 -0.17965725 0.065591246 0.02755698
-0.11913344 -0.1480866 -0.098374516 -0.019444391 -0.15975867 0.27231508 0.08783523 -0.16657732
-0.18249199 -0.07966719 0.056215324 0.09738597 0.19983536 0.1931063 0.10929224 -0.13260841
0.20878375 -0.028522065 0.15225793 -0.006691923 -0.03623672 0.18216951 -0.13557184 0.041848317
-0.06589977 -0.0509776 -0.02616849 -0.75697476 -1.5950223 0.1290133 -0.7141351 2.0727386
0.36803678 -0.72852147 -0.68031245 -1.4022723 0.37919503 1.8746926 -0.47495168 -0.28564736
0.022853183 -0.20378312 -0.03117864 0.0016298853 0.6525468 -0.05978382 -0.635546 -0.96727127
2.2014103 1.4848236 -0.432054 -0.81234646 1.6203679 0.015022055 -0.4108573 -0.1291056
0.8215457 0.19774944 -0.005022055 -0.5668346 0.124043286 0.11071492 -1.7649432 -0.3459809
0.5352287 0.4194188 -0.84653836 1.7389953 0.045102738 0.15132721 -0.51046187 1.602152
1.0356048 0.48308367 0.24341018 1.632403 0.17235473 0.3662041 -0.23244104 -0.1686386
-0.74529356 0.30092695 0.43194824 0.24662672 -0.18026978 0.5010539 -0.17677985 0.6176125
0.94170904 -0.42980695 0.080057 0.1713545 -0.33569285 2.6511388 -2.1680918 -0.48295802
-0.5704175 0.91512656 -2.387921 2.3038962 -0.54533094 0.8133223 -1.1969703 -0.20604017
-0.46064726 0.26299685 -0.8194494 1.469045 0.17119688 0.01859474 -0.07006211 0.21725687
-0.026312746 -0.62516165 1.7951387 0.5207212 -0.11269955 -0.1601112 0.061341815 -0.70895445
0.22925067 -2.060605 -0.03495194 0.4476156 -4.1218605 0.5952484 0.84697044 0.62194365

fc1.bias f4 [128]
00000000: 4675 1ebe e28c 6a3d 203a a3be 9dda 98bd
00000010: 03f6 9fbd 5be1 00bf e640 44be 4337 17bf
00000020: 52d9 523c 02a3 b7be f27d fd3c 066c 96be
00000030: bf0e 81be 61ed 2dbe c050 66be bb5d a8be
00000040: 71f5 54be c607 b13c deb0 34bd be87 68be
00000050: 7121 8ebe baa3 16be 1ee8 84be 9775 303c
00000060: e29e 2dbe 5806 9abd 93ae 5abe b153 27be
00000070: 1f44 cbbe 2064 c0bd d250 b2be 2302 debd
00000080: 561c 90be c7f5 e2bd 26fa 13bf d410 2abf
00000090: a083 c6bd 54a9 34be 6959 b7be 478f 4dbf
000000a0: 4861 a9bb 020a d03d 2612 fdbd 53c1 ccbd
000000b0: c69b 0c3e ffa7 98be 6962 463b 8a41 eb3d
000000c0: 5467 cfbe 6f4e 1dbe 55fd db3d 2a99 c93e
000000d0: 6dc6 cbbd db4d d0be cf82 f3be b15f e1bd
000000e0: 2697 50be 26c2 93be 5fad 40be 14e3 7dbe
000000f0: 5d0c 30be a4cd 23be f49f 97be 8688 9dbe
00000100: b599 41bb 527f 44be 6544 d2be 9d0c a5be
00000110: 604d 4bbd 3184 e3bd 4db6 5dbe ee7a 78be
00000120: c789 52be 15ec 543d a7f6 c9bd 0ce9 be3e
00000130: ec57 40be 43ff 7abe ccbb 8dbe 9ec3 1abe
00000140: 7eab 46be 160c 2bbd 2eb5 18be b22e 1f3d
00000150: 898f 4ebe bea5 6dbe cc0e ad3e 80b0 fabe
00000160: e816 4bbe 94b5 53bf 5c9d 24bf 5ed5 a9be
00000170: aec1 1abc c233 15be 3e51 a53d afc5 f8bd
00000180: e409 0cbe a303 6ebe a0f9 afbd c4d9 4a3e
00000190: 4b5c bcbd cace cabd 5202 c5be 90be 22be
000001a0: 9685 8c3d 4109 60bd d62c b4be 902c 38be
000001b0: 8d4c a4be beff 6fbd 5422 afbd dbed 6ebd
000001c0: a77c 373d cf45 98be 4139 8bbe 1b52 a6bd
000001d0: a049 46bd 41c5 b7be c1b7 a6be 6cc1 c6bc
000001e0: 8d0b 26be 7f00 78be 0475 093e 35f0 84be
000001f0: 413f 96be a809 ccbe c999 063c fbb0 37bf
-0.15474424 0.057263263 -0.31880283 -0.07463572 -0.07810595 -0.50343865 -0.19165382 -0.590687
0.012869196 -0.35866553 0.030943844 -0.2937929 -0.25206563 -0.16985084 -0.22491741 -0.3288401
-0.20796753 0.021610152 -0.044113986 -0.22708032 -0.2775989 -0.14710894 -0.2595834 0.010770223
-0.1695514 -0.07520741 -0.21355657 -0.1634052 -0.3970041 -0.09394097 -0.34827286 -0.10840251
-0.2814662 -0.110820346 -0.5780357 -0.6643193 -0.09693074 -0.17642719 -0.35810402 -0.8029675
-0.0051690675 0.10158159 -0.12356977 -0.09997811 0.13731298 -0.2981567 0.003027106 0.1148711
-0.4050852 -0.15361951 0.107416786 0.39374667 -0.09949956 -0.406844 -0.47560737 -0.1100458
-0.20370159 -0.2885906 -0.18816136 -0.24793655 -0.17192216 -0.15996414 -0.29614222 -0.30768222
-0.002954108 -0.19189194 -0.41067806 -0.32236186 -0.049634337 -0.11109198 -0.21651573 -0.24265644
-0.2056037 0.051982958 -0.09861498 0.37287176 -0.1878354 -0.24511437 -0.2768234 -0.15113685
-0.19401357 -0.041759573 -0.14912865 0.03886289 -0.20171942 -0.23207757 0.33800352 -0.48962784
-0.19832957 -0.8269894 -0.6430261 -0.331706 -0.009445591 -0.14570525 0.08072136 -0.1214708
-0.13675648 -0.23243575 -0.08592534 0.19809633 -0.09197291 -0.09902723 -0.38478333 -0.15893006
0.06861417 -0.054696325 -0.35190457 -0.17985749 -0.32089654 -0.058593504 -0.085514694 -0.058332305
0.044796612 -0.2974076 -0.2719212 -0.08121129 -0.048410058 -0.3589268 -0.32562068 -0.024262153
-0.16215344 -0.24218939 0.13423544 -0.25964513 -0.29345134 -0.39851117 0.008215376 -0.71754426

fc2.weight f4 [128, 128]
00000000: 0ddb 7f3d b381 683d be5b a3bf 8fc4 0fc0
00000010: 180b bfbc 5683 453e 65aa 84be 0b75 1d3d
00000020: 42d1 62bf 58b4 4abe b895 63bf 4a99 81be
00000030: 5209 2fc0 9c58 223f 1e4c b2bf 6a2f a2bf
00000040: 84ad 5ebb 82d4 163e 7455 93bf 0535 06bb
00000050: 9ee2 803f 433b 5e3d 084a d5bf f3fc c1be
00000060: c482 ba3d 7716 81bd e432 2c3f 833e 49be
00000070: c135 94be ff6a 0ebd dd48 bf3c 80c3 b0bf
00000080: 0ae1 d33e 4b7b d7bf 94bc c7be b8c1 8abe
00000090: 0e2c 6d3e 8e94 e03c 5856 413f 461e c33e
000000a0: a5d6 18be 819f eabe 818c 3fbe 870f 413e
000000b0: 3156 0f3f d054 443f 4c80 d03e a3c6 4140
000000c0: f6ab 3fbc ff52 7ac0 ec0f 6d3e 9b82 dc3d
000000d0: 20a0 7c3b 2b32 a13f 8581 20bf edfd f6bc
000000e0: 3da3 93bf ddd1 a63f 6a3c b4be da9d 6abe
000000f0: 172d 39bd 53c6 013f d2dc 1e3f 8df8 00c0
00000100: ebd9 92be dd38 2f3c be9f 84bf 786f e4bf
00000110: 5a99 8d3e 412f d5bd 2986 9cbc 0906 37bf
00000120: 2325 27be 1ee4 f4be 5d02 19bf cbee 7b3c
00000130: 7de2 3ebe 87e7 073e 3383 30bf 0877 86ba
00000140: 6484 903e 13b6 32be 4bfd 17be f14d 9d3e
00000150: f7d3 67bf 5a8c 223d 7368 3f3f 89c7 6e3f
00000160: 1cf9 6ebd 42db ab3e 2410 84bf 048b cfbf
00000170: 2272 4f3e 70dd 84bd d125 59bd 931c 74bf
00000180: 0c32 a1be 2b9e a93e 5fdc e9be bfa0 a33d
00000190: c095 593b 3b01 603f f05b c23d e49e 29bf
000001a0: 230d 9abc 9d6d 7cbf 6246 d5bd 18aa 18bd
000001b0: c950 1e3e 8ecf 46c0 5083 86bf 7995 7cbd
000001c0: 93fe 25bd e52d 88bd e3cd 9b3d e76b 713e
000001d0: fd2d 903d 2bce 1abf d772 143f c309 f6bf
000001e0: 7c3a 823f 915e 353f 8663 5f3e 5431 19be
000001f0: 4ba6 46bf ba6a 383e 609b 44bf 8f32 9fbe
00000200: 4212 8c3d 721c 98bd 6ca9 bcbf 54c2 243f
00000210: 165e cebd 4cfa 35bf bf20 883e 8e43 fe3f
00000220: 60aa 1bbd e249 4cbf 6f31 9ebf e7ec d2bd
00000230: f582 e7bf 7754 143c 059c 303f f22c 113f
00000240: bea9 993d 52a3 383e 2268 39bd 64af cc3d
00000250: 0579 2fbf ecca 9fbc 5f64 0d3f 6378 853e
00000260: 0594 ad3d 0e72 ea3c cc46 a4be fa3d ddbf
00000270: 2d95 16bf 3ee6 06bc 6d5b 303f 59e3 15c0
00000280: 0b05 983f 183b 46be 6971 96bf b00e 093f
00000290: a2b0 c53e 2b79 b03b 7858 283f 028b f4bf
000002a0: d9a2 d4be bd50 693e 6f97 f5bb 6597 333e
000002b0: 28fb 933e 92d5 f63e e8bc 54be 7647 a3bf
000002c0: fc26 ddbe abdb c2bf 9184 383f 9bd3 183f
000002d0: d673 23ba 238c 8dbf 48fe ecbe 9b2d 5ebd
000002e0: 2578 cbbd 89f5 9fbd 795d 38bd 92e6 4abf
000002f0: 08a7 de3c 5562 f5be a555 bbbf 2a5d 9abf
00000300: f512 b4bd a900 b6be 3663 9dbf 9f3b efbe
00000310: 1106 473f 5569 433d a13b 543f 2280 4dbf
00000320: 658d 3cbd cbf4 1bc0 2df8 c2be 1eb1 753e
00000330: 4f34 253f 198f a43e 7397 173e 45c1 e83b
00000340: d978 9abf f902 9c3f 2d8c 17bf 2b02 6b3e
00000350: f365 893e 60df fa3a 242b 22bf dc4f f9be
00000360: 2769 70bd 2f14 0ebf 83f2 76bf dae9 12bf
00000370: 709a 853e 3e72 253d 48af a53d efb0 e93e
00000380: 85aa 923e d48d a33e ee32 fcbe f0f4 3c3f
00000390: c810 5f3c c781 a63f 3ec0 abbc 4678 6bbe
000003a0: dc79 323d 4d32 68bf 1c85 c03e 5dad 033d
000003b0: bb34 8d3e e8f8 c13f 9a4f cabf 9ce7 3e3d
000003c0: c7cf 613f e35f 00c0 c4fa 34bd 40f2 c5bd
000003d0: 8a74 603d 1a1b 5abf de73 823e 2609 3c3f
000003e0: 567a e6be 3dd4 563d ee80 9d3f 7bcc 6abf
000003f0: 1117 0ac0 23f0 b4be 9eb7 413f 1962 0bbf
0.062464762 0.056764316 -1.2762372 -2.246372 -0.02332072 0.19288382 -0.2591125 0.0384417
-0.8860055 -0.19795358 -0.8890033 -0.25312263 -2.7349439 0.6341646 -1.3929479 -1.267072
-0.0033977935 0.14729503 -1.1510453 -0.002047838 1.0069158 0.054255735 -1.6663218 -0.37888297
0.09106973 -0.06303113 0.6726515 -0.19652753 -0.2894726 -0.03477001 0.023350174 -1.3809662
0.4138263 -1.6834501 -0.3901106 -0.2710092 0.23161337 0.027414586 0.75522375 0.38109034
-0.1492563 -0.45824817 -0.18705942 0.1885358 0.5599089 0.76691914 0.40722883 3.0277488
-0.0116987135 -3.9113157 0.23150605 0.107670985 0.003854759 1.2593435 -0.6269763 -0.030150378
-1.1534191 1.3032795 -0.35202342 -0.22911778 -0.045209017 0.50693244 0.62055695 -2.0151703
-0.28681883 0.01069471 -1.036125 -1.7846518 0.2765606 -0.104094036 -0.019106941 -0.71493584
-0.1632276 -0.4783029 -0.5976923 0.015376757 -0.18641086 0.13271914 -0.68950194 -0.0010258863
0.28226006 -0.17452268 -0.14842717 0.30723527 -0.9055781 0.03968463 0.7476875 0.93273216
-0.058343038 0.33565718 -1.0317426 -1.6214299 0.20258382 -0.06487548 -0.05301458 -0.953561
-0.31483495 0.33128485 -0.45675942 0.07989644 0.003320083 0.8750188 0.09490192 -0.6625807
-0.018805092 -0.98604757 -0.10413815 -0.03727159 0.15460505 -3.1064181 -1.0508823 -0.061665986
-0.040525984 -0.06649379 0.07607629 0.23576318 0.070400216 -0.6047084 0.5798773 -1.9221729
1.0174098 0.7084742 0.21815309 -0.14960223 -0.7759749 0.18009463 -0.76799583 -0.3109326
0.0683942 -0.074273005 -1.4739203 0.6435902 -0.10076539 -0.7108505 0.26587483 1.9864366
-0.03800428 -0.79800236 -1.2358836 -0.10299092 -1.808684 0.009053341 0.68988067 0.56709206
0.07503079 0.18031052 -0.045265324 0.099943906 -0.68544036 -0.01950594 0.5523128 0.2606841
0.08475498 0.028618839 -0.32085264 -1.7284539 -0.58821374 -0.008233605 0.68889505 -2.3420012
1.1876539 -0.1935848 -1.175336 0.53538036 0.38611323 0.005385538 0.6575999 -1.9104922
-0.41530493 0.22784705 -0.007494859 0.17538221 0.28902555 0.48209816 -0.20775187 -1.2756183
-0.43193805 -1.5223287 0.7207728 0.59697884 -0.00062352174 -1.1058391 -0.4628775 -0.05424271
-0.09935025 -0.07810504 -0.045011017 -0.7925807 0.027179256 -0.47926584 -1.4635512 -1.2059681
-0.08792678 -0.3554738 -1.2295902 -0.46725175 0.7774363 0.047707874 0.82903486 -0.8027364
-0.04603328 -2.436816 -0.38079968 0.23993346 0.6453294 0.32140425 0.14803867 0.0071031176
-1.206813 1.2188407 -0.59198266 0.22950046 0.26835594 0.0019140057 -0.6334708 -0.4869374
-0.05869403 -0.5549955 -0.96463794 -0.5738808 0.2609439 0.040392153 0.08090073 0.45642802
0.2864572 0.31944144 -0.49257606 0.73811245 0.013614841 1.3008355 -0.020965692 -0.229951
0.043573245 -0.9070175 0.37601554 0.032147754 0.27579293 1.5154085 -1.5805542 0.0466076
0.8820767 -2.0058525 -0.04418446 -0.09665346 0.05479864 -0.85197604 0.25479025 0.7345146
-0.4501521 0.0524485 1.2304971 -0.9171826 -2.1576579 -0.3533946 0.756708 -0.5444656

fc2.bias f4 [128]
00000000: f933 833d 02b2 17bd 3f0a 01bd a2e0 f73e
00000010: 7afb acbd dc61 9cbe a049 27bd 6aba 04be
00000020: 8336 ba3d 6328 8fbd bb52 8d3d 53d4 58bf
00000030: 34fe 133f 2635 b63f 788e 603e 2536 2bbe
00000040: 0e38 b83e b948 9b3f 200e dc3d 6ae2 d3bd
00000050: 6832 e33f eb79 f6bd 2407 7ebf 5c9a 50be
00000060: 1e19 003f d7a3 99bd 1249 4c3f 6c7b 293f
00000070: ff8e 66be 5a22 c6bd bf13 2d3f 07d0 a93f
00000080: bed1 413f 0412 6e3f 36dc cd3c e28e 0cbf
00000090: 3b8c 3ebe 4911 e1bd 4062 983f 26dc 883d
000000a0: 5c43 09be 7325 333f 7200 983c d2ee c73e
000000b0: edb9 0a3d 0a1e 7bbd 715d 9d3f a90a 593f
000000c0: de92 ad3f 0f69 ccbe 9065 3abd 70a9 8dbd
000000d0: b21b 113e 738a 4cbe b269 203f 8a82 0ebe
000000e0: cf9f 973e 146c 22be 27c4 39be 7d2d a1bd
000000f0: 1fa0 90be 8ff4 84be 0579 2c3f 27dc b43f
00000100: b596 0fbe 9933 ab3e d6dd a8be 78f7 a8bd
00000110: 5594 30be 5820 c43e 1905 18be 2db2 2abd
00000120: 7ae7 f1bd f108 36bf 0a1d b6bd 1367 d93e
00000130: 3e50 18be 0f14 95be 933c b8bd 77c9 0abd
00000140: e574 243f 7aae 2dbf 531d a13f c53a 443f
00000150: 32c3 a63e 9099 c1bd 0805 5d3f f118 863d
00000160: 2a34 503e db51 953e 1736 df3c 79bb 2b3f
00000170: a7d7 d3bd 68b9 2e3e 0710 1dbe 8c86 993f
00000180: ba87 963f 5c48 95bc 8607 5abe 5612 46bd
00000190: 76e4 02bd f6ce 0b3f 81a1 1c3f 0272 113e
000001a0: 54e6 8b3f 4298 f1bd b68d 9a3e 48e7 253f
000001b0: 4319 003f ab91 c23c bad8 e23e 81f4 4bbf
000001c0: 216d 1d3e b4dc 3b3e cd95 b63c 4cf8 233f
000001d0: c7be 25bf c40b f23d fd26 d93e 239e 11be
000001e0: 0d46 0d3f fa08 d0bc d2b9 27bc e1a0 6ebd
000001f0: 3f6b 793f 04eb 40bf 0338 19be 1f17 dfbd
0.06406397 -0.037034996 -0.031503912 0.4841357 -0.08446403 -0.3054341 -0.0408417 -0.12961736
0.090924285 -0.06990125 0.06900545 -0.8469898 0.5780976 1.423497 0.21929348 -0.16719873
0.35980266 1.2131568 0.10744882 -0.103459194 1.7749758 -0.12034973 -0.99229646 -0.20371383
0.50038326 -0.07501953 0.79798996 0.6620395 -0.22515486 -0.09674521 0.67608255 1.326661
0.75710666 0.9299624 0.025129419 -0.5490552 -0.18608181 -0.10989625 1.1904984 0.06682615
-0.13404602 0.6997902 0.0185549 0.39049393 0.03386872 -0.061307944 1.2294141 0.8478189
1.3560445 -0.39923903 -0.045507014 -0.06917083 0.14170721 -0.19974689 0.6266128 -0.13916984
0.29614112 -0.15861541 -0.18141232 -0.07870004 -0.28247163 -0.25967833 0.6737216 1.4129685
-0.14022334 0.33437803 -0.32981747 -0.08250326 -0.17244084 0.38305926 -0.14845695 -0.041673828
-0.11811729 -0.71107394 -0.088922575 0.42461452 -0.1487436 -0.29116866 -0.089959286 -0.033883538
0.64240867 -0.67844355 1.2587074 0.76652175 0.32570797 -0.09453118 0.863358 0.06547726
0.20332399 0.29164013 0.027247472 0.67082936 -0.10343867 0.17062914 -0.15338145 1.1994185
1.176017 -0.01822298 -0.21291932 -0.04835733 -0.03195616 0.5461267 0.61183935 0.14203647
1.0929666 -0.11796619 0.30186242 0.6480603 0.50038546 0.0237511 0.44305974 -0.7966996
0.1537366 0.1834591 0.022288227 0.64050746 -0.6474423 0.1181865 0.42412558 -0.1422048
0.55185014 -0.025394905 -0.010237174 -0.058258895 0.9742927 -0.75358605 -0.14962773 -0.10893082

fc3.weight f4 [2, 128]
00000000: 25e5 373f 94aa 5a3f 95db bfbc 23db 7fbf
00000010: 7070 3740 4ba7 56bf 5877 98bd 142b 873d
00000020: f1d7 31bf af7c afbc 03d6 36c0 9cea b73f
00000030: f577 a73e da2e dbbf 3bab 823f 8f20 aabd
00000040: 7f45 433f 1b35 17c0 c20e a63f 3ddd 153d
00000050: ad8c 53bf f304 6cbb 56ce 9e3f 9f43 8f3f
00000060: 1f24 50c0 3c94 4b3c cfb7 10be 8098 80bf
00000070: 0404 35bf 8e22 ce3c 1851 323f e08b 23bf
00000080: 45bc 473f 877e b93e 1503 98bc 495c 873f
00000090: c1cc 1040 6e4d 063c 607b a23e a8cf 193f
000000a0: e6b7 a33f c92d 47c0 c21c 42c0 0e36 293f
000000b0: 619f 9f3f d1f6 ecba b929 78bf 0f95 243f
000000c0: 850c 0ac0 dee6 11bf b104 c13c 0943 3cbd
000000d0: 841c 6fbf 34c7 b03f e428 a9bf 844b 0a40
000000e0: a9b9 3a3f 0f77 9a3f 1c4f 59c0 d832 faba
000000f0: 5ed5 bdbe 8414 de3c 5abf f13e ee5d 093f
00000100: fe48 fbbc 1ad3 9a3f 9fa5 9bbf ccae 94bc
00000110: 091e f93c 666d 693f db22 82bc 0834 81bb
00000120: e0e3 e9bc a2a8 4dbf 5f09 683d 8226 3f3f
00000130: c7ac 363d ce74 92bf d9ed 80bc 8833 acbf
00000140: 6768 203f 3041 dc3e 59ba 1c3f 2c25 723f
00000150: 3739 c03f 0b39 0b40 0f6c 713f bc01 5bc0
00000160: 19be 5a3f 7b9b 833f 8c06 c33f babf 6fc0
00000170: c4e3 a43f 35c9 e23f 10fc 86bc 24f4 22c0
00000180: 6b66 0d3f e1cd 3a3c ed0b 11bc 429d 78bc
00000190: 0f1b 9c3f 93e0 813f d366 06c0 bdb0 903f
000001a0: 52e9 a93f 8958 db3c 5a6a 91bf 727a ca3e
000001b0: a1d9 30c0 0341 55bf 074a 653f ad2a c43e
000001c0: 0494 953f 8b62 5440 09e7 02bc 6302 71bf
000001d0: 3c40 6dbf 156c 6840 8736 d53e 4864 bdbc
000001e0: 695e 1bbf 713a ab3f b9e0 92bb 53c9 d2bc
000001f0: b964 c2bf 85bc e63f cfbb 3a3c 7e20 233c
00000200: 58c1 503f d37c 3f3f eb8c e0bc 0d95 bfbf
00000210: d756 5640 22bd 8abf 8ca7 193c 1e3b 153c
00000220: 154b 16bf 4810 d53d bcaf e4bf 511a cb3f
00000230: 739a 0d3f 5b61 8fbf 36f5 5e3f f586 6f3c
00000240: dfec 903f bb98 46c0 146a ae3f c881 3f3d
00000250: 4cd0 c8bf 12c8 243d fe4e ba3f 8aa4 3ec0
00000260: fdaf d2bf 68ef 153b fb7b b6bf 3017 8cbf
00000270: 90a5 ddbf 8375 9f3a 00a2 fa3e ab7c 75bf
00000280: e9d7 3e3f 217d 9f3e 569f 843d d54c 41be
00000290: 1ed1 12c0 fb78 bf3d 7d06 e13e a291 bd3f
000002a0: 735a 953f 6bf8 c8bf fd21 84be ed1f a63f
000002b0: 50c7 703f 17c5 aebb 367d b7bf 2987 6c3f
000002c0: 587a bcbf f5ee fdbe bf85 6dbb 0cb9 2f3d
000002d0: a434 cabd 5bee e23e 2ec1 a7c0 b01d 0640
000002e0: e16f 4e3f 09cd d53f 501d be3f b4af 22bb
000002f0: 87c4 993f d6c8 4b3c 0c42 6e3f 1ff2 1c3f
00000300: 037e f63c 0d0f ba3f 922b d7bf a8f7 863b
00000310: 96db d2bd b177 653f 798e 093d dd4a 113d
00000320: 9907 5dbc d57f 3ebf 2eae 7d3d 9961 253f
00000330: 6210 403c c212 963f 2b51 273d 2bcf 5740
00000340: 6d06 3b3f e4d0 283f f06c 1c3f 4406 a73f
00000350: 003a 65c0 463f 07c0 1c54 663f f105 9dbb
00000360: 5b97 f13e f77f 4d3f c4c0 903f 776a a8bf
00000370: 575f a73f bc3f 5840 68a3 693c 650b a6bf
00000380: 3fb8 d83e e209 893c 6dd1 ca3d 1242 ef3d
00000390: 9efd 0240 17d1 4d3f ad26 ebbf f1fd 9f3f
000003a0: 00aa d33f 1dec 50bb 6e4b 94bf 6bd5 fd3e
000003b0: dbc3 0fc0 b752 c83f f064 0a3f 11f2 e5be
000003c0: 5fd5 a53f 8bc8 0340 4362 17bd 89d0 36bf
000003d0: 3282 0cbf 4a10 9dbf 1875 cc3d 4ec4 183d
000003e0: f6b5 fcbf 8606 a73f df96 383d e4fa 57bc
000003f0: 61f1 f8bf f30c 2ec0 f4c5 60bd e726 c7bc
0.7183402 0.8541653 -0.023420135 -0.9994375 2.8662376 -0.8384902 -0.07444638 0.066000134
-0.69470125 -0.021421758 -2.8568122 1.4368472 0.32708707 -1.7123673 1.0208505 -0.08306991
0.7627792 -2.3626163 1.2973254 0.036587942 -0.8263653 -0.0036013692 1.2406719 1.1192511
-3.2522047 0.012425479 -0.14132617 -1.0046539 -0.7070925 0.025162961 0.6965499 -0.6388531
0.7802165 0.36229345 -0.018556157 1.0575038 2.2624972 0.008197172 0.31734753 0.60082483
1.2790496 -3.1121695 -3.0330052 0.66098106 1.2470514 -0.0018078928 -0.96938664 0.64289945
-2.1570141 -0.569929 0.023561807 -0.045962367 -0.93402886 1.3810792 -1.3215604 2.160859
0.72939545 1.2067584 -3.3954535 -0.0019088639 -0.3707685 0.027109392 0.47216302 0.5365895
-0.030674454 1.2095673 -1.2159919 -0.018149756 0.03040983 0.91182554 -0.015885761 -0.00394297
-0.028551042 -0.8033544 0.056649562 0.74668133 0.044598367 -1.1441896 -0.015738415 -1.3453226
0.62659305 0.43018484 0.61221844 0.9458797 1.501746 2.1753566 0.9430551 -3.4219809
0.85446316 1.0281824 1.5236373 -3.746077 1.2882009 1.7717654 -0.016477615 -2.5461512
0.552344 0.011401624 -0.008852941 -0.015174212 1.2195758 1.014666 -2.100026 1.1303936
1.3274329 0.026775615 -1.1360581 0.39546543 -2.763283 -0.83302325 0.8956608 0.3831381
1.1685796 3.3185146 -0.007989653 -0.94144267 -0.9267614 3.6315968 0.41643164 -0.023119107
-0.60690933 1.337721 -0.0044823554 -0.025730764 -1.5186988 1.8026282 0.011397316 0.009956477
0.8154502 0.7479984 -0.027410945 -1.4967362 3.3490503 -1.0838969 0.009378325 0.009108333
-0.58708316 0.10403496 -1.786613 1.5867406 0.55313796 -1.1201586 0.8709291 0.014619579
1.1322287 -3.103072 1.3626122 0.04675463 -1.5688567 0.040229864 1.4555357 -2.9787927
-1.6459957 0.0022878293 -1.4256586 -1.0944576 -1.7316151 0.0012165759 0.4895172 -0.95893353
0.745482 0.31150153 0.064757034 -0.18876965 -2.2940135 0.09349247 0.43950263 1.4810069
1.1668228 -1.5700811 -0.2580718 1.2978493 0.94054127 -0.0053335535 -1.4335086 0.9239374
-1.4724836 -0.49596372 -0.003624305 0.042901084 -0.09873322 0.44322476 -5.2423315 2.095562
0.80639464 1.6703197 1.4852695 -0.0024823966 1.20131 0.01243802 0.9306953 0.6130695
0.030089384 1.4535843 -1.6810172 0.0041188784 -0.10295789 0.8963576 0.03358314 0.035471786
-0.013490581 -0.74413806 0.06193369 0.6460205 0.011722656 1.1724474 0.040848892 3.3720195
0.7305668 0.6594374 0.61103725 1.3048787 -3.581665 -2.113237 0.8997209 -0.004791968
0.47185788 0.80273384 1.1308827 -1.315749 1.307597 3.37889 0.0142601505 -1.2972227
0.4232807 0.016728345 0.09903226 0.11682524 2.0467296 0.8039717 -1.8371178 1.2499372
1.6536255 -0.0031879016 -1.1585519 0.49576887 -2.246329 1.5650243 0.5406027 -0.44911245
1.2955741 2.0591152 -0.036958944 -0.7141195 -0.5488616 -1.2270596 0.09983271 0.037296586
-1.974303 1.3048866 0.045065757 -0.013182376 -1.9448663 -2.7195404 -0.054876283 -0.024310542

fc3.bias f4 [2]
00000000: e1a8 113f 2945 313f
0.56898314 0.69246155

fc1.weight f4 [128, 31]
00000000: bc90 c7bd f295 99bd d88f e8bc a24c b9bd
00000010: 1ff4 9f3c 4d3f 2fbd 653a 63be 94da 933d
00000020: 3292 12bd 7caa e43d 7b1d 6ebe 9d85 1dbe
00000030: cb32 273e 1b79 ce3d abbe bc3d b508 ca3d
00000040: 9814 6dbd d85e c9bd 74ab 2abc 8708 53be
00000050: 35cd 94bb 9545 5c3d fc82 9dbd 2697 823d
00000060: 0578 a8bc a3d4 a43d f96c a93d a680 8a3d
00000070: 2ae2 b83c ebc9 893c 228c 98bd a95b 19be
00000080: 96ed 44be 7547 c6bd a04b 4abe a5f0 9dbb
00000090: 924d 1abd 51b9 d8bd 03fb a93d 2236 833b
000000a0: 40d2 c53b c5ff 8d3d 77d5 38be 937d 463d
000000b0: 13d6 a93d 33d0 5f3d 9112 4dbd a6a9 cd3d
000000c0: 221b 163e 5b51 f63b e901 9e3d a912 f5bd
000000d0: 6542 a63d 0130 d93d d495 82bd dc4f 373d
000000e0: a90c d2bc 3842 ad3b 5f38 5bbd cdde 27bc
000000f0: 278b 1e3e 65bb 2abe 9f32 b8be 083c 783f
00000100: 56d7 0b3e 41e6 f9bd 0daf f4bf 1ecc 04c0
00000110: 0fcb e53f 24f1 ab3f 2360 08c0 61a8 ab3f
00000120: 23b6 bebe 1d7c 713e e254 e73e a27a 35bf
00000130: 78de 203f cc92 073f f64f 8f3d 19dd 18bf
00000140: 57c5 a43f c5bb 8abe a641 8b3e 067e 58be
00000150: 8b91 533f 7ed7 29be c474 d53e b3f8 1fbf
00000160: 03c2 6cbe 36fe cdbd 5617 42bf 4df7 113f
00000170: bfa9 cb3e 2bed 693d 581a c83d 2cbd 023d
00000180: ebc6 3bbd d69f 38be 58e1 cbbd 2446 333d
00000190: cab3 59be 8247 713e 3115 733e 248a ca3d
000001a0: 87af 9dbd b7da 84be 3340 b23d 353d 313d
000001b0: 1451 053e f322 413e 15fd cf3b a205 793d
000001c0: 5b39 8c3d f2a5 7640 7233 2c3d b83c d7c0
000001d0: 1325 843e c445 1240 ecad 773f 37c5 85bf
000001e0: 0b25 083e 82f0 ab3f 8fef ebbc c8d3 9dbe
000001f0: 73d5 80be 12f8 37be b454 863d 2dbf e13c
00000200: 3cfc f3bd 03a4 17be 9478 c9bd d849 9fbc
00000210: c797 23be e26c 8b3e f5e2 b33d 3f93 2abe
00000220: 2edf 3abe 8d28 a3bd 0a42 663d 4c72 c73d
00000230: a4a1 4c3e a8bd 453e 9cd4 df3d 80ca 07be
00000240: 68cb 553e 1ba7 e9bc 81e9 1b3e eb47 dbbb
00000250: f46c 14bd a58a 3a3e 58d3 0abe 2469 2b3d
00000260: 75f6 86bd e3cd 50bd 4d5f d6bc ee13 44bf
00000270: 22ab cabf 101c 043e 641c 39bf 6904 0340
00000280: 977d cc3e 2dcb 3cbf bd73 30bf 049a b6bf
00000290: 55d9 cb3e 2daf ec3f e314 06bf d0f5 a9be
000002a0: 1f9b 6cbd c122 83be 4cce bdbd aea2 13bd
000002b0: 5485 1a3f f832 50bd fafd 24bf 2573 49bf
000002c0: db16 0c40 7e40 be3f c2cb e1be 554d 30bf
000002d0: 7121 cc3f e43d 723c 75f1 d6be 0e13 f6bd
000002e0: 049f 5a3f 2036 643e 5a61 bf3b a257 0dbf
000002f0: 680a fe3d a9fd f83d 1d1d dfbf c039 9bbe
00000300: a7cc 0b3f d34d dc3e 8bda 54bf b95a dd3f
00000310: 9927 893d df14 263e 0ac6 04bf 92ce c93f
00000320: a3f2 853f 84e6 fc3e b678 4e3e bba7 c73f
00000330: 6e1f 243e 51d3 c03e 3ff7 5ebe abdf 33be
00000340: 3640 3cbf 4f67 9f3e a170 e53e 631d 7f3e
00000350: 5cd2 36be 37ef 023f 3d9d 37be 84b6 233f
00000360: f92d 723f ec49 d6be 39ab a83d 8e77 2f3e
00000370: 8e98 a5be b7da 2540 f5ac 0cc0 0b0a eebe
00000380: dee7 0dbf ca67 633f fc06 1bc0 b946 1040
00000390: 99ce f0be bf81 5b3f 1f2d 99bf 4765 43be
000003a0: bcf3 e1be 9b22 883e af98 4ebf 618e be3f
000003b0: 6b8b 333e 014f 913c b3e1 43bc 28b4 263e
000003c0: e0d2 b5bc 47c8 16bf fb79 e33f 9aea 063f
000003d0: 31db c7bd 27cd 89bd f7bb 243e c610 2abf
000003e0: 9bec 663e 22fe 01c0 c429 0fbd cda3 e13e
000003f0: 0254 83c0 55a2 133f a0b6 563f 89b9 1c3f
-0.09744403 -0.07499303 -0.028388903 -0.0904782 0.019525586 -0.042784978 -0.22190244 0.07219425
-0.035783954 0.1116533 -0.23253433 -0.15383 0.1632797 0.10081693 0.092160545 0.09864942
-0.057880968 -0.09832543 -0.010416854 -0.20608722 -0.004541064 0.053777296 -0.07690999 0.063764855
-0.020565042 0.0804837 0.08272738 0.06762819 0.02256878 0.016819915 -0.07448603 -0.14976372
-0.19231257 -0.09681598 -0.19755411 -0.004819947 -0.037671633 -0.10582221 0.0829983 0.004004256
0.0060370266 0.0693355 -0.1805018 0.0484596 0.082927845 0.054641914 -0.050066534 0.100421235
0.14658788 0.0075170225 0.07715208 -0.1196645 0.081181325 0.10604859 -0.06376234 0.044753894
-0.025640802 0.005287435 -0.053520557 -0.010245991 0.1548277 -0.16673048 -0.3597612 0.969666
0.13656363 -0.122021206 -1.9115921 -2.0749583 1.7952594 1.3432965 -2.1308677 1.341076
-0.37248334 0.23582502 0.45181948 -0.7089025 0.6283946 0.5295837 0.06997673 -0.5971237
1.2872723 -0.27096382 0.27198523 -0.21141824 0.82643956 -0.1658611 0.41690648 -0.6248886
-0.23120885 -0.100582525 -0.7581686 0.57017976 0.39777943 0.057110947 0.0977065 0.03191869
-0.045844 -0.18029723 -0.0995509 0.043768063 -0.2125999 0.23562434 0.23738553 0.098896295
-0.07699495 -0.25948116 0.08703651 0.043271262 0.1301921 0.18860988 0.0063473084 0.060796387
0.06846877 3.8538785 0.04204125 -6.726162 0.25809535 2.2855082 0.9674976 -1.045081
0.13295381 1.3432772 -0.028800754 -0.3082564 -0.2516285 -0.17965725 0.065591246 0.02755698
-0.11913344 -0.1480866 -0.098374516 -0.019444391 -0.15975867 0.27231508 0.08783523 -0.16657732
-0.18249199 -0.07966719 0.056215324 0.09738597 0.19983536 0.1931063 0.10929224 -0.13260841
0.20878375 -0.028522065 0.15225793 -0.006691923 -0.03623672 0.18216951 -0.13557184 0.041848317
-0.06589977 -0.0509776 -0.02616849 -0.7659291 -1.5833476 0.1290133 -0.72308946 2.0471442
0.39939567 -0.7374752 -0.689266 -1.4265752 0.3981425 1.849096 -0.5237562 -0.33195353
-0.057765123 -0.25612453 -0.09267864 -0.036043815 0.6035969 -0.050829858 -0.6445004 -0.7869132
2.188895 1.4863431 -0.44100767 -0.68868 1.5947706 0.014785264 -0.41981092 -0.12015353
0.8539889 0.22286272 0.0058404626 -0.5521184 0.124043286 0.12157757 -1.743076 -0.30317497
0.5460915 0.43028125 -0.8314597 1.7293311 0.06697006 0.16218899 -0.51864684 1.5766165
1.0464672 0.4939462 0.20163235 1.5598062 0.16027614 0.37661222 -0.21774004 -0.17565791
-0.7353548 0.31133506 0.44812492 0.24913554 -0.17853683 0.5114626 -0.17931075 0.6395037
0.946014 -0.41853273 0.08235783 0.1713545 -0.32342952 2.5914743 -2.1980565 -0.46492037
-0.55431926 0.88830245 -2.4223013 2.2543166 -0.47032622 0.8574485 -1.1966895 -0.19081603
-0.44131267 0.26588902 -0.80701727 1.48872 0.17533652 0.017737867 -0.011955666 0.16279662
-0.02219528 -0.5889935 1.77716 0.52701724 -0.09758604 -0.06728583 0.16087328 -0.66431844
0.22551195 -2.031136 -0.03495194 0.44070283 -4.104005 0.57669574 0.83872414 0.61220604

fc1.bias f4 [128]
00000000: 4675 1ebe e28c 6a3d 6562 a1be d046 90bd
00000010: 03f6 9fbd 362c 03bf 8e21 39be 6054 14bf
00000020: 4896 153c 33b7 b8be a6c7 0f3d 066c 96be
00000030: db98 7cbe 889f 21be 7c68 79be cde5 95be
00000040: 71f5 54be 4603 9b3c 5f21 34bd f4d3 63be
00000050: 885f 95be baa3 16be 2213 7fbe 353c d33b
00000060: e29e 2dbe 5806 9abd e382 84be 9ad6 0cbe
00000070: 48f6 ccbe 2064 c0bd 1bdb afbe f3c1 d8bd
00000080: d904 94be d81a e0bd a4b8 12bf b357 2cbf
00000090: 94f4 d0bd 54a9 34be 6aa9 a8be 6b5f 4cbf
000000a0: ea5b a3ba 5efd e73d cac4 f6bd b38c e4bd
000000b0: dccf 0f3e d084 96be 643a ca3b 334d e23d
000000c0: 42d6 dabe 9558 21be d2e6 a33d 5d18 ca3e
000000d0: 6dc6 cbbd 034e cabe 1cc3 f4be 0a95 ebbd
000000e0: aa58 52be a3e6 94be 0ea3 4bbe 7dba 70be
000000f0: 5d0c 30be 8a42 37be c526 9cbe 6486 9bbe
00000100: 731a a9bb 527f 44be 7d0f cebe eeec a4be
00000110: d12e 50bd 3184 e3bd f8fe 63be 0963 80be
00000120: c789 52be 218c 543d 40fe a8bd e8d2 bc3e
00000130: aeb1 40be 7027 73be 808c 8dbe 9ec3 1abe
00000140: 7851 4abe b066 83bd 7ef9 09be 24cb 153d
00000150: 3201 6bbe bea5 6dbe 4dd9 a73e 622d fcbe
00000160: e816 4bbe ed67 4ebf 5c9d 24bf 361f aebe
00000170: 5a3f 5abc c233 15be 3e51 a53d 78da 01be
00000180: 9543 e4bd 1930 7abe dd75 86bd c123 2d3e
00000190: 4b5c bcbd 7267 eabd a31e bdbe 59aa 17be
000001a0: 9685 8c3d 8884 53bd 3030 a8be 902c 38be
000001b0: 77da 9bbe ab3d 33bd 7ca3 afbd dbed 6ebd
000001c0: d165 323d 2ba4 91be 4139 8bbe 94fc 98bd
000001d0: a049 46bd 82ff b4be fcd4 a0be 1085 7dbc
000001e0: 6517 21be 5376 70be ea63 0e3e 62d6 84be
000001f0: f92b a3be d785 d2be 8cca 5cbc fbb0 37bf
-0.15474424 0.057263263 -0.31520382 -0.070447564 -0.07810595 -0.51239336 -0.18079206 -0.57941246
0.009130068 -0.3607727 0.03510251 -0.2937929 -0.24667685 -0.15783513 -0.24356264 -0.29276887
-0.20796753 0.01892246 -0.043977138 -0.22248822 -0.29174447 -0.14710894 -0.24909642 0.006446386
-0.1695514 -0.07520741 -0.2588111 -0.13753739 -0.40031648 -0.09394097 -0.34346852 -0.10583868
-0.28909948 -0.1094262 -0.5731299 -0.6732132 -0.102028996 -0.17642719 -0.32941753 -0.79833096
-0.0012463306 0.11327623 -0.12049253 -0.11159649 0.14044136 -0.29398203 0.0061715115 0.11049881
-0.4274159 -0.15756448 0.0800301 0.39471713 -0.09949956 -0.39512643 -0.47805107 -0.11503036
-0.20541635 -0.29082212 -0.19886419 -0.2350864 -0.17192216 -0.17896476 -0.3049833 -0.3037597
-0.0051606237 -0.19189194 -0.40246192 -0.32212013 -0.050825898 -0.11109198 -0.22265232 -0.25075558
-0.2056037 0.05189145 -0.08251619 0.3687966 -0.1881778 -0.23745513 -0.27646255 -0.15113685
-0.1975764 -0.064160705 -0.1347408 0.036570683 -0.22949675 -0.23207757 0.32782975 -0.49253374
-0.19832957 -0.8062733 -0.6430261 -0.34008187 -0.013320768 -0.14570525 0.08072136 -0.12680995
-0.11145703 -0.2443241 -0.065654494 0.1690817 -0.09197291 -0.11445512 -0.36937436 -0.14811076
0.06861417 -0.051640064 -0.32849264 -0.17985749 -0.30440113 -0.043759983 -0.08576104 -0.058332305
0.04355413 -0.28445563 -0.2719212 -0.074700505 -0.048410058 -0.35351187 -0.31412494 -0.015473619
-0.1573158 -0.23482637 0.13905302 -0.2594481 -0.31869486 -0.41117737 -0.013476025 -0.71754426

fc2.weight f4 [128, 128]
00000000: 0ddb 7f3d b381 683d 107a b8bf 76c7 0ec0
00000010: 180b bfbc 5683 453e c7f9 39be 50d3 55be
00000020: e58f 5dbf 92c4 21be f941 53bf 4a99 81be
00000030: 6fad 20c0 c403 243f 4911 b0bf d34a 9bbf
00000040: 84ad 5ebb dff4 263e 59dc 8fbf 93f6 5fbb
00000050: d9c5 593f 433b 5e3d 0306 babf 9d99 aabe
00000060: c482 ba3d 7716 81bd 1f9c 413f 1895 cdbd
00000070: 3d11 d3be ff6a 0ebd 0f90 2abb a0cd a8bf
00000080: 7f44 b63e e9a8 d3bf 94bc c7be b53f 7dbe
00000090: 3680 8a3e 8e94 e03c c396 3a3f a554 8d3e
000000a0: ddf6 04be 209a d8be a6a2 23be fe62 be3e
000000b0: e1a5 0c3f f1ae 6f3f 287f cc3e 0f9a 4040
000000c0: 7c83 f83d 99ce 7ac0 4833 3e3e 7196 ca3d
000000d0: 20a0 7c3b 5229 9b3f 0065 27bf 8098 34bd
000000e0: c2ae 82bf c495 993f 4175 d8be 0531 87bd
000000f0: 172d 39bd 5f14 043f fb62 df3e 44f7 fdbf
00000100: 2246 9dbe dd38 2f3c 6eec 62bf 1c72 efbf
00000110: b9c6 ec3e 412f d5bd d535 843d e38a 4dbf
00000120: 2325 27be 9768 16bf 67df 0abf 7df8 1f3d
00000130: a9cb 83be 9e60 323d 969d 2cbf 0877 86ba
00000140: d930 9c3e c5ec 96be 876d 1dbe b2ff 813e
00000150: 7d10 46bf 5a8c 223d 1879 323f 89c7 6e3f
00000160: 1cf9 6ebd 2e60 b13e 2410 84bf 37cf cabf
00000170: 57ae 5a3e 70dd 84bd d125 59bd f631 77bf
00000180: e1e6 d1be 9c07 683e 75cf b8be 856d 233e
00000190: c095 593b 3447 853f fa35 883d d005 33bf
000001a0: 230d 9abc 5d93 82bf 294d 65be 18aa 18bd
000001b0: 2e2d 283e 1ab5 3bc0 d540 83bf 7995 7cbd
000001c0: 3331 013d 99b9 0abe e3cd 9b3d cdec 823e
000001d0: fd2d 903d 7a94 1ebf 7aa9 153f df46 f7bf
000001e0: 2815 793f 83be 483f 3c8a e13e 5431 19be
000001f0: 5711 81bf 5188 9a3e 1152 1ebf 8f32 9fbe
00000200: 4212 8c3d 721c 98bd f5c4 bdbf 80f6 233f
00000210: 165e cebd 4cfa 35bf 26a7 973e 071d f03f
00000220: fc81 1dbe 6e76 2ebf 1a6e 9cbf e7ec d2bd
00000230: f530 e0bf 19d5 c13c fc94 233f 2e15 1d3f
00000240: bea9 993d ad83 183e ecd0 fcbd e22d 0c3e
00000250: afec 34bf ecca 9fbc 9a9b 193f abfd 783e
00000260: 0594 ad3d 0e72 ea3c 0eff 78be bd9d e1bf
00000270: 7d51 08bf 3ee6 06bc 1253 363f 06fd 14c0
00000280: edbc 993f b3c5 38be e0c3 b3bf 116f ff3e
00000290: 24c5 ba3e 2b79 b03b 4068 133f 5440 febf
000002a0: 20c7 cbbe 169d 803e b2da b83c c2d6 5c3e
000002b0: 493d 8a3e fff1 e63e 562b f2bd f339 a3bf
000002c0: d18f d5be 3daf c8bf 2f2a 3c3f 437e 1a3f
000002d0: d673 23ba 92e0 98bf 9733 debe 6ce7 f0bc
000002e0: fe64 d4bd 3f58 05bd ed61 893c 8883 32bf
000002f0: 08a7 de3c 8f8e f3be 0255 a2bf 38bb 94bf
00000300: 10c4 dabd a900 b6be fe88 a2bf cc5d bbbe
00000310: 8e13 3c3f 5569 433d f96e 453f 731d 50bf
00000320: 658d 3cbd 8048 17c0 2624 95be 1184 503e
00000330: dbfd cf3e 6d5b 863e e2ae 053e 45c1 e83b
00000340: 775f 98bf 667a 9e3f ee27 12bf fd9d 853e
00000350: 134f 983e 60df fa3a bb42 12bf d97f f1be
00000360: 2769 70bd 9ad4 d8be 83f2 76bf 916a 0fbf
00000370: c941 823e 3e72 253d 48af a53d 0b02 e53e
00000380: 995f c43e 3d3b a33e 5510 e0be 563d 313f
00000390: c810 5f3c 62c8 ac3f a03d 96bd c3e4 8fbe
000003a0: dc79 323d e980 59bf c733 d53e 5dad 033d
000003b0: adbe 8e3e c81d c43f 6671 cbbf 9ce7 3e3d
000003c0: 0084 773f d9cf 0ac0 c4fa 34bd 5599 eebd
000003d0: 8a74 603d 90ff 51bf fbc3 8a3e 2999 493f
000003e0: ec5e 1dbf 3edf b1bc bb76 9d3f d1ec 78bf
000003f0: 60cc 02c0 ad34 bebe b057 363f 1962 0bbf
0.062464762 0.056764316 -1.441225 -2.2309241 -0.02332072 0.19288382 -0.18161689 -0.2088139
-0.8654769 -0.15797642 -0.8252254 -0.25312263 -2.5105855 0.64068246 -1.3755275 -1.213221
-0.0033977935 0.16304348 -1.123912 -0.003417407 0.85067517 0.054255735 -1.4533085 -0.33320323
0.09106973 -0.06303113 0.75628847 -0.10038203 -0.4122409 -0.03477001 -0.0026025807 -1.3187752
0.35599133 -1.6535922 -0.3901106 -0.24731334 0.27050942 0.027414586 0.72886294 0.2760364
-0.12984796 -0.42305088 -0.15980014 0.371849 0.5494061 0.93626314 0.39940763 3.009403
0.12134454 -3.9188597 0.1857425 0.09891976 0.003854759 1.2121985 -0.6538849 -0.044090748
-1.0209582 1.199883 -0.42276958 -0.066011466 -0.045209017 0.51593584 0.43630204 -1.9841084
-0.3071757 0.01069471 -0.88642013 -1.8706698 0.46245363 -0.104094036 0.0645558 -0.8029005
-0.1632276 -0.5875334 -0.54247135 0.039055336 -0.25741318 0.043549173 -0.6742796 -0.0010258863
0.30506018 -0.29477516 -0.15373813 0.25390393 -0.7736891 0.03968463 0.69716024 0.93273216
-0.058343038 0.34643692 -1.0317426 -1.5844487 0.21355568 -0.06487548 -0.05301458 -0.9656061
-0.4099646 0.22659153 -0.36095777 0.15959747 0.003320083 1.0412354 0.0665092 -0.69930744
-0.018805092 -1.0201222 -0.22392716 -0.03727159 0.16423485 -2.9329286 -1.025416 -0.061665986
0.03154106 -0.13547362 0.07607629 0.2557129 0.070400216 -0.6194531 0.58461726 -1.9318503
0.97297907 0.784157 0.44050777 -0.14960223 -1.0083417 0.30182126 -0.61843973 -0.3109326
0.0683942 -0.074273005 -1.4825732 0.64048004 -0.10076539 -0.7108505 0.29619712 1.8758858
-0.15381616 -0.6814946 -1.22211 -0.10299092 -1.751494 0.023661183 0.6389921 0.6136044
0.07503079 0.1489398 -0.12344536 0.13689378 -0.7067365 -0.01950594 0.60003054 0.24315517
0.08475498 0.028618839 -0.24316046 -1.7626263 -0.5324934 -0.008233605 0.71220505 -2.3279433
1.201078 -0.18044166 -1.4044151 0.49889424 0.3647853 0.005385538 0.5758095 -1.9863381
-0.39800358 0.25119847 0.02256522 0.21566299 0.26999882 0.45106503 -0.11824672 -1.275206
-0.41711286 -1.5678478 0.7350187 0.6034891 -0.00062352174 -1.1943533 -0.43398735 -0.029407226
-0.10370825 -0.03255486 0.016770327 -0.6973195 0.027179256 -0.475697 -1.2682192 -1.1619635
-0.10681927 -0.3554738 -1.2698057 -0.36595 0.7346734 0.047707874 0.77122456 -0.81294936
-0.04603328 -2.3638 -0.29129142 0.2036288 0.40623364 0.26241627 0.13054994 0.0071031176
-1.1904134 1.2381103 -0.5709218 0.26097098 0.2974783 0.0019140057 -0.5713307 -0.47167853
-0.05869403 -0.42349702 -0.96463794 -0.5602198 0.25440815 0.040392153 0.08090073 0.4472812
0.38354185 0.31881133 -0.4376246 0.69234216 0.013614841 1.3498652 -0.07335973 -0.2810422
0.043573245 -0.84962326 0.41641065 0.032147754 0.2787985 1.5321589 -1.5893981 0.0466076
0.9668579 -2.168936 -0.04418446 -0.116503395 0.05479864 -0.8203058 0.27102646 0.7874933
-0.61472964 -0.021712895 1.2301859 -0.97236353 -2.043724 -0.37149563 0.7122755 -0.5444656

fc2.bias f4 [128]
00000000: 4524 2a3d e19c f4bc 3f0a 01bd f9f1 f63e
00000010: ece8 86bd aac4 98be a049 27bd 6aba 04be
00000020: aa1c b93d 6328 8fbd 5438 233d 2c6c 58bf
00000030: b0d5 0e3f a681 b53f 7dc7 603e 2536 2bbe
00000040: 0806 b73e 0924 9f3f f3e5 e23d 6ae2 d3bd
00000050: 9e11 dd3f eb79 f6bd b8b6 79bf c9d0 34be
00000060: f709 ff3e d7a3 99bd e3c2 483f 0dd2 283f
00000070: 6212 3dbe 5a22 c6bd 3563 273f 0981 a03f
00000080: 88a7 3d3f 8f32 6c3f 36dc cd3c e28e 0cbf
00000090: bc7c a0be 4911 e1bd 9100 983f c5da 8d3d
000000a0: 90aa d9bd 7325 333f 0de1 7b3c 09f6 bd3e
000000b0: 5730 3d3d 0a1e 7bbd 1c53 9e3f 75b8 573f
000000c0: 7a1e af3f 6d48 c6be 9065 3abd 70a9 8dbd
000000d0: d6e5 163e 738a 4cbe 5c45 233f 98b8 6dbd
000000e0: 058b 863e 4c32 3fbe ab11 36be 7d2d a1bd
000000f0: d0fb 99be 8ff4 84be ad59 2c3f 065f b23f
00000100: b596 0fbe 26fe a03e 9dbf a2be 78f7 a8bd
00000110: 5594 30be fb15 c33e 1905 18be 2db2 2abd
00000120: 7ae7 f1bd 708a 3bbf 0a1d b6bd 38d3 cf3e
00000130: 3e50 18be 4489 9cbe 933c b8bd 77c9 0abd
00000140: 47ad 1f3f 7aae 2dbf dce2 9e3f 9e89 423f
00000150: d1c1 923e f2be 03be 0d23 5b3f f118 863d
00000160: 6b9d 633e ccce 8f3e 33a9 60bc 1ce2 323f
00000170: 2558 fabd a247 2b3e 0710 1dbe 3078 9c3f
00000180: e9c5 923f 5c48 95bc 8607 5abe 5612 46bd
00000190: 76e4 02bd b524 0e3f 82e5 223f eb6e 193e
000001a0: f624 893f 4298 f1bd 2c7d 983e 9a2b 233f
000001b0: ae29 063f b172 3a3d 5d83 d73e b967 52bf
000001c0: 1ffc fc3d 7a4e 383e cd95 b63c bdb6 263f
000001d0: bd98 2bbf ab7c 063e 72ca db3e 239e 11be
000001e0: 0e7c 123f a6bc dc3b d2b9 27bc e1a0 6ebd
000001f0: a003 813f 925c 37bf 0338 19be 1f17 dfbd
0.041538496 -0.029859962 -0.031503912 0.48231485 -0.06587395 -0.29837543 -0.0408417 -0.12961736
0.0903867 -0.06990125 0.03984864 -0.8454006 0.5579481 1.418019 0.21951099 -0.16719873
0.3574679 1.2432872 0.110790156 -0.103459194 1.7271001 -0.12034973 -0.9754443 -0.1765777
0.4981229 -0.07501953 0.78422374 0.6594551 -0.18464044 -0.09674521 0.6538575 1.2539378
0.7408376 0.92264646 0.025129419 -0.5490552 -0.31345165 -0.10989625 1.1875173 0.069264926
-0.10628235 0.6997902 0.0153734805 0.37101772 0.04618868 -0.061307944 1.2369113 0.84265834
1.3681176 -0.3872713 -0.045507014 -0.06917083 0.14736113 -0.19974689 0.6377771 -0.05803737
0.26277938 -0.1867153 -0.17780177 -0.07870004 -0.3007493 -0.25967833 0.67324334 1.3935249
-0.14022334 0.314439 -0.31786814 -0.08250326 -0.17244084 0.38102707 -0.14845695 -0.041673828
-0.11811729 -0.73258114 -0.088922575 0.40590835 -0.1487436 -0.30573475 -0.089959286 -0.033883538
0.62373775 -0.67844355 1.2412982 0.7599124 0.28663495 -0.12865809 0.8560036 0.06547726
0.22228019 0.2808746 -0.013712215 0.69876266 -0.122238435 0.16726544 -0.15338145 1.2224178
1.1466647 -0.01822298 -0.21291932 -0.04835733 -0.03195616 0.5552476 0.6363145 0.14983718
1.0714405 -0.11796619 0.29783 0.63738406 0.5240735 0.045519534 0.4209241 -0.8218952
0.12352776 0.17998686 0.022288227 0.65122586 -0.67029935 0.13133495 0.4292789 -0.1422048
0.5722054 0.006736356 -0.010237174 -0.058258895 1.0079231 -0.71625626 -0.14962773 -0.10893082

fc3.weight f4 [2, 128]
00000000: a556 333f 7343 5a3f 95db bfbc 2fbf 85bf
00000010: 0864 3a40 e3df 58bf 5877 98bd 142b 873d
00000020: be98 3ebf af7c afbc 4a98 32c0 143e aa3f
00000030: 8813 b93e 69cf e6bf 059d 853f 8f20 aabd
00000040: 492b 393f cc16 1bc0 a02c a33f 3ddd 153d
00000050: 4dc1 52bf f304 6cbb 73f0 a73f ae6e 943f
00000060: 20c8 49c0 3c94 4b3c 1bf5 7fbe 46a3 83bf
00000070: d9ad 30bf 8e22 ce3c 27f4 343f 548c 37bf
00000080: a836 453f ba4a bf3e 1503 98bc 495c 873f
00000090: c1cc 1040 6e4d 063c 9981 aa3e 8db9 213f
000000a0: 7818 a73f c92d 47c0 4c9b 2ec0 caaf 2a3f
000000b0: e8dc a33f d1f6 ecba 4c9f 75bf e78d 273f
000000c0: dc19 15c0 dfb2 05bf b104 c13c 0943 3cbd
000000d0: 0b9a 6abf 34c7 b03f e1cf a8bf 844b 0a40
000000e0: 65dd 373f 861c a03f ba2f 5ac0 d832 faba
000000f0: 4ea7 b1be 8414 de3c 3e74 f23e 6cf7 093f
00000100: fe48 fbbc f454 a33f a331 99bf ccae 94bc
00000110: 091e f93c e618 703f db22 82bc 0834 81bb
00000120: e0e3 e9bc c467 3cbf 5f09 683d 5a2e 373f
00000130: c7ac 363d 3e98 9abf d9ed 80bc 8833 acbf
00000140: eae5 223f 3041 dc3e f0dc 1c3f d503 623f
00000150: 18e5 bf3f 804b 0440 67b1 6e3f bc01 5bc0
00000160: 1bae 5d3f b2fe 833f 6d75 c03f 6a5c 70c0
00000170: 2de7 a13f 416d dd3f 10fc 86bc 5b33 26c0
00000180: 6cbe 0b3f e1cd 3a3c ed0b 11bc 429d 78bc
00000190: 0f1b 9c3f 6d62 843f 1fdf 04c0 6afd 8d3f
000001a0: e0d7 aa3f 8958 db3c a4db 8fbf 491f cd3e
000001b0: 2313 31c0 d3d7 88bf 797f 643f cb29 ab3e
000001c0: a27f 923f 9508 5940 09e7 02bc 9482 6bbf
000001d0: 8069 7abf a700 6340 dc43 d33e 4864 bdbc
000001e0: 7cbd 1fbf 0f26 b03f b9e0 92bb 53c9 d2bc
000001f0: 2085 bcbf 4d92 cc3f cfbb 3a3c 7e20 233c
00000200: bce6 513f 35f5 343f eb8c e0bc 2537 c3bf
00000210: e150 5340 80d3 84bf 8ca7 193c 1e3b 153c
00000220: 66ca 14bf 4810 d53d d5f9 edbf eb8a d53f
00000230: 9121 143f c3b9 8abf 4ca0 643f f586 6f3c
00000240: 6497 903f ab6d 48c0 b508 9f3f c881 3f3d
00000250: 64b2 c9bf 12c8 243d 10a4 b43f 4828 3cc0
00000260: f610 dcbf 68ef 153b dec5 b0bf 86ae 87bf
00000270: f967 e4bf 8375 9f3a aee8 e93e ce0b 6dbf
00000280: 5421 3d3f e69b 983e 569f 843d d54c 41be
00000290: 9666 0cc0 fb78 bf3d d0f4 e43e fbc2 bf3f
000002a0: bec7 963f 6bf8 c8bf fa87 65be d687 a13f
000002b0: a2fa 673f 17c5 aebb 9eba b5bf a00b 703f
000002c0: 5586 babf 0f4f 07bf bf85 6dbb 0cb9 2f3d
000002d0: 5aca e6bc 5bee e23e 49ae a5c0 89d4 0940
000002e0: e9c0 4d3f 1dd4 d23f 6b9a bf3f b4af 22bb
000002f0: 5c60 a63f d6c8 4b3c 4a85 7a3f 1c99 1d3f
00000300: 037e f63c f880 b83f 741d d5bf a8f7 863b
00000310: 96db d2bd 9648 653f 798e 093d dd4a 113d
00000320: 9907 5dbc 5126 41bf 2eae 7d3d fe82 203f
00000330: 6210 403c 5166 8f3f 2b51 273d 2bcf 5740
00000340: cf43 293f e4d0 283f 0b0e 213f d8e9 a73f
00000350: 4058 66c0 463f 07c0 0a2a 5c3f f105 9dbb
00000360: 925d e43e f8dd 4b3f 9a31 ac3f c45d b6bf
00000370: e9b5 ab3f 1e9a 4e40 68a3 693c 847e 93bf
00000380: cfb0 db3e e209 893c 6dd1 ca3d 1242 ef3d
00000390: 9efd 0240 c7fb 533f d666 efbf ead2 9e3f
000003a0: b27b d03f 1dec 50bb 16ac 9cbf 42bc ff3e
000003b0: 50fe 0dc0 4d7a b93f ddd1 083f 1e5e d5be
000003c0: 8aa3 a13f 4f63 e63f 4362 17bd 5868 3abf
000003d0: 86b1 1abf d67d 9ebf b9f4 da3d 4ec4 183d
000003e0: 339b f8bf a540 c73f df96 383d e4fa 57bc
000003f0: 52ef fdbf 7377 33c0 f4c5 60bd e726 c7bc
0.70054084 0.8525917 -0.023420135 -1.044897 2.9123554 -0.84716624 -0.07444638 0.066000134
-0.74451816 -0.021421758 -2.790545 1.3300195 0.36147714 -1.8032047 1.0438544 -0.08306991
0.7233167 -2.4232664 1.2747993 0.036587942 -0.82326204 -0.0036013692 1.3120254 1.1596277
-3.1528397 0.012425479 -0.24995844 -1.0284202 -0.6901527 0.025162961 0.70685047 -0.716985
0.77036524 0.373617 -0.018556157 1.0575038 2.2624972 0.008197172 0.33302 0.63173753
1.3054342 -3.1121695 -2.7282286 0.6667448 1.280179 -0.0018078928 -0.9594619 0.654509
-2.3297033 -0.5222606 0.023561807 -0.045962367 -0.916413 1.3810792 -1.318844 2.160859
0.71822196 1.2508705 -3.409163 -0.0019088639 -0.34697956 0.027109392 0.4735431 0.5389316
-0.030674454 1.2760301 -1.1968273 -0.018149756 0.03040983 0.9378799 -0.015885761 -0.00394297
-0.028551042 -0.73595834 0.056649562 0.715551 0.044598367 -1.2077711 -0.015738415 -1.3453226
0.6363207 0.43018484 0.61274624 0.882871 1.4991789 2.0671082 0.93239444 -3.4219809
0.8659379 1.0312102 1.5035836 -3.7556405 1.2648674 1.7298967 -0.016477615 -2.5968845
0.54587436 0.011401624 -0.008852941 -0.015174212 1.2195758 1.0342537 -2.0761182 1.1092961
1.334713 0.026775615 -1.1238904 0.4006293 -2.766793 -1.0690864 0.8925701 0.33430323
1.14452 3.3911488 -0.007989653 -0.9199612 -0.9781723 3.5469148 0.4126271 -0.023119107
-0.62398505 1.3761615 -0.0044823554 -0.025730764 -1.4728127 1.5982147 0.011397316 0.009956477
0.819927 0.70686656 -0.027410945 -1.5251204 3.3018115 -1.0377045 0.009378325 0.009108333
-0.58121336 0.10403496 -1.8591868 1.6683019 0.5786372 -1.083794 0.89307094 0.014619579
1.1296201 -3.1316936 1.2424532 0.04675463 -1.5757565 0.040229864 1.4112568 -2.9399586
-1.7192676 0.0022878293 -1.3810384 -1.0600135 -1.784423 0.0012165759 0.45685333 -0.9259614
0.7387898 0.2980644 0.064757034 -0.18876965 -2.1937613 0.09349247 0.44718027 1.4981378
1.1779706 -1.5700811 -0.22415152 1.2619579 0.9061681 -0.0053335535 -1.4197576 0.9376774
-1.4572245 -0.5285501 -0.003624305 0.042901084 -0.02817266 0.44322476 -5.177525 2.153597
0.8037248 1.6470982 1.4969 -0.0024823966 1.2998157 0.01243802 0.9785963 0.6156175
0.030089384 1.4414358 -1.6649613 0.0041188784 -0.10295789 0.8956388 0.03358314 0.035471786
-0.013490581 -0.7544909 0.06193369 0.6269988 0.011722656 1.12031 0.040848892 3.3720195
0.6611909 0.6594374 0.6291205 1.3118238 -3.5991364 -2.113237 0.86001647 -0.004791968
0.44602638 0.7963557 1.3452637 -1.4247365 1.341489 3.2281566 0.0142601505 -1.1522985
0.42908332 0.016728345 0.09903226 0.11682524 2.0467296 0.82806057 -1.8703258 1.2408116
1.6287749 -0.0031879016 -1.2240016 0.49948317 -2.218647 1.4490448 0.53445226 -0.41673368
1.2628033 1.7999057 -0.036958944 -0.72815466 -0.6042713 -1.2382152 0.106912084 0.037296586
-1.9422363 1.5566603 0.045065757 -0.013182376 -1.983866 -2.8041656 -0.054876283 -0.024310542

fc3.bias f4 [2]
00000000: 96cf 0e3f 53cb 2a3f
0.557855 0.667165
