checkpoint_v1_obstacle/dqn_episode_600.pth (torch, 343593 bytes, 24 tensors)

fc1.weight f4 [128, 31]
-0.09744403 -0.07499303 -0.028388903 -0.0904782 0.019525586 -0.042784978 -0.22190244 0.07219425
-0.035783954 0.1116533 -0.23253433 -0.15383 0.1632797 0.10081693 0.092160545 0.09864942
-0.057880968 -0.09832543 -0.010416854 -0.20608722 -0.004541064 0.053777296 -0.07690999 0.063764855
-0.020565042 0.0804837 0.08272738 0.06762819 0.02256878 0.016819915 -0.07448603 -0.14976372
-0.19231257 -0.09681598 -0.19755411 -0.004819947 -0.037671633 -0.10582221 0.0829983 0.004004256
0.0060370266 0.0693355 -0.1805018 0.0484596 0.082927845 0.054641914 -0.050066534 0.100421235
0.14658788 0.0075170225 0.07715208 -0.1196645 0.081181325 0.10604859 -0.06376234 0.044753894
-0.025640802 0.005287435 -0.053520557 -0.010245991 0.1548277 -0.16673048 -0.27613127 0.7513545
0.13656363 -0.24335943 -0.74202394 -1.5132388 0.78316593 0.5765216 -1.0063773 1.962454
-0.548145 0.057703488 0.5045212 -0.8084454 0.070427775 0.027064024 0.055527233 -0.27319023
0.87483007 -0.20950727 0.35379046 -0.2530534 0.5742058 -0.10899109 0.4336579 -0.38587958
-0.41832456 -0.09657917 -0.40570864 0.82882756 0.2222889 0.041235436 0.21781228 0.03191869
-0.12605123 -0.22615439 -0.019924443 0.06293049 -0.21666779 -0.13750282 0.17977972 0.12866098
-0.27079633 -0.25193194 0.20791084 0.013147324 0.09330845 0.03444038 0.007059174 -0.051775977
0.025279522 2.6386662 1.3992033 -4.4588056 0.21490946 2.1045551 0.67564654 -0.81406265
0.084164165 1.293733 -0.56625617 -0.23090915 -0.2516285 -0.17965725 0.065591246 0.02755698
-0.11913344 -0.1480866 -0.098374516 -0.019444391 -0.15975867 0.27231508 0.08783523 -0.16657732
-0.18249199 -0.07966719 0.056215324 0.09738597 0.19983536 0.1931063 0.10929224 -0.13260841
0.20878375 -0.028522065 0.15225793 -0.006691923 -0.03623672 0.18216951 -0.13557184 0.041848317
-0.06589977 -0.0509776 -0.02616849 -0.47345972 -0.4777033 0.1290133 -0.43062234 1.7126355
1.991439 -0.4450182 -0.39681104 -0.80150765 1.4486437 1.6430856 -0.13909636 0.14698014
-0.0084760245 -0.20442608 0.053370867 0.22472052 0.70358187 0.1968798 -0.35203713 0.023806093
1.0709236 0.80309725 -0.14854562 0.22864103 0.9682164 -0.030795664 -0.13211322 0.43005216
1.1443899 0.45251814 0.19667144 -0.3370575 0.124043286 0.31425452 -1.8995702 -0.11913498
0.7560879 0.6304694 -0.25760654 0.50628114 -0.26521686 0.36431947 0.23632176 0.64890134
1.2987608 0.7287178 -0.06616629 0.9021499 0.9852792 0.5341128 0.17657824 0.673394
0.2235588 0.42539442 0.42208955 0.15142739 0.40824035 0.4810407 0.039205913 0.67988914
0.683382 -0.1378455 -0.0014489654 0.1713545 -0.046559844 2.1445298 -2.1998556 -0.20575957
-0.30015588 0.13998885 -1.3159055 2.0830936 -0.009931405 0.8466618 -0.33958507 0.1474457
-0.018758275 -0.33405373 -0.63739496 1.3680418 0.2551065 0.18711011 -0.27243364 -0.12970556
0.0073180464 -0.24745968 1.1795796 -0.1661362 0.08839231 0.5331665 0.12959601 -0.17464027
0.17686996 -1.4416549 -0.03495194 0.19657438 -3.0985231 0.6010094 0.30185437 0.050667915
00000000: bc90 c7bd f295 99bd d88f e8bc a24c b9bd
00000010: 1ff4 9f3c 4d3f 2fbd 653a 63be 94da 933d
00000020: 3292 12bd 7caa e43d 7b1d 6ebe 9d85 1dbe
00000030: cb32 273e 1b79 ce3d abbe bc3d b508 ca3d
00000040: 9814 6dbd d85e c9bd 74ab 2abc 8708 53be
00000050: 35cd 94bb 9545 5c3d fc82 9dbd 2697 823d
00000060: 0578 a8bc a3d4 a43d f96c a93d a680 8a3d
00000070: 2ae2 b83c ebc9 893c 228c 98bd a95b 19be
00000080: 96ed 44be 7547 c6bd a04b 4abe a5f0 9dbb
00000090: 924d 1abd 51b9 d8bd 03fb a93d 2236 833b
000000a0: 40d2 c53b c5ff 8d3d 77d5 38be 937d 463d
000000b0: 13d6 a93d 33d0 5f3d 9112 4dbd a6a9 cd3d
000000c0: 221b 163e 5b51 f63b e901 9e3d a912 f5bd
000000d0: 6542 a63d 0130 d93d d495 82bd dc4f 373d
000000e0: a90c d2bc 3842 ad3b 5f38 5bbd cdde 27bc
000000f0: 278b 1e3e 65bb 2abe 1461 8dbe c558 403f
00000100: 56d7 0b3e 3733 79be 48f5 3dbf cfb1 c1bf
00000110: 907d 483f eb96 133f f9d0 80bf b131 fb3f
00000120: 3b53 0cbf 7e5a 6c3d 4d28 013f 47f6 4ebf
00000130: 703c 903d 5fb5 dd3c 8670 633d 97df 8bbe
00000140: ddf4 5f3f 1389 56be 0624 b53e 3790 81be
00000150: 27ff 123f b836 dfbd 6908 de3e 0292 c5be
00000160: a32e d6be 4dcb c5bd 0bb9 cfbe 0b2e 543f
00000170: b49f 633e 7de6 283d 2f0a 5f3e 2cbd 023d
00000180: 9313 01be 0495 67be 9638 a3bc b3e1 803d
00000190: 29de 5dbe 8acd 0cbe 2d18 383e b4bf 033e
000001a0: d1a5 8abe 39fd 80be 94e6 543e e067 573c
000001b0: 8018 bf3d 5b11 0d3d a550 e73b 0c13 54bd
000001c0: 0017 cf3c e8df 2840 1819 b33f 89ae 8ec0
000001d0: 3a11 5c3e 08b1 0640 2cf7 2c3f 6966 50bf
000001e0: 435e ac3d 0b99 a53f 2af6 10bf 7373 6cbe
000001f0: 73d5 80be 12f8 37be b454 863d 2dbf e13c
00000200: 3cfc f3bd 03a4 17be 9478 c9bd d849 9fbc
00000210: c797 23be e26c 8b3e f5e2 b33d 3f93 2abe
00000220: 2edf 3abe 8d28 a3bd 0a42 663d 4c72 c73d
00000230: a4a1 4c3e a8bd 453e 9cd4 df3d 80ca 07be
00000240: 68cb 553e 1ba7 e9bc 81e9 1b3e eb47 dbbb
00000250: f46c 14bd a58a 3a3e 58d3 0abe 2469 2b3d
00000260: 75f6 86bd e3cd 50bd 4d5f d6bc 5069 f2be
00000270: 8795 f4be 101c 043e 887a dcbe a437 db3f
00000280: 79e7 fe3f 6dd9 e3be d12a cbbe 9b2f 4dbf
00000290: 286d b93f a150 d23f 476f 0ebe f681 163e
000002a0: 06df 0abc 1255 51be 699b 5a3d 231d 663e
000002b0: f11d 343f dc9a 493e 363e b4be ff04 c33c
000002c0: 0614 893f c897 4d3f 581c 18be e020 6a3e
000002d0: 08dd 773f 3047 fcbc b048 07be cc2f dc3e
000002e0: 5e7b 923f 75b0 e73e 3d64 493e cd92 acbe
000002f0: 680a fe3d f8e5 a03e 1e25 f3bf 0afd f3bd
00000300: fa8e 413f 7166 213f 01e5 83be a49b 013f
00000310: 81ca 87be 1588 ba3e 55fe 713e 661e 263f
00000320: cb3d a63f 408d 3a3f 3182 87bd 4cf3 663f
00000330: 423b 7c3f 9ebb 083f edd0 343e 8d63 2c3f
00000340: 99ec 643e 4ccd d93e 1f1c d83e c80f 1b3e
00000350: e104 d13e f74a f63e 6196 203d 370d 2e3f
00000360: 1ff2 2e3f 5f27 0dbe 36eb bdba 8e77 2f3e
00000370: 89b5 3ebd fa3f 0940 6fca 0cc0 a3b2 52be
00000380: 08ae 99be 3d59 0f3e 976f a8bf 6851 0540
00000390: 55b7 22bc d4be 583f 18de adbe 01fc 163e
000003a0: f4aa 99bc 1709 abbe 512c 23bf fe1b af3f
000003b0: 529d 823e cb99 3f3e 6c7c 8bbe 89d1 04be
000003c0: 39cc ef3b 1266 7dbe 77fc 963f 9c1f 2abe
000003d0: 0707 b53d 9a7d 083f d1b4 043e e6d4 32be
000003e0: 661d 353e 2688 b8bf c429 0fbd cb4a 493e
000003f0: 344e 46c0 c1db 193f a88c 9a3e 2989 4f3d

fc1.bias f4 [128]
-0.15474424 0.057263263 -0.23124312 -0.08632468 -0.07810595 -0.21992724 0.010038648 -0.29872814
-0.039509963 -0.21081898 0.042362086 -0.2937929 -0.24055785 -0.10111015 -0.31889066 -0.18603718
-0.20796753 0.10151573 0.056165613 -0.20954633 -0.2937844 -0.13336484 -0.18316147 -0.18817173
-0.1695514 -0.07520741 -0.08627258 -0.03987889 -0.33366078 -0.09394097 -0.19986513 -0.06818515
-0.18196616 -0.08464743 -0.23305352 -0.4688803 -0.1336128 -0.17642719 -0.31306934 -0.5328625
-0.23967935 0.12122933 -0.16911067 -0.22676478 0.052450135 -0.14111526 0.022056198 0.18657164
-0.3113264 -0.13250367 -0.18240228 0.20928693 -0.0444629 -0.053382542 -0.3085069 -0.13595255
-0.1918575 -0.11167673 -0.049147673 -0.08727412 -0.17192216 -0.095628284 -0.123104334 -0.26900283
0.05078304 -0.19189194 -0.21062955 -0.08800107 0.059737194 -0.11109198 -0.17059901 -0.31809667
-0.16146748 0.05610122 0.04562795 0.311265 -0.19326004 -0.034520853 -0.22782768 -0.15113685
-0.19550912 0.033480383 -0.18223226 0.18501553 -0.02810535 -0.23207757 0.17928185 -0.39091352
-0.19832957 -0.364521 -0.36399105 -0.37575772 -0.024800805 -0.14570525 0.08072136 -0.23204648
-0.008044885 -0.059374467 0.009076962 0.13628256 -0.09197291 -0.044974227 -0.2594267 -0.33518815
0.06861417 0.0019980934 -0.29012308 -0.17985749 -0.082867935 0.08489451 -0.017284032 -0.058332305
0.087872535 -0.2517586 -0.2719212 0.044808168 -0.048410058 -0.41033724 -0.23530112 -0.11077599
-0.046726868 -0.0010246442 -0.10856709 0.034526285 -0.20599715 -0.22292261 -0.13218018 -0.60412735
00000000: 4675 1ebe e28c 6a3d ffca 6cbe feca b0bd
00000010: 03f6 9fbd 9b34 61be 2479 243c e5f2 98be
00000020: 33d5 21bd eee0 57be de83 2d3d 066c 96be
00000030: cc54 76be d712 cfbd a345 a3be 8880 3ebe
00000040: 71f5 54be 7be7 cf3d ea0d 663d 5093 56be
00000050: e96a 96be cb90 08be ae8e 3bbe 17b0 40be
00000060: e29e 2dbe 5806 9abd aeaf b0bd 0c58 23bd
00000070: 96d5 aabe 2064 c0bd 72a9 4cbe a8a4 8bbd
00000080: 5655 3abe a25b adbd 95a5 6ebe 1411 f0be
00000090: cbd1 08be 54a9 34be a04a a0be ad69 08bf
000000a0: 816e 75be 1547 f83d 592b 2dbe 0735 68be
000000b0: f4d5 563d 8580 10be 33af b43c a30c 3f3e
000000c0: 2d66 9fbe 0baf 07be aac7 3abe 504f 563e
000000d0: bb1e 36bd a7a7 5abd 9ef4 9dbe 2537 0bbe
000000e0: 4b76 44be c5b6 e4bd 124f 49bd c6bc b2bd
000000f0: 5d0c 30be c3d8 c3bd 201e fcbd bdba 89be
00000100: e001 503d 527f 44be 46af 57be e839 b4bd
00000110: fdae 743d 3184 e3bd 82b1 2ebe 91dd a2be
00000120: bb57 25be 65ca 653d 60e4 3a3d 205e 9f3e
00000130: f6e5 45be bd65 0dbd a94b 69be 9ec3 1abe
00000140: 8b33 48be ba22 093d 189b 3abe b674 3d3e
00000150: 313d e6bc bea5 6dbe a995 373e d125 c8be
00000160: e816 4bbe 7fa2 babe 095d babe 5163 c0be
00000170: 0f2b cbbc c233 15be 3e51 a53d 989d 6dbe
00000180: b1ce 03bc a432 73bd 8ab7 143c a88d 0b3e
00000190: 4b5c bcbd e536 38bd 94d3 84be c89d abbe
000001a0: 9685 8c3d 72f2 023b 038b 94be 902c 38be
000001b0: aab6 a9bd 2cdd ad3d 3e97 8dbc dbed 6ebd
000001c0: 84f6 b33d 81e6 80be 4139 8bbe c588 373d
000001d0: a049 46bd b917 d2be c7f2 70be 86de e2bd
000001e0: ac64 3fbd 5b4d 86ba 6c58 debd 6f6b 0d3d
000001f0: ebf0 52be d345 64be 3e5a 07be 17a8 1abf

fc2.weight f4 [128, 128]
0.062464762 0.056764316 -1.1910073 -0.3082014 -0.02332072 -0.3224447 -0.24272165 -0.57086307
-0.7002046 0.82810116 -1.6858166 -0.25312263 -2.584955 0.47098947 -1.1426551 -0.19564465
-0.0033977935 0.35038105 0.050757647 -0.055628937 0.851066 0.054255735 0.06133536 0.1514592
0.09106973 -0.06303113 -0.028188672 0.9022888 0.2832108 -0.03477001 -0.20672294 -0.91190135
0.26202106 -0.35247305 0.17667806 0.24401577 0.39557725 0.027414586 0.20906864 0.9013334
-0.2140738 0.21511619 -0.050961286 -0.33748743 0.32866836 0.71130913 0.24834687 0.5971011
-0.085365616 -1.9458336 0.18309627 0.06684056 0.003854759 0.5089449 -0.23399974 0.076457165
-0.02794026 0.66942704 -0.20165376 0.64867777 -0.045209017 0.34742367 0.040117223 -1.5418371
0.46353602 0.01069471 0.022343207 -0.38665244 0.11237816 -0.104094036 0.34492853 -0.7217301
-0.19299708 -1.2637678 0.14527853 0.17750864 -0.07329708 0.75254905 -0.5596099 -0.0010258863
0.22297284 -0.9785084 0.15364394 0.14453515 -0.2749466 0.03968463 0.12659158 0.89104015
-0.058343038 0.19806586 -0.61401963 -0.0108553255 0.3632638 -0.06487548 -0.05301458 -0.50004405
-0.15185323 -0.4040415 0.035264306 0.01602486 0.003320083 0.5977262 0.10846347 -0.4849889
-0.018805092 -1.2451553 -0.3707688 -0.03727159 0.5554229 -0.7283947 0.3257052 -0.061665986
0.424123 -1.46785 0.07607629 -0.1488156 0.070400216 0.1384936 0.46258172 -0.66686785
0.8533721 0.47209293 0.2984066 0.2599268 -0.48900288 -0.03577044 -1.1553445 -0.3109326
0.0683942 -0.074273005 -1.4642034 0.6220266 -0.10076539 0.0139458785 0.6564877 0.7445254
-0.15461157 -0.70394117 -0.9236259 -0.10299092 -1.3722825 0.50269765 -0.22626859 0.647255
0.07503079 0.008764603 -0.48664027 0.17996876 -0.42835304 -0.01950594 1.0772728 -0.07444342
0.08475498 0.028618839 -0.068322085 -1.2955432 -0.36941624 -0.008233605 0.26180184 -1.0056535
0.26184943 -0.2936468 -0.3007675 0.22811809 0.21648176 0.005385538 0.41380727 0.45071924
-0.10944009 0.30444184 -0.12286102 0.024541387 0.346488 0.0840144 0.20069236 -0.3109993
-0.6254758 -1.1541615 0.3404117 0.7379011 -0.015795667 0.34732172 -0.42288262 0.23459561
-0.24712639 -0.5191372 0.15789911 -1.541327 0.027179256 0.02519253 -1.2015315 -1.6390655
0.39871493 -0.3554738 0.06530147 -0.041537568 0.29153326 0.047707874 0.37521374 -0.5316417
-0.07575336 -1.5694246 0.63290155 0.11567345 0.8481867 0.3016994 -0.49663424 0.0071031176
-0.13807203 0.6934611 -0.23229012 0.172184 0.11079621 0.0019140057 -0.07839209 -0.7312978
-0.05869403 -0.01774365 -0.30412504 0.06939125 0.4601034 0.040392153 0.08090073 0.12772071
0.014989087 -0.018067159 -0.055170216 1.1280869 0.013614841 1.0468847 -0.1133179 0.26012012
0.043573245 -0.8909664 0.55434245 0.032147754 -0.38141027 0.4273275 -1.3723794 0.0466076
0.6854141 -2.247968 -0.04418446 0.19279274 0.05479864 -0.6555605 0.3097093 0.73121226
0.50018376 0.5813073 0.023028908 0.7218812 -1.0862443 -0.8846748 0.418343 -0.5444656
00000000: 0ddb 7f3d b381 683d ed72 98bf 93cc 9dbe
00000010: 180b bfbc 7917 a5be 068c 78be 1524 12bf
00000020: 9c40 33bf 70fe 533f d7c8 d7bf 4a99 81be
00000030: e76f 25c0 8825 f13e 8642 92bf 1257 48be
00000040: 84ad 5ebb 2565 b33e 40e7 4f3d 2bdb 63bd
00000050: 76df 593f 433b 5e3d c93a 7b3d 1f18 1b3e
00000060: c482 ba3d 7716 81bd eeeb e6bc 66fc 663f
00000070: 0201 913e ff6a 0ebd 2eaf 53be 5e72 69bf
00000080: a027 863e 5977 b4be 18eb 343e 45df 793e
00000090: 1a89 ca3e 8e94 e03c 1716 563e c9bd 663f
000000a0: 2a36 5bbe 6b47 5c3e c8bc 50bd 27cb acbe
000000b0: 3847 a83e 5b18 363f a44e 7e3e 9edb 183f
000000c0: 2bd4 aebd 1311 f9bf 977d 3b3e b4e3 883d
000000d0: 20a0 7c3b 374a 023f a19d 6fbe 9395 9c3d
000000e0: f9e2 e4bc 925f 2b3f 537e 4ebe bf0f 263f
000000f0: 172d 39bd 84e1 b13e f551 243d eb5a c5bf
00000100: 9854 ed3e dd38 2f3c 1a09 b73c 4ff7 c5be
00000110: 8526 e63d 412f d5bd 799a b03e 4ec3 38bf
00000120: 07a1 45be 25c3 a1bf e5c3 143e d3c4 353e
00000130: c81c 96bd 0ea7 403f 9842 0fbf 0877 86ba
00000140: fe52 643e 877f 7abf d654 1d3e 0601 143e
00000150: cdc5 8cbe 5a8c 223d 39a1 013e 351b 643f
00000160: 1cf9 6ebd c7d1 4a3e 6430 1dbf 89da 31bc
00000170: b6fd b93e 70dd 84bd d125 59bd e302 00bf
00000180: 6a7f 1bbe 87de cebe 4e71 103d 9146 833c
00000190: c095 593b 9604 193f 1922 de3d 7750 f8be
000001a0: 230d 9abc 4061 9fbf 68d5 bdbe 18aa 18bd
000001b0: 3230 0e3f 1378 3abf d5c2 a63e 7995 7cbd
000001c0: a626 d93e 82e2 bbbf e3cd 9b3d 1e63 18be
000001d0: fd2d 903d 44d1 0d3e 83d7 ec3e dab7 2abf
000001e0: 9876 5a3f 2ab6 f13e c0c8 983e 2015 853e
000001f0: 965e fabe 0684 12bd 54e2 93bf 8f32 9fbe
00000200: 4212 8c3d 721c 98bd 046b bbbf 233d 1f3f
00000210: 165e cebd 417d 643c 940f 283f 3799 3e3f
00000220: 7f52 1ebe 7d35 34bf bf72 6cbf e7ec d2bd
00000230: f4a6 afbf cbb0 003f f4b2 67be 81b2 253f
00000240: bea9 993d 6999 0f3c ea28 f9be bb49 383e
00000250: 1751 dbbe ecca 9fbc 13e4 893f cb75 98bd
00000260: 0594 ad3d 0e72 ea3c 73ec 8bbd 5cd4 a5bf
00000270: 2024 bdbe 3ee6 06bc e40a 863e 41b9 80bf
00000280: 2111 863e e058 96be 33fe 99be ca97 693e
00000290: 65ad 5d3e 2b79 b03b 8cde d33e acc4 e63e
000002a0: 2022 e0bd cddf 9b3e 8f9e fbbd 050b c93c
000002b0: e066 b13e be0f ac3d 4c82 4d3e 4d3b 9fbe
000002c0: 2f1f 20bf 90bb 93bf 714a ae3e 16e7 3c3f
000002d0: ea65 81bc 27d4 b13e 1284 d8be d539 703e
000002e0: b30e 7dbe 2de6 04bf 4eb0 213e 344a c5bf
000002f0: 08a7 de3c 9160 ce3c c9cb 99bf e6cc d1bf
00000300: 5d24 cc3e a900 b6be c7bc 853d 4c23 2abd
00000310: d943 953e 5569 433d 041c c03e ac19 08bf
00000320: 9424 9bbd e8e2 c8bf d605 223f 34e6 ec3d
00000330: c322 593f 5878 9a3e d846 febe 45c1 e83b
00000340: c162 0dbe ab86 313f 76dd 6dbe 0151 303e
00000350: 20e9 e23d 60df fa3a 088c a0bd 5536 3bbf
00000360: 2769 70bd 225b 91bc 47b6 9bbe 001d 8e3d
00000370: ac92 eb3e 3e72 253d 48af a53d 38c9 023e
00000380: ca94 753c 9401 94bc 2afa 61bd 2765 903f
00000390: c810 5f3c 5100 863f 3713 e8bd 772e 853e
000003a0: dc79 323d 6016 64bf 63e9 0d3f 5dad 033d
000003b0: 3548 c3be acca da3e 21aa afbf 9ce7 3e3d
000003c0: 4c77 2f3f b5de 0fc0 c4fa 34bd 766b 453e
000003d0: 8a74 603d d0d2 27bf 3892 9e3e ba30 3b3f
000003e0: 0b0c 003f 8ed0 143f 1fa7 bc3c 35cd 383f
000003f0: 0e0a 8bbf 0c7a 62bf 0e31 d63e 1962 0bbf

fc2.bias f4 [128]
-0.07673521 -0.12930334 -0.031503912 0.520673 -0.21868287 -0.4726367 -0.009569458 -0.12961736
-0.059592664 -0.038285315 -0.3170871 -0.20824106 0.6779269 1.4198757 -0.084574394 -0.13557589
0.2195368 0.9624543 -0.008894402 -0.103459194 0.806836 -0.12034973 -0.33700627 -0.11115154
0.37283665 -0.07501953 0.42614612 0.58408517 -0.08998677 -0.066230826 0.47575387 1.1961377
0.4297104 0.64858764 0.025129419 -0.27449268 0.18236081 -0.0781638 0.76322263 -0.061891012
-0.17510086 0.80987173 -0.002001861 0.13015407 -0.1534828 -0.012307343 1.0657718 0.3519985
0.9614737 -0.18838 -0.045507014 -0.05580807 -0.03879539 -0.25204593 0.28472656 0.052657105
0.6142192 -0.0330171 -0.20271297 -0.07870004 0.28765288 -0.230749 0.38835472 1.0702947
-0.14022334 0.10441811 -0.3191193 -0.08250326 -0.15015651 0.08591254 -0.11824902 -0.041673828
-0.11811729 -0.4281432 -0.057578176 0.16697194 -0.1487436 -0.1368696 -0.089959286 0.22411583
0.20639484 -0.5805064 0.73440343 0.25350085 0.34238243 0.015870126 0.45886254 0.12891282
0.016314626 -0.14820988 0.048264015 0.57940716 -0.18537715 0.092566945 -0.15338145 1.0435821
0.43686685 -0.01822298 -0.10985827 -0.033912618 -0.08148962 0.15974404 0.47646433 0.020402696
0.53885216 -0.08642022 0.38621065 0.7353251 0.3832652 -0.20006318 0.347329 -0.18662818
-0.04378921 0.046576526 0.022288227 0.5589563 -0.58544236 -0.13000646 0.51583207 -0.1422048
0.5359119 0.027269604 0.00689951 -0.058258895 0.78151166 0.013311529 -0.12452692 -0.10893082
00000000: 5a27 9dbd 1868 04be 3f0a 01bd d34a 053f
00000010: 67ee 5fbe 70fd f1be 37c9 1cbc 6aba 04be
00000020: 7017 74bd 10d1 1cbd 3e59 a2be 253d 55be
00000030: 9e8c 2d3f 7dbe b53f 5735 adbd 68d4 0abe
00000040: 41ce 603e 6863 763f d3b9 11bc 6ae2 d3bd
00000050: ce8c 4e3f eb79 f6bd 168c acbe 6ba3 e3bd
00000060: 72e4 be3e d7a3 99bd d32f da3e 9b86 153f
00000070: fc4a b8bd 07a4 87bd 0396 f33e 0a1b 993f
00000080: 0003 dc3e d709 263f 36dc cd3c 4e8a 8cbe
00000090: cbbc 3a3e 5814 a0bd 8f62 433f 6e81 7dbd
000000a0: a44d 33be c153 4f3f a831 03bb 1c47 053e
000000b0: 982a 1dbe bda4 49bc 366b 883f 2639 b43e
000000c0: 2423 763f b0e6 40be 9065 3abd 0197 64bd
000000d0: eae7 1ebd 2a0c 81be aec7 913e faae 573d
000000e0: 783d 1d3f f03c 07bd fd93 4fbe 7d2d a1bd
000000f0: 3d47 933e 7749 6cbe 6ed6 c63e 6bff 883f
00000100: b596 0fbe 29d9 d53d 9b63 a3be 78f7 a8bd
00000110: a1c2 19be eaf2 af3d 8b2c f2bd 2db2 2abd
00000120: 7ae7 f1bd 9635 dbbe 18d7 6bbd b1fa 2a3e
00000130: 3e50 18be 8b27 0cbe 933c b8bd 9f7e 653e
00000140: 2b59 533e 119c 14bf dd01 3c3f ddca 813e
00000150: c04c af3e 1102 823c 08f0 ea3e b901 043e
00000160: 40a6 853c 55c4 17be 7db0 453d 0754 143f
00000170: 82d3 3dbe bd93 bd3d 0710 1dbe 1994 853f
00000180: 03ad df3e 5c48 95bc 5ffd e0bd f5e7 0abd
00000190: 08e4 a6bd f193 233e 22f3 f33e 8e23 a73c
000001a0: 37f2 093f 16fd b0bd 67bd c53e 443e 3c3f
000001b0: 563b c43e 5ddd 4cbe 1bd5 b13e 751b 3fbe
000001c0: 515c 33bd 07c7 3e3d cd95 b63c c317 0f3f
000001d0: 8ddf 15bf 6a20 05be 920d 043f 239e 11be
000001e0: 8631 093f 8164 df3c 4915 e23b e1a0 6ebd
000001f0: 2611 483f 9918 5a3c f807 ffbd 1f17 dfbd

fc3.weight f4 [2, 128]
0.39709094 0.68977 -0.023420135 -1.4666716 1.1436574 -0.6021948 -0.07444638 0.066000134
-0.4580988 -0.021421758 -1.5229253 0.05211234 0.33991075 -2.2884116 1.1509137 -0.08306991
1.4024471 -3.8154895 0.4605279 0.036587942 -1.2523063 -0.0036013692 1.2191558 0.83069736
-4.541129 0.012425479 -1.685836 -1.4545447 -0.27420184 -0.005742585 0.59836864 -1.6292983
0.6410059 0.38352475 -0.018556157 1.0912697 1.8460236 0.008197172 0.50997925 -0.0003657035
1.3851243 -2.7971065 -0.5643334 0.67778605 1.3978823 0.020730456 -1.0533011 0.42842484
-2.211319 -0.45225862 0.023561807 -0.018774988 -0.818046 1.4522617 -0.5859178 2.3119183
0.35524055 0.71796787 -2.7175126 -0.0019088639 -0.43527243 -0.0023440705 0.23699619 0.63209623
-0.030674454 0.12792233 -1.2060635 -0.018149756 0.024494857 1.1337907 0.011847286 -0.00394297
-0.028551042 -0.8396146 0.05870132 0.7957351 0.044598367 0.004216494 -0.015738415 -1.1431968
0.428753 0.50522333 0.51438546 1.2343944 1.2803047 2.515258 0.53022957 -3.453455
0.707249 0.7216733 0.4948077 -4.187002 1.4594605 1.5760579 -0.016477615 -3.6010277
0.49061397 0.011401624 0.029922435 0.016325735 1.4370141 0.6723656 -3.3081965 0.42903766
0.7256425 0.026775615 -0.50771695 0.5873295 -2.8084493 -0.5204287 0.566136 0.26168814
0.39819643 2.3112311 -0.007989653 -0.5850427 -1.0308281 3.1769807 0.3239876 -0.023119107
-0.8824394 1.0746773 -0.007480639 -0.025730764 -1.9250466 0.7282586 0.04314941 0.009956477
0.67522395 0.360831 -0.027410945 -1.3185283 1.2337534 -0.6607785 0.038204815 0.009108333
-0.43378478 0.13460489 -1.3668785 -0.02101267 0.44158852 -2.1304197 1.1989969 -0.01571196
1.4732212 -4.027217 1.3751103 0.04675463 -1.1677108 0.040229864 1.508978 -2.0506015
-0.9308151 0.0022878293 -0.64661425 -1.5866086 -0.63264334 0.0012165759 0.392435 -1.276418
0.5850476 0.35207984 0.064757034 -0.6382027 -2.777824 0.12520742 0.4468511 -0.00042087503
1.0573928 -1.57237 -0.22801447 1.2340066 0.9069169 -0.033017084 -1.3963848 0.30200335
-1.8419505 -0.529504 -0.003624305 0.07420929 -0.5011977 0.12693073 -3.052756 2.0141387
0.4161015 0.9642911 2.0116177 -0.0024823966 0.21597275 0.01243802 0.8349087 0.5796499
0.030089384 1.1396682 -0.8074009 0.0041188784 -0.11707501 1.08835 0.03358314 0.035471786
-0.013490581 -0.8726848 0.06193369 0.53917325 0.011722656 0.03218277 0.040848892 3.415834
0.3974034 0.6892292 0.63274026 1.0271683 -2.316986 -2.643221 0.6963183 0.026967527
0.6846965 0.8682398 0.8957625 -1.2999878 0.94996464 -1.2702041 0.0142601505 -1.7978615
0.41988948 0.016728345 0.03340161 0.10848389 2.078588 1.1692381 -3.0279162 0.54045635
1.2003932 -0.032110497 -0.7244674 0.6382699 -3.3182714 0.19434829 0.5273089 -0.22880064
1.3323702 2.1006758 -0.036958944 -0.5932346 -0.86072135 -1.3913844 0.23784447 0.037296586
-2.7251298 0.5301785 0.034796882 -0.013182376 -1.8218133 -0.64234436 -0.06204299 -0.024310542
00000000: 814f cb3e c494 303f 95db bfbc e5bb bbbf
00000010: 5e63 923f 7029 1abf 5877 98bd 142b 873d
00000020: ed8b eabe af7c afbc 37ef c2bf c073 553d
00000030: c808 ae3e 5675 12c0 2451 933f 8f20 aabd
00000040: 6383 b33f fb30 74c0 50ca eb3e 3ddd 153d
00000050: 934b a0bf f304 6cbb 4c0d 9c3f 95a8 543f
00000060: ee50 91c0 3c94 4b3c 79c9 d7bf 852e babf
00000070: 2f64 8cbe 4b2c bcbb b02e 193f d98c d0bf
00000080: f618 243f 5b5d c43e 1503 98bc baae 8b3f
00000090: 804a ec3f 6e4d 063c 008e 023f e5bb bfb9
000000a0: c14b b13f cb03 33c0 2778 10bf 6383 2d3f
000000b0: cfed b23f ebd2 a93c 92d2 86bf 805a db3e
000000c0: 4086 0dc0 718e e7be b104 c13c 01ce 99bc
000000d0: 766b 51bf b6e3 b93f b5fe 15bf 78f6 1340
000000e0: 17e2 b53e becc 373f baeb 2dc0 d832 faba
000000f0: 07dc debe fa9e 19bb 21af 723e 0fd1 213f
00000100: fe48 fbbc 12fe 023e 4a60 9abf ccae 94bc
00000110: 70a9 c83c 0e20 913f 1e1b 423c 0834 81bb
00000120: e0e3 e9bc fcf0 56bf cc70 703d 4cb5 4b3f
00000130: c7ac 363d 842a 8a3b d9ed 80bc 4654 92bf
00000140: 8385 db3e 5156 013f c4ae 033f a300 9e3f
00000150: 06e1 a33f fdf9 2040 20bd 073f 6805 5dc0
00000160: 450e 353f 95bf 383f 6f57 fd3e ecfb 85c0
00000170: 9acf ba3f 44bc c93f 10fc 86bc 3d77 66c0
00000180: c131 fb3e e1cd 3a3c e51f f53c 8cbd 853c
00000190: 14f0 b73f 2720 2c3f 7eb9 53c0 d3aa db3e
000001a0: b5c3 393f 8958 db3c bdf9 01bf 3a5b 163f
000001b0: a2bd 33c0 d13a 05bf 4aee 103f fdfb 853e
000001c0: 67e0 cb3e 36eb 1340 09e7 02bc 5cc5 15bf
000001d0: 2df2 83bf a753 4b40 b4e1 a53e 4864 bdbc
000001e0: 8ce7 61bf 078f 893f 2620 f5bb 53c9 d2bc
000001f0: ed67 f6bf 286f 3a3f 70bd 303d 7e20 233c
00000200: 7adb 2c3f d7be b83e eb8c e0bc 89c5 a8bf
00000210: a2eb 9d3f c828 29bf a77c 1c3d 1e3b 153c
00000220: 0a19 debe ddd5 093e e0f5 aebf c322 acbc
00000230: e417 e23e cc58 08c0 bb78 993f 5eb6 80bc
00000240: 8392 bc3f f6de 80c0 9d03 b03f c881 3f3d
00000250: 8c77 95bf 12c8 243d 3126 c13f 0e3d 03c0
00000260: e649 6ebf 68ef 153b 8388 25bf fe15 cbbf
00000270: eaf4 21bf 8375 9f3a 3eed c83e aa61 a3bf
00000280: aec5 153f cf43 b43e 569f 843d 4161 23bf
00000290: dec7 31c0 6036 003e abc9 e43e e4a8 dcb9
000002a0: a658 873f 6c43 c9bf a07c 69be eef3 9d3f
000002b0: b52b 683f ec3c 07bd bdbc b2bf 2fa0 9a3e
000002c0: 09c5 ebbf 938d 07bf bf85 6dbb 0afb 973d
000002d0: 7e4e 00bf 21fa 013e 5b60 43c0 a6e7 0040
000002e0: 410b d53e c8db 763f 58be 0040 b4af 22bb
000002f0: f627 5d3e d6c8 4b3c 94bc 553f f063 143f
00000300: 037e f63c a6e0 913f d3b1 4ebf a8f7 863b
00000310: 06c5 efbd 0e4f 8b3f 798e 093d dd4a 113d
00000320: 9907 5dbc 4568 5fbf 2eae 7d3d 4207 0a3f
00000330: 6210 403c 15d2 033d 2b51 273d 069d 5a40
00000340: 7578 cb3e 5371 303f 44fb 213f 407a 833f
00000350: 8049 14c0 882a 29c0 eb41 323f 01eb dc3c
00000360: 4548 2f3f f744 5e3f b150 653f 0066 a6bf
00000370: e230 733f 0c96 a2bf 68a3 693c 5320 e6bf
00000380: c1fb d63e e209 893c 20d0 083d cd2c de3d
00000390: 9607 0540 98a9 953f 61c9 41c0 595b 0a3f
000003a0: 7ca6 993f 4c86 03bd b276 39bf a865 233f
000003b0: 8f5e 54c0 3d03 473e b7fd 063f b74a 6abe
000003c0: 1b8b aa3f 7971 0640 4362 17bd 39de 17bf
000003d0: 3c58 5cbf e218 b2bf 808d 733e 4ec4 183d
000003e0: 8768 2ec0 c7b9 073f 2d87 0e3d e4fa 57bc
000003f0: 2e31 e9bf ae70 24bf ca20 7ebd e726 c7bc

fc3.bias f4 [2]
0.24556823 0.5043767
00000000: 3d76 7b3e d51e 013f

fc1.weight f4 [128, 31]
-0.09744403 -0.07499303 -0.028388903 -0.0904782 0.019525586 -0.042784978 -0.22190244 0.07219425
-0.035783954 0.1116533 -0.23253433 -0.15383 0.1632797 0.10081693 0.092160545 0.09864942
-0.057880968 -0.09832543 -0.010416854 -0.20608722 -0.004541064 0.053777296 -0.07690999 0.063764855
-0.020565042 0.0804837 0.08272738 0.06762819 0.02256878 0.016819915 -0.07448603 -0.14976372
-0.19231257 -0.09681598 -0.19755411 -0.004819947 -0.037671633 -0.10582221 0.0829983 0.004004256
0.0060370266 0.0693355 -0.1805018 0.0484596 0.082927845 0.054641914 -0.050066534 0.100421235
0.14658788 0.0075170225 0.07715208 -0.1196645 0.081181325 0.10604859 -0.06376234 0.044753894
-0.025640802 0.005287435 -0.053520557 -0.010245991 0.1548277 -0.16673048 -0.2850332 0.7131284
0.13656363 -0.25226197 -0.7713305 -1.3323236 0.7744331 0.56762594 -0.96338964 1.975745
-0.5762042 0.004893048 0.4628269 -0.82573384 0.04088409 -0.009481882 0.048043694 -0.30214435
0.8440321 -0.21327671 0.29494122 -0.2085597 0.5579846 -0.11892878 0.4082399 -0.3995767
-0.4689586 -0.099519566 -0.43965223 0.82163846 0.22762191 0.03243567 0.21960051 0.03191869
-0.13229512 -0.22707479 0.00886642 0.06972801 -0.21132211 -0.083067834 0.18554571 0.120522365
-0.3149294 -0.25526607 0.20299196 0.0067789434 0.084486015 0.028745785 0.014131954 -0.046805803
0.016479742 2.6328735 1.2732778 -4.373224 0.20610924 2.1048293 0.65334487 -0.84551156
0.07536415 1.2986639 -0.45692593 -0.19921334 -0.2516285 -0.17965725 0.065591246 0.02755698
-0.11913344 -0.1480866 -0.098374516 -0.019444391 -0.15975867 0.27231508 0.08783523 -0.16657732
-0.18249199 -0.07966719 0.056215324 0.09738597 0.19983536 0.1931063 0.10929224 -0.13260841
0.20878375 -0.028522065 0.15225793 -0.006691923 -0.03623672 0.18216951 -0.13557184 0.041848317
-0.06589977 -0.0509776 -0.02616849 -0.4728593 -0.42396766 0.1290133 -0.4300219 1.7924435
1.9320807 -0.44441876 -0.39621028 -0.79875445 1.3952233 1.7228909 -0.13684483 0.0823481
0.0014734755 -0.20501234 0.052976757 0.22008862 0.70098734 0.12985882 -0.3514367 0.017467244
0.9491958 0.7370968 -0.14794596 0.21012405 0.80211085 -0.12007104 -0.1315135 0.39033574
1.1883781 0.44588375 0.19355728 -0.3498101 0.124043286 0.31114092 -1.9467299 -0.12605329
0.75297487 0.62735534 -0.176665 0.45475346 -0.32187456 0.3605733 0.22104327 0.65012413
1.2839255 0.72208947 -0.058575485 0.76177526 0.9960039 0.53099793 0.19180255 0.74461114
0.3031531 0.4225045 0.42884576 0.19652985 0.46189412 0.48543155 0.05628764 0.69500905
0.7235464 -0.16634454 0.0012310157 0.1713545 -0.0750589 2.0779765 -2.2481415 -0.2342579
-0.32865468 0.012368858 -1.3069919 2.0165398 -0.051387176 0.8342997 -0.34261972 0.15119791
-0.020442108 -0.32218164 -0.6351359 1.3768809 0.21950977 0.21271433 -0.21676698 -0.13609317
-0.029900549 -0.2986958 1.2364424 -0.12793037 0.04033337 0.47009537 0.11302108 -0.22742316
0.19078456 -1.4454092 -0.03495194 0.19986239 -3.0608876 0.62085027 0.27502006 0.027788403
00000000: bc90 c7bd f295 99bd d88f e8bc a24c b9bd
00000010: 1ff4 9f3c 4d3f 2fbd 653a 63be 94da 933d
00000020: 3292 12bd 7caa e43d 7b1d 6ebe 9d85 1dbe
00000030: cb32 273e 1b79 ce3d abbe bc3d b508 ca3d
00000040: 9814 6dbd d85e c9bd 74ab 2abc 8708 53be
00000050: 35cd 94bb 9545 5c3d fc82 9dbd 2697 823d
00000060: 0578 a8bc a3d4 a43d f96c a93d a680 8a3d
00000070: 2ae2 b83c ebc9 893c 228c 98bd a95b 19be
00000080: 96ed 44be 7547 c6bd a04b 4abe a5f0 9dbb
00000090: 924d 1abd 51b9 d8bd 03fb a93d 2236 833b
000000a0: 40d2 c53b c5ff 8d3d 77d5 38be 937d 463d
000000b0: 13d6 a93d 33d0 5f3d 9112 4dbd a6a9 cd3d
000000c0: 221b 163e 5b51 f63b e901 9e3d a912 f5bd
000000d0: 6542 a63d 0130 d93d d495 82bd dc4f 373d
000000e0: a90c d2bc 3842 ad3b 5f38 5bbd cdde 27bc
000000f0: 278b 1e3e 65bb 2abe dfef 91be 958f 363f
00000100: 56d7 0b3e 7b28 81be ea75 45bf 9489 aabf
00000110: 3f41 463f ef4f 113f b4a0 76bf 36e5 fc3f
00000120: 1e82 13bf dd55 a03b a6f7 ec3e 4b63 53bf
00000130: 1376 273d e559 1bbc 77c9 443d aab2 9abe
00000140: 7d12 583f 3665 5abe 8902 973e ad90 55be
00000150: 14d8 0e3f ef90 f3bd d204 d13e 5195 ccbe
00000160: 571b f0be ead0 cbbd 191a e1be e656 523f
00000170: b815 693e 44db 043d f5de 603e 2cbd 023d
00000180: 5f78 07be 4b86 68be 7644 113c 8fcd 8e3d
00000190: d364 58be 781f aabd b2ff 3d3e 6ed4 f63d
000001a0: 6d3e a1be 3cb2 82be 20dd 4f3e e621 de3b
000001b0: 0107 ad3d 487c eb3c b689 673c 71b7 3fbd
000001c0: 8600 873c 0081 2840 c4fa a23f 73f1 8bc0
000001d0: 4d0e 533e 86b5 0640 9c41 273f 7273 58bf
000001e0: 8558 9a3d 9e3a a63f 32f2 e9be 95fe 4bbe
000001f0: 73d5 80be 12f8 37be b454 863d 2dbf e13c
00000200: 3cfc f3bd 03a4 17be 9478 c9bd d849 9fbc
00000210: c797 23be e26c 8b3e f5e2 b33d 3f93 2abe
00000220: 2edf 3abe 8d28 a3bd 0a42 663d 4c72 c73d
00000230: a4a1 4c3e a8bd 453e 9cd4 df3d 80ca 07be
00000240: 68cb 553e 1ba7 e9bc 81e9 1b3e eb47 dbbb
00000250: f46c 14bd a58a 3a3e 58d3 0abe 2469 2b3d
00000260: 75f6 86bd e3cd 50bd 4d5f d6bc 9d1a f2be
00000270: 4a12 d9be 101c 043e d52b dcbe ca6e e53f
00000280: 6c4e f73f db8a e3be 13dc cabe 2c7b 4cbf
00000290: ad96 b23f b087 dc3f 0d21 0cbe 1fa6 a83d
000002a0: a221 c13a c1ee 51be 28fe 583d e95e 613e
000002b0: e873 333f b6f9 043e 83ef b3be 7717 8f3c
000002c0: 7ffe 723f 60b2 3c3f 257f 17be c22a 573e
000002d0: 2357 4d3f cee7 f5bd 7aab 06be 16da c73e
000002e0: c61c 983f e04a e43e e133 463e 4f1a b3be
000002f0: 680a fe3d dd4d 9f3e 722e f9bf 1d14 01be
00000300: f6c2 403f 5c9a 203f abe7 34be 72d5 e83e
00000310: becc a4be 109d b83e 2b59 623e 896e 263f
00000320: ac57 a43f dbda 383f d9ec 6fbd b403 433f
00000330: 1dfa 7e3f 7bef 073f e367 443e d69e 3e3f
00000340: e236 9b3e 8352 d83e ac91 db3e 1f3f 493e
00000350: 637d ec3e 7c8a f83e de8d 663d 1dec 313f
00000360: 563a 393f 3956 2abe 085a a13a 8e77 2f3e
00000370: 7bb8 99bd 91fd 0440 8de1 0fc0 4ee1 6fbe
00000380: 6d45 a8be c0a6 4a3c 834b a7bf fd0e 0140
00000390: 5c7b 52bd aa94 553f da6b afbe a0d3 1a3e
000003a0: 3576 a7bc fef4 a4be 4498 22bf a23d b03f
000003b0: 2bc7 603e c9d1 593e 2af8 5dbe 025c 0bbe
000003c0: fff1 f4bc a8ee 98be bf43 9e3f 2e00 03be
000003d0: 9b34 253d 57b0 f03e 9977 e73d 9ee1 68be
000003e0: 075d 433e 2b03 b9bf c429 0fbd baa8 4c3e
000003f0: 95e5 43c0 0bf0 1e3f 6ecf 8c3e 81a4 e33c

fc1.bias f4 [128]
-0.15474424 0.057263263 -0.2401448 -0.095124654 -0.07810595 -0.21932755 0.00692475 -0.32722655
-0.025595464 -0.2139637 0.05120926 -0.2937929 -0.25063512 -0.091460645 -0.30884284 -0.15597197
-0.20796753 0.0883238 0.09299602 -0.15862708 -0.31577557 -0.13336484 -0.18309718 -0.18618514
-0.1695514 -0.07520741 -0.08627258 -0.030133072 -0.31910452 -0.09394097 -0.2160562 -0.084965006
-0.18647972 -0.08409691 -0.21828593 -0.46446246 -0.13724343 -0.17642719 -0.3232941 -0.52751344
-0.2539881 0.13758543 -0.17582656 -0.25252372 0.042231325 -0.13943344 0.016550489 0.2059298
-0.3113871 -0.1395573 -0.19656251 0.2065245 -0.0444629 -0.006235662 -0.30515918 -0.11337172
-0.1886666 -0.12073322 -0.07684397 -0.06473261 -0.17192216 -0.087459005 -0.09859664 -0.2580494
0.04672439 -0.19189194 -0.21062955 -0.06773015 0.06563207 -0.11109198 -0.18622759 -0.30622083
-0.16146748 0.05673581 0.068918094 0.30013937 -0.18832289 -0.024696236 -0.22796898 -0.15113685
-0.19096623 0.010590898 -0.1959306 0.18485394 -0.031111028 -0.23207757 0.17454672 -0.39903688
-0.19832957 -0.35669208 -0.37287328 -0.37602386 -0.032962877 -0.14570525 0.08072136 -0.24140507
-0.015289697 -0.05008027 0.009076962 0.13240154 -0.09197291 -0.024990406 -0.26848462 -0.31674644
0.06861417 -0.022723395 -0.27969614 -0.17985749 -0.088300794 0.10620383 -0.016890105 -0.058332305
0.108453296 -0.24751225 -0.2719212 0.040500913 -0.048410058 -0.36416394 -0.23560575 -0.100588836
-0.06506118 -0.004105066 -0.106931165 0.017285127 -0.19257295 -0.23982151 -0.14526954 -0.60412735
00000000: 4675 1ebe e28c 6a3d 85e8 75be b7d0 c2bd
00000010: 03f6 9fbd 6797 60be 03e9 e23b 3d8a a7be
00000020: 94ad d1bc 4d19 5bbe cdc0 513d 066c 96be
00000030: 3f53 80be b84f bbbd a620 9ebe 1eb7 1fbe
00000040: 71f5 54be 1ce3 b43d b374 be3d 236f 22be
00000050: 56ad a1be cb90 08be d47d 3bbe 51a7 3ebe
00000060: e29e 2dbe 5806 9abd aeaf b0bd a2d9 f6bc
00000070: ab61 a3be 2064 c0bd d63d 5dbe 2202 aebd
00000080: 8af4 3ebe 003b acbd 5986 5fbe 06ce edbe
00000090: 8b89 0cbe 54a9 34be ce86 a5be 1f0b 07bf
000000a0: ba0a 82be 32e3 0c3e e10b 34be ca4a 81be
000000b0: c1fa 2c3d a4c7 0ebe e494 873c 43df 523e
000000c0: 216e 9fbe 1ce8 0ebe af47 49be 297b 533e
000000d0: bb1e 36bd 8654 ccbb d33d 9cbe 6f2f e8bd
000000e0: d131 41be fa42 f7bd 5f60 9dbd 8892 84bd
000000f0: 5d0c 30be b51d b3bd 09ed c9bd 0d1f 84be
00000100: 1362 3f3d 527f 44be 46af 57be 1bb6 8abd
00000110: 1b6a 863d 3184 e3bd 72b2 3ebe fac8 9cbe
00000120: bb57 25be cf63 683d ee24 8d3d deab 993e
00000130: b7d7 40be c34f cabc b370 69be 9ec3 1abe
00000140: a78c 43be 7285 2d3c 08a2 48be 5a4a 3d3e
00000150: 8edc febc bea5 6dbe 60bc 323e 904e ccbe
00000160: e816 4bbe 58a0 b6be 3fe9 bebe 3386 c0be
00000170: 1504 07bd c233 15be 3e51 a53d e432 77be
00000180: a381 7abc f820 4dbd 8ab7 143c 4594 073e
00000190: 4b5c bcbd aeb8 ccbc d176 89be 972c a2be
000001a0: 9685 8c3d 6a26 babc 5534 8fbe 902c 38be
000001b0: 0cd7 b4bd 6581 d93d 1e5d 8abc dbed 6ebd
000001c0: c31c de3d da73 7dbe 4139 8bbe 49e4 253d
000001d0: a049 46bd b273 babe a242 71be 8501 cebd
000001e0: cc3e 85bd ca83 86bb bafe dabd 8a99 8d3c
000001f0: d831 45be c593 75be 8ac1 14be 17a8 1abf

fc2.weight f4 [128, 128]
0.062464762 0.056764316 -1.1162037 -0.22862041 -0.02332072 -0.47059527 -0.27563143 -0.60930634
-0.703016 0.8355142 -1.6502124 -0.25312263 -2.5915854 0.4758975 -1.0643607 -0.31155685
-0.0033977935 0.35491896 0.052986093 -0.034492835 0.8119759 0.054255735 0.076217905 0.27466828
0.09106973 -0.06303113 -0.028188672 1.0586851 0.36223674 -0.03477001 -0.19153677 -0.8885628
0.24664107 -0.33983245 0.16443019 0.20976783 0.38708514 0.027414586 0.23250295 0.66561836
-0.17104088 0.20120373 -0.037213404 -0.3360605 0.3175924 0.6336476 0.23971143 0.5750889
-0.07761479 -1.9942518 0.23596908 0.06514621 0.003854759 0.5150817 -0.20444985 0.06281874
-0.06489848 0.7245461 -0.1466926 0.6166379 -0.045209017 0.34808582 0.101760164 -1.5301853
0.45258883 0.01069471 0.022343207 -0.3605107 0.07060193 -0.104094036 0.35606864 -0.6666744
-0.19299708 -1.2508999 0.17502268 0.18889138 0.024252666 0.7583341 -0.6394969 -0.0010258863
0.20621346 -0.9521403 0.13298893 0.13526116 -0.27242824 0.03968463 0.11651386 0.8849863
-0.058343038 0.19948643 -0.38020003 -0.0108553255 0.3638302 -0.06487548 -0.05301458 -0.48546985
-0.17029051 -0.36833212 0.035264306 -0.02036398 0.003320083 0.45854738 0.14032868 -0.45979735
-0.018805092 -1.1964341 -0.33255848 -0.03727159 0.5697747 -0.7475646 0.25919935 -0.061665986
0.44577664 -1.4664924 0.07607629 -0.14174935 0.070400216 0.022835147 0.44722363 -0.5618878
0.8161909 0.4680337 0.2984066 0.41085273 -0.5126775 -0.09188374 -1.1937929 -0.3109326
0.0683942 -0.074273005 -1.5223898 0.6787354 -0.10076539 0.023904584 0.65581363 0.5665171
-0.059175108 -0.82038134 -0.9421135 -0.10299092 -1.3176813 0.50929916 -0.16180955 0.6330802
0.07503079 0.034784246 -0.49906537 0.19194561 -0.4930408 -0.01950594 1.1143503 -0.10494219
0.08475498 0.028618839 -0.068322085 -1.3112216 -0.42867827 -0.008233605 0.20245184 -0.84314114
0.2722002 -0.36953995 -0.59635425 0.23941676 0.22172612 0.005385538 0.3717436 0.61148214
-0.14119953 0.28590792 -0.13106585 0.02026961 0.36291867 0.08246635 0.17026496 -0.29698515
-0.48710072 -1.1061121 0.3188289 0.7341819 -0.015795667 0.3600419 -0.38352588 0.2763353
-0.26380327 -0.61184204 0.18804936 -1.5340015 0.027179256 0.040034473 -1.2058383 -1.4985821
0.39082202 -0.3554738 0.06530147 -0.092777364 0.30369437 0.047707874 0.3944081 -0.47426677
-0.07575336 -1.6120261 0.6598683 0.14103672 0.91342515 0.2948313 -0.45223686 0.0071031176
-0.11361288 0.69336325 -0.18617913 0.14037345 0.1086841 0.0019140057 -0.1051879 -0.5914133
-0.05869403 -0.01476863 0.0040833196 0.13120195 0.43426734 0.040392153 0.08090073 0.097520664
-0.020288503 -0.005200036 -0.055170216 1.1211562 0.013614841 0.9972373 -0.09714353 0.34531292
0.043573245 -0.848634 0.5660151 0.032147754 -0.4087557 0.3862837 -1.372864 0.0466076
0.61774325 -2.0081518 -0.04418446 0.19484814 0.05479864 -0.6612901 0.28712457 0.67908424
0.5489419 0.69369745 -0.0076341354 0.79169196 -1.2731383 -0.90830034 0.36334947 -0.5444656
00000000: 0ddb 7f3d b381 683d c3df 8ebf 781b 6abe
00000010: 180b bfbc ddf1 f0be 901f 8dbe 80fb 1bbf
00000020: dbf8 33bf 42e4 553f 293a d3bf 4a99 81be
00000030: 89dc 25c0 d6a8 f33e f93c 88bf 6184 9fbe
00000040: 84ad 5ebb f0b7 b53e f207 593d 5c48 0dbd
00000050: a7dd 4f3f 433b 5e3d 2218 9c3d 52a1 8c3e
00000060: c482 ba3d 7716 81bd eeeb e6bc fe82 873f
00000070: 1877 b93e ff6a 0ebd 3722 44be da78 63bf
00000080: 7a8f 7c3e 85fe adbe 6360 283e 61cd 563e
00000090: 0630 c63e 8e94 e03c 4115 6e3e f765 2a3f
000000a0: 5725 2fbe 5a08 4e3e 156d 18bd 1f10 acbe
000000b0: 799b a23e bb36 223f ea76 753e 0739 133f
000000c0: 81f4 9ebd a543 ffbf e1a1 713e 606b 853d
000000d0: 20a0 7c3b 65dc 033f 4d5b 51be 1da7 803d
000000e0: 7fe9 84bd da7b 393f 9636 16be fbdb 1d3f
000000f0: 172d 39bd 4e38 b23e a267 d03d 1ddd c3bf
00000100: b9b9 e73e dd38 2f3c 1a09 b73c dc94 b8be
00000110: bf97 903d 412f d5bd a14e b63e 2cab 2abf
00000120: 07a1 45be 7d1d a0bf 2539 333e be6c 413e
00000130: 87ad c63c 2f22 423f 12b6 23bf 0877 86ba
00000140: 9f29 533e 77bf 73bf 402e 083e e781 0a3e
00000150: b77b 8bbe 5a8c 223d d29e ee3d 768e 623f
00000160: 1cf9 6ebd 2c46 4c3e 94a9 c2be 89da 31bc
00000170: f447 ba3e 70dd 84bd d125 59bd 818f f8be
00000180: a360 2ebe 0796 bcbe 4e71 103d 5dd2 a6bc
00000190: c095 593b b9c6 ea3e 52b2 0f3e 8f6a ebbe
000001a0: 230d 9abc c124 99bf 1b45 aabe 18aa 18bd
000001b0: c1dc 113f 6560 3fbf c7b5 843e 7995 7cbd
000001c0: d63c e43e 06b6 bbbf e3cd 9b3d be26 11be
000001d0: fd2d 903d c610 bb3c 7ffa e43e e1d7 0fbf
000001e0: e3f1 503f 1da2 ef3e c0c8 983e 4a5b d23e
000001f0: d53e 03bf 8b2d bcbd 35ce 98bf 8f32 9fbe
00000200: 4212 8c3d 721c 98bd abdd c2bf 9ac1 2d3f
00000210: 165e cebd 8cd3 c33c 67e3 273f 4407 113f
00000220: 9961 72bd 8304 52bf 5a2e 71bf e7ec d2bd
00000230: c8a9 a8bf 6e61 023f 67b1 25be 8b11 223f
00000240: bea9 993d ed79 0e3d 7f85 ffbe 648d 443e
00000250: d86f fcbe ecca 9fbc 08a3 8e3f eeeb d6bd
00000260: 0594 ad3d 0e72 ea3c 73ec 8bbd 1cd6 a7bf
00000270: b87b dbbe 3ee6 06bc 894f 4f3e 19d8 57bf
00000280: d35d 8b3e 5734 bdbe acaa 18bf ab29 753e
00000290: 2c0c 633e 2b79 b03b 2d55 be3e 188a 1c3f
000002a0: 9c96 10be 8662 923e 2036 06be 740c a63c
000002b0: 7ad0 b93e 1ee4 a83d f059 2e3e 700e 98be
000002c0: 4465 f9be 1595 8dbf 8b3d a33e 58f3 3b3f
000002d0: ea65 81bc 6957 b83e 815d c4be d27b 8d3e
000002e0: 3911 87be aea1 1cbf 0390 403e 295a c4bf
000002f0: 08a7 de3c 30fb 233d e958 9abf 8ad1 bfbf
00000300: d319 c83e a900 b6be c7bc 853d 0f02 bebd
00000310: d47d 9b3e 5569 433d dcef c93e 18d3 f2be
00000320: 9424 9bbd df56 cebf 21ed 283f ee6b 103e
00000330: 3bd6 693f 21f4 963e 978b e7be 45c1 e83b
00000340: dfad e8bd 4180 313f bea5 3ebe 0fbe 0f3e
00000350: c595 de3d 60df fa3a c16c d7bd dd66 17bf
00000360: 2769 70bd 20f8 71bc 5ecd 853b ce59 063e
00000370: 4a58 de3e 3e72 253d 48af a53d eab8 c73d
00000380: 1334 a6bc 1065 aabb 2afa 61bd 0c82 8f3f
00000390: c810 5f3c f24a 7f3f 30f3 c6bd dbcc b03e
000003a0: dc79 323d 1440 59bf 5ee6 103f 5dad 033d
000003b0: 6d48 d1be fac6 c53e 02ba afbf 9ce7 3e3d
000003c0: 6c24 1e3f 8f85 00c0 c4fa 34bd 4586 473e
000003d0: 8a74 603d 4f4a 29bf fe01 933e 77d8 2d3f
000003e0: 7587 0c3f 2896 313f c527 fabb 53ac 4a3f
000003f0: 32f6 a2bf 5f86 68bf f108 ba3e 1962 0bbf

fc2.bias f4 [128]
-0.079791844 -0.12962921 -0.031503912 0.51432467 -0.22881857 -0.48069876 -0.009569458 -0.12961736
-0.057630505 -0.038285315 -0.31327954 -0.20824106 0.6620267 1.4474952 -0.08793915 -0.13557589
0.17705362 0.97554463 0.009283893 -0.103459194 0.8143976 -0.12034973 -0.28005084 -0.10292613
0.38002372 -0.07501953 0.42236805 0.5790245 -0.12244583 -0.066230826 0.44645026 1.2078457
0.42644683 0.6327206 0.025129419 -0.258972 0.16068171 -0.0781638 0.74823326 -0.061891012
-0.18034019 0.8444685 -0.044166982 0.10362625 -0.13270745 -0.012307343 1.0500112 0.33236513
0.95298713 -0.13158377 -0.045507014 -0.05580807 -0.050508443 -0.25204593 0.3739147 0.024834333
0.5938432 -0.06951074 -0.16860652 -0.07870004 0.26829505 -0.230749 0.36182752 1.0560218
-0.14022334 0.08762424 -0.3166787 -0.08250326 -0.15015651 0.06344536 -0.11824902 -0.01006497
-0.11811729 -0.41488943 -0.042775173 0.14228228 -0.1487436 -0.1368696 -0.089959286 0.22411583
0.1982827 -0.5805064 0.71421456 0.24078925 0.4185743 0.031423774 0.42709395 0.12891282
0.016109375 -0.1238551 0.055698577 0.53378916 -0.15784433 0.12759107 -0.15338145 1.0845231
0.43331063 -0.01822298 -0.10985827 -0.033912618 -0.08148962 0.11438261 0.47156662 0.024512818
0.5127286 -0.08642022 0.34416974 0.7359907 0.38128173 -0.20006318 0.31750348 -0.20530678
-0.05117102 0.039450068 0.022288227 0.55151767 -0.5661897 -0.12818366 0.50481695 -0.1422048
0.53845847 0.03420514 0.00689951 -0.058258895 0.7876582 0.056955077 -0.12452692 -0.10893082
00000000: e869 a3bd 85bd 04be 3f0a 01bd c8aa 033f
00000010: 6a4f 6abe 261e f6be 37c9 1cbc 6aba 04be
00000020: f70d 6cbd 10d1 1cbd 2d66 a0be 253d 55be
00000030: 957a 293f 8647 b93f 7119 b4bd 68d4 0abe
00000040: 8b4d 353e 4bbd 793f 781b 183c 6ae2 d3bd
00000050: 5c7c 503f eb79 f6bd d362 8fbe efca d2bd
00000060: 7892 c23e d7a3 99bd a040 d83e f33a 143f
00000070: e1c4 fabd 07a4 87bd 2195 e43e b09a 9a3f
00000080: 3d57 da3e faf9 213f 36dc cd3c fa97 84be
00000090: bf89 243e 5814 a0bd 378c 3f3f 6e81 7dbd
000000a0: 19ab 38be 162f 583f 70e8 34bd 003a d43d
000000b0: 76e4 07be bda4 49bc c466 863f c32b aa3e
000000c0: f7f6 733f e5bd 06be 9065 3abd 0197 64bd
000000d0: f1e1 4ebd 2a0c 81be bf71 bf3e 5f71 cb3c
000000e0: 1c06 183f a65b 8ebd 30a7 2cbe 7d2d a1bd
000000f0: f85d 893e 7749 6cbe 7541 b93e b92b 873f
00000100: b596 0fbe 5674 b33d b623 a2be 78f7 a8bd
00000110: a1c2 19be a4ef 813d 8b2c f2bd 8be7 24bc
00000120: 7ae7 f1bd 636c d4be 0535 2fbd 72b2 113e
00000130: 3e50 18be 8b27 0cbe 933c b8bd 9f7e 653e
00000140: 9f0a 4b3e 119c 14bf c4d6 363f 7591 763e
00000150: 5f4f d63e 37b6 003d 0fac da3e b901 043e
00000160: cff7 833c bea7 fdbd 3124 643d 68a6 083f
00000170: f2a1 21be 3ca7 023e 0710 1dbe a7d1 8a3f
00000180: e4da dd3e 5c48 95bc 5ffd e0bd f5e7 0abd
00000190: 08e4 a6bd 6e41 ea3d 2e71 f13e 1bcf c83c
000001a0: 2e42 033f 16fd b0bd 0437 b03e e369 3c3f
000001b0: 5c37 c33e 5ddd 4cbe d18f a23e f13b 52be
000001c0: b498 51bd 6596 213d cd95 b63c 4330 0d3f
000001d0: cff1 10bf 9442 03be af3b 013f 239e 11be
000001e0: 6ad8 093f b01a 0c3d 4915 e23b e1a0 6ebd
000001f0: f8a3 493f ba49 693d f807 ffbd 1f17 dfbd

fc3.weight f4 [2, 128]
0.43730813 0.70262015 -0.023420135 -1.4244713 1.0645726 -0.5223331 -0.07444638 0.066000134
-0.50124 -0.021421758 -1.5960659 0.05211234 0.35511002 -2.3694444 1.1832472 -0.08306991
1.3567878 -3.7778234 0.39113274 0.036587942 -1.440859 -0.0036013692 1.1793126 0.8957962
-4.553829 0.012425479 -1.6147841 -1.4634265 -0.21479939 -0.005742585 0.58888656 -1.6342546
0.63502216 0.37880772 -0.018556157 1.0927556 1.7045126 0.008197172 0.50070363 -0.0003657035
1.3693726 -2.8119342 -0.53464705 0.5573458 1.3924848 0.020730456 -1.07762 0.45039475
-2.038915 -0.4947875 0.023561807 -0.018774988 -0.9037323 1.4522617 -0.6209276 2.1174574
0.38030288 0.6801042 -2.6464496 -0.0019088639 -0.34515536 -0.0023440705 0.27938843 0.6274826
-0.030674454 0.08145411 -1.2749578 -0.018149756 0.024494857 1.1331168 0.011847286 -0.00394297
-0.028551042 -0.8698519 0.03350948 0.76423204 0.044598367 0.004216494 -0.015738415 -1.1431968
0.35086814 0.50522333 0.505806 1.2826015 1.2609366 2.4775293 0.55783147 -3.453455
0.71610916 0.8058682 0.69106156 -4.212068 1.5771949 1.597237 -0.016477615 -3.680351
0.51068854 0.011401624 0.029922435 0.016325735 1.4370141 0.70248395 -3.28141 0.3483547
0.6732085 0.026775615 -0.5703938 0.61211836 -2.7913983 -0.5204287 0.63391215 0.2453428
0.13446875 2.2909708 -0.007989653 -0.5682968 -1.0604721 3.1977015 0.3202866 -0.023119107
-0.8646881 1.0745198 -0.007480639 -0.025730764 -1.9580557 0.70083666 0.04314941 0.009956477
0.6756605 0.32001847 -0.027410945 -1.4993589 1.2590189 -0.77121794 0.038204815 0.009108333
-0.42231646 0.13460489 -1.3357015 -0.02101267 0.42967546 -2.117907 1.1663947 -0.01571196
1.566116 -3.9906595 1.3972312 0.04675463 -1.1702591 0.040229864 1.4896969 -2.0728657
-0.9651657 0.0022878293 -0.7698406 -1.6163331 -0.66635066 0.0012165759 0.39766696 -1.2957864
0.6056531 0.35581255 0.064757034 -0.66857105 -2.9072871 0.12520742 0.45646438 -0.00042087503
1.0640538 -1.740375 -0.22647958 1.2130203 0.82245535 -0.033017084 -1.4256542 0.30549645
-1.982116 -0.5315691 -0.003624305 0.07420929 -0.48321122 0.12693073 -3.0995536 2.1203785
0.3982881 0.80212456 1.9396863 -0.0024823966 0.23600547 0.01243802 0.8020325 0.5950499
0.030089384 1.0284814 -0.72030216 0.0041188784 -0.11707501 1.066596 0.03358314 0.06420305
-0.013490581 -0.9024201 0.007809247 0.53326184 0.011722656 0.03218277 0.040848892 3.415834
0.43752128 0.6892292 0.6419251 0.87716794 -2.487451 -2.654409 0.64313304 0.026967527
0.6789111 0.858341 0.9027773 -1.4932423 0.8913551 -1.2768435 0.0142601505 -1.8346653
0.40159795 0.016728345 0.03340161 0.10848389 2.078588 1.1498057 -3.1330652 0.44136766
1.1844684 -0.032110497 -0.70082444 0.6219534 -3.42746 0.19434829 0.5160732 -0.17141575
1.1837691 2.1637926 -0.036958944 -0.5517979 -0.9319842 -1.4540681 0.2520952 0.037296586
-2.8115242 0.5143032 0.034796882 -0.013182376 -1.7549149 -0.5405031 -0.06204299 -0.024310542
00000000: dae6 df3e eade 333f 95db bfbc 1355 b6bf
00000010: ea43 883f 9fb7 05bf 5877 98bd 142b 873d
00000020: 4451 00bf af7c afbc e34b ccbf c073 553d
00000030: fbd0 b53e faa4 17c0 a574 973f 8f20 aabd
00000040: 39ab ad3f dcc7 71c0 8d42 c83e 3ddd 153d
00000050: 116e b8bf f304 6cbb b7f3 963f e652 653f
00000060: f8b8 91c0 3c94 4b3c 3fb1 cebf 8f51 bbbf
00000070: 5ff4 5bbe 4b2c bcbb 45c1 163f 412f d1bf
00000080: d090 223f 16f3 c13e 1503 98bc 6adf 8b3f
00000090: 782d da3f 6e4d 063c 1d2e 003f e5bb bfb9
000000a0: 9a47 af3f bbf6 33c0 a1de 08bf 37ae 0e3f
000000b0: f13c b23f ebd2 a93c 74ef 89bf 249a e63e
000000c0: 957d 02c0 ca54 fdbe b104 c13c 01ce 99bc
000000d0: 005b 67bf b6e3 b93f 1cf5 1ebf 6c84 0740
000000e0: 0fb7 c23e 4f1b 2e3f 6e5f 29c0 d832 faba
000000f0: 34b8 b0be fa9e 19bb 000c 8f3e b3a2 203f
00000100: fe48 fbbc 6ad1 a63d d131 a3bf ccae 94bc
00000110: 70a9 c83c f909 913f 1e1b 423c 0834 81bb
00000120: e0e3 e9bc 9dae 5ebf 3d41 093d b6a4 433f
00000130: c7ac 363d 842a 8a3b d9ed 80bc 4654 92bf
00000140: fda4 b33e 5156 013f 817c 013f 492c a43f
00000150: 5f66 a13f d78f 1e40 0bce 0e3f 6805 5dc0
00000160: ee52 373f 614d 4e3f 69e9 303f 43c9 86c0
00000170: 86e1 c93f 4372 cc3f 10fc 86bc df8a 6bc0
00000180: 7cbc 023f e1cd 3a3c e51f f53c 8cbd 853c
00000190: 14f0 b73f fdd5 333f 9f02 52c0 8c5b b23e
000001a0: 6457 2c3f 8958 db3c 5405 12bf cab3 1c3f
000001b0: 45a6 32c0 d13a 05bf 1148 223f 253b 7b3e
000001c0: 2db2 093e 449f 1240 09e7 02bc e67b 11bf
000001d0: 8dbd 87bf 24a7 4c40 9bfc a33e 4864 bdbc
000001e0: 335c 5dbf dd89 893f 2620 f5bb 53c9 d2bc
000001f0: 92a1 fabf 086a 333f 70bd 303d 7e20 233c
00000200: 16f8 2c3f 76d9 a33e eb8c e0bc feea bfbf
00000210: 8827 a13f 8a6e 45bf a77c 1c3d 1e3b 153c
00000220: dd39 d8be ddd5 093e 44f8 aabf c322 acbc
00000230: 6cfe db3e ca8b 07c0 6c4c 953f 5eb6 80bc
00000240: 7d76 c83f f766 7fc0 79d8 b23f c881 3f3d
00000250: 0dcb 95bf 12c8 243d 63ae be3f d5a9 04c0
00000260: 1915 77bf 68ef 153b 4614 45bf 01e4 cebf
00000270: f595 2abf 8375 9f3a 019b cb3e 54dc a5bf
00000280: 150c 1b3f 102d b63e 569f 843d 7927 2bbf
00000290: fe10 3ac0 6036 003e b3b5 e93e e4a8 dcb9
000002a0: ea32 883f 9cc4 debf 43ea 67be 4044 9b3f
000002b0: 6f8c 523f ec3c 07bd d67b b6bf 086a 9c3e
000002c0: fab5 fdbf ea14 08bf bf85 6dbb 0afb 973d
000002d0: 7667 f7be 21fa 013e 165f 46c0 48b4 0740
000002e0: 6bec cb3e 0958 4d3f a447 f83f b4af 22bb
000002f0: 6bab 713e d6c8 4b3c 0052 4d3f 3155 183f
00000300: 037e f63c 47a5 833f b965 38bf a8f7 863b
00000310: 06c5 efbd 3886 883f 798e 093d e47c 833d
00000320: 9907 5dbc 0105 67bf b6e4 ff3b d983 083f
00000330: 6210 403c 15d2 033d 2b51 273d 069d 5a40
00000340: ca02 e03e 5371 303f 3455 243f 148e 603f
00000350: 6632 1fc0 d6e1 29c0 5ea4 243f 01eb dc3c
00000360: 1ecd 2d3f 3cbc 5b3f 6a1c 673f 9022 bfbf
00000370: d92f 643f 9c6f a3bf 68a3 693c 50d6 eabf
00000380: 3f9e cd3e e209 893c 20d0 083d cd2c de3d
00000390: 9607 0540 d52c 933f 2484 48c0 f1fa e13e
000003a0: a99c 973f 4c86 03bd 3b69 33bf 5738 1f3f
000003b0: 815b 5bc0 3d03 473e 601d 043f 9c87 2fbe
000003c0: bf85 973f 947b 0a40 4362 17bd a142 0dbf
000003d0: 8496 6ebf e71e babf 9f12 813e 4ec4 183d
000003e0: 03f0 33c0 60a9 033f 2d87 0e3d e4fa 57bc
000003f0: 0da1 e0bf 695e 0abf ca20 7ebd e726 c7bc

fc3.bias f4 [2]
0.21802615 0.50042593
00000000: 3f42 5f3e ea1b 003f
