checkpoint_v1_obstacle/dqn_episode_800.pth (torch, 343593 bytes, 24 tensors)

fc1.weight f4 [128, 31]
-0.09744403 -0.07499303 -0.028388903 -0.0904782 0.019525586 -0.042784978 -0.22190244 0.07219425
-0.035783954 0.1116533 -0.23253433 -0.15383 0.1632797 0.10081693 0.092160545 0.09864942
-0.057880968 -0.09832543 -0.010416854 -0.20608722 -0.004541064 0.053777296 -0.07690999 0.063764855
-0.020565042 0.0804837 0.08272738 0.06762819 0.02256878 0.016819915 -0.07448603 -0.14976372
-0.19231257 -0.09681598 -0.19755411 -0.004819947 -0.037671633 -0.10582221 0.0829983 0.004004256
0.0060370266 0.0693355 -0.1805018 0.0484596 0.082927845 0.054641914 -0.050066534 0.100421235
0.14658788 0.0075170225 0.07715208 -0.1196645 0.081181325 0.10604859 -0.06376234 0.044753894
-0.025640802 0.005287435 -0.053520557 -0.010245991 0.1548277 -0.16673048 -0.18369083 1.002981
0.13656363 -0.041489266 -1.1445775 -1.8865011 1.4357597 1.1127228 -1.6849765 2.5387156
-0.82046777 0.24351585 0.34456047 -0.5970053 0.21881697 0.19950719 0.3866814 -0.3833147
0.6332587 -0.12517032 0.45177785 -0.46824485 0.69414544 0.040469386 0.47471717 -0.31812692
-0.1617316 -0.029247642 -0.76723415 0.2681946 0.24713148 0.024965892 -0.0002728794 0.03191869
-0.11363667 -0.1350226 -0.11479734 0.012527458 -0.26049662 0.11591174 0.5486379 0.23027213
-0.24508132 -0.46537805 0.15898235 0.011775336 0.08827589 0.13976027 0.019878957 -0.22235197
0.017886505 3.0861816 0.3083757 -5.747086 0.20751646 2.1745245 0.7518038 -0.9200112
0.082372375 1.2686518 -0.43727013 -0.23477396 -0.2516285 -0.17965725 0.065591246 0.02755698
-0.11913344 -0.1480866 -0.098374516 -0.019444391 -0.15975867 0.27231508 0.08783523 -0.16657732
-0.18249199 -0.07966719 0.056215324 0.09738597 0.19983536 0.1931063 0.10929224 -0.13260841
0.20878375 -0.028522065 0.15225793 -0.006691923 -0.03623672 0.18216951 -0.13557184 0.041848317
-0.06589977 -0.0509776 -0.02616849 -0.68441164 -0.4343062 0.1290133 -0.641572 1.7625983
1.4083714 -0.6559553 -0.6077484 -1.4047977 1.8936726 1.6388971 -0.32977778 -0.0889503
0.050743073 -0.15391698 0.03529398 0.21254574 0.8357049 -0.012793548 -0.5629829 0.19449003
1.6559137 1.3618492 -0.35949293 0.26283047 1.186874 0.07892992 -0.3406416 0.23227537
0.6778784 0.33969197 0.01615081 -0.4402134 0.124043286 0.13373147 -1.5352209 -0.57782245
0.57556987 0.4499435 -0.7113808 1.5922389 0.16460776 0.14997587 -0.19274342 0.84476066
0.8427417 0.39808118 -0.12597838 0.53795177 0.55265015 0.35358658 -0.2100862 0.63936555
-0.43404508 0.28830943 0.27833873 0.49196953 0.019735418 0.48232585 -0.09010131 0.8600466
0.8350933 -0.20965357 0.073101975 0.1713545 -0.102409326 2.1998596 -2.4393208 -0.22031319
-0.3012764 -0.030035717 -1.9210696 2.063545 -0.14326623 0.8890051 -0.87551475 -0.022210408
-0.19872333 0.075374804 -0.81722593 1.5318966 0.2038857 -0.01134062 -0.39561686 0.003432342
-0.009067829 -0.28679287 1.0966681 0.045239333 0.12099828 0.36571506 0.26932642 -0.26819125
0.23508587 -1.8060497 -0.03495194 0.39711174 -3.5854247 0.61204803 0.67384964 0.45537785
00000000: bc90 c7bd f295 99bd d88f e8bc a24c b9bd
00000010: 1ff4 9f3c 4d3f 2fbd 653a 63be 94da 933d
00000020: 3292 12bd 7caa e43d 7b1d 6ebe 9d85 1dbe
00000030: cb32 273e 1b79 ce3d abbe bc3d b508 ca3d
00000040: 9814 6dbd d85e c9bd 74ab 2abc 8708 53be
00000050: 35cd 94bb 9545 5c3d fc82 9dbd 2697 823d
00000060: 0578 a8bc a3d4 a43d f96c a93d a680 8a3d
00000070: 2ae2 b83c ebc9 893c 228c 98bd a95b 19be
00000080: 96ed 44be 7547 c6bd a04b 4abe a5f0 9dbb
00000090: 924d 1abd 51b9 d8bd 03fb a93d 2236 833b
000000a0: 40d2 c53b c5ff 8d3d 77d5 38be 937d 463d
000000b0: 13d6 a93d 33d0 5f3d 9112 4dbd a6a9 cd3d
000000c0: 221b 163e 5b51 f63b e901 9e3d a912 f5bd
000000d0: 6542 a63d 0130 d93d d495 82bd dc4f 373d
000000e0: a90c d2bc 3842 ad3b 5f38 5bbd cdde 27bc
000000f0: 278b 1e3e 65bb 2abe 7319 3cbe ae61 803f
00000100: 56d7 0b3e a6f0 29bd 8481 92bf de78 f1bf
00000110: f9c6 b73f b36d 8e3f 4fad d7bf 517a 2240
00000120: 2d0a 52bf 385c 793e 3b6a b03e 57d5 18bf
00000130: 8e11 603e 9d4b 4c3e 1bfb c53e d341 c4be
00000140: 3e1d 223f a62c 00be 6d4f e73e cabd efbe
00000150: 84b3 313f 3ac3 253d 210e f33e 88e1 a2be
00000160: f89c 25be c098 efbc 7569 44bf cd50 893e
00000170: 0910 7d3e 4585 cc3c 4111 8fb9 2cbd 023d
00000180: 58ba e8bd 5d43 0abe de1a ebbd f83f 4d3c
00000190: d05f 85be 2263 ed3d 8973 0c3f 75cc 6b3e
000001a0: 99f6 7abe 0846 eebe 45cc 223e 57ed 403c
000001b0: fdc9 b43d 511d 0f3e 32d9 a23c 3cb0 63be
000001c0: b886 923c 0084 4540 6be3 9d3e 21e8 b7c0
000001d0: 327f 543e 692b 0b40 3776 403f db85 6bbf
000001e0: d9b2 a83d 2f63 a23f dfe1 dfbe 9668 70be
000001f0: 73d5 80be 12f8 37be b454 863d 2dbf e13c
00000200: 3cfc f3bd 03a4 17be 9478 c9bd d849 9fbc
00000210: c797 23be e26c 8b3e f5e2 b33d 3f93 2abe
00000220: 2edf 3abe 8d28 a3bd 0a42 663d 4c72 c73d
00000230: a4a1 4c3e a8bd 453e 9cd4 df3d 80ca 07be
00000240: 68cb 553e 1ba7 e9bc 81e9 1b3e eb47 dbbb
00000250: f46c 14bd a58a 3a3e 58d3 0abe 2469 2b3d
00000260: 75f6 86bd e3cd 50bd 4d5f d6bc 9a35 2fbf
00000270: 625d debe 101c 043e 103e 24bf d29c e13f
00000280: 8445 b43f b0ec 27bf 6695 1bbf 69d0 b3bf
00000290: dd63 f23f 61c7 d13f a2d8 a8be 932b b6bd
000002a0: f8d7 4f3d 6a9c 1dbe 6c90 103d 97a5 593e
000002b0: c2f0 553f 089c 51bc a61f 10bf 6528 473e
000002c0: fbf4 d33f 1351 ae3f 750f b8be b791 863e
000002d0: 7deb 973f 03a6 a13d 9368 aebe 98d9 6d3e
000002e0: 7089 2d3f 1bec ad3e b44e 843c a763 e1be
000002f0: 680a fe3d e7f0 083e 1e82 c4bf 2cec 13bf
00000300: 8c58 133f ff5e e63e 0d1d 36bf 7cce cb3f
00000310: f08e 283e 4693 193e 885e 45be 3c42 583f
00000320: ecbd 573f 4cd1 cb3e 7a00 01be 35b7 093f
00000330: 7b7a 0d3f 4d09 b53e d620 57be 76ad 233f
00000340: 283b debe 4b9d 933e 6a82 8e3e 6ee3 fb3e
00000350: 2cac a13c 6af3 f63e 0987 b8bd 042c 5c3f
00000360: adc8 553f 6daf 56be 7db6 953d 8e77 2f3e
00000370: fbbb d1bd 80ca 0c40 d51d 1cc0 c899 61be
00000380: e640 9abe 770d f6bc 9ce5 f5bf 1f11 0440
00000390: 62b4 12be d795 633f bc21 60bf 9af2 b5bc
000003a0: 217e 4bbe 1b5e 9a3d b835 51bf 3015 c43f
000003b0: 6ac7 503e 02ce 39bc 4b8e cabe 25f1 603b
000003c0: 3b91 14bc 84d6 92be 9f5f 8c3f e14c 393d
000003d0: f2cd f73d 013f bb3e 27e5 893e 5d50 89be
000003e0: 5aba 703e a32c e7bf c429 0fbd 3b52 cb3e
000003f0: 9977 65c0 2eaf 1c3f 6981 2c3f 4927 e93e

fc1.bias f4 [128]
-0.15474424 0.057263263 -0.13880163 -0.10259232 -0.07810595 -0.43087402 -0.17048247 -0.37053302
0.018704113 -0.2637544 0.011739256 -0.2937929 -0.24655995 -0.17152257 -0.20958301 -0.20513469
-0.20796753 0.07037173 0.0073708813 -0.147612 -0.42920646 -0.14710894 -0.20462717 -0.28737837
-0.1695514 -0.07520741 -0.19111489 -0.07212997 -0.31015497 -0.09394097 -0.19477475 -0.077723965
-0.19954875 -0.042069 -0.4407605 -0.6795401 -0.115352154 -0.17642719 -0.38207754 -0.70796716
-0.10425617 0.17712861 -0.19062127 -0.2692628 0.065524615 -0.1985339 0.05518952 0.12277807
-0.39000878 -0.19483171 -0.080032654 0.3817845 -0.09949956 -0.25522146 -0.52720094 -0.11700677
-0.17799366 -0.19766164 -0.1567493 -0.10866861 -0.17192216 -0.1437862 -0.20357491 -0.31140304
-0.060497656 -0.19189194 -0.16523805 -0.12660763 0.038392317 -0.11109198 -0.2573384 -0.2781536
-0.16146748 0.09338848 0.035590984 0.34290698 -0.18883276 -0.12865491 -0.28356507 -0.15113685
-0.18044396 -0.030154293 -0.09572377 0.14986318 -0.08876353 -0.23207757 0.27537763 -0.5462674
-0.19832957 -0.5405325 -0.6430261 -0.27427417 -0.025691975 -0.14570525 0.08072136 -0.12539019
-0.020629704 -0.20071915 -0.01952207 0.104796 -0.09197291 -0.099156275 -0.20593342 -0.24596933
0.06861417 -0.004558183 -0.26191926 -0.17985749 -0.19147456 0.04185643 0.00024666102 -0.058332305
0.078904845 -0.30113882 -0.2719212 -0.034748796 -0.048410058 -0.22132269 -0.20347905 -0.16480932
-0.034835633 -0.118529715 -0.024728512 -0.07513577 -0.25245246 -0.28208485 0.061561316 -0.66219115
00000000: 4675 1ebe e28c 6a3d 0422 0ebe ec1b d2bd
00000010: 03f6 9fbd 859b dcbe f592 2ebe 81b6 bdbe
00000020: 5e39 993c d10a 87be 0256 403c 066c 96be
00000030: 367a 7cbe 9da3 2fbe ee9c 56be d40e 52be
00000040: 71f5 54be 0e1f 903d 6f87 f13b 9a27 17be
00000050: f3c0 dbbe baa3 16be c989 51be 4223 93be
00000060: e29e 2dbe 5806 9abd 9fb3 43be e1b8 93bd
00000070: a2cc 9ebe 2064 c0bd 0873 47be be2d 9fbd
00000080: 8256 4cbe 8b50 2cbd 5cab e1be 57f6 2dbf
00000090: c03d ecbd 54a9 34be ab9f c3be 563d 35bf
000000a0: 4284 d5bd 3461 353e 3932 43be d0dc 89be
000000b0: c531 863d 784c 4bbe 680e 623d 1273 fb3d
000000c0: 3baf c7be f781 47be 29e8 a3bd 4279 c33e
000000d0: 6dc6 cbbd 63ac 82be a4f6 06bf 3fa1 efbd
000000e0: f843 36be d067 4abe e382 20be a68d debd
000000f0: 5d0c 30be b13c 13be f175 50be 3870 9fbe
00000100: 64cc 77bd 527f 44be 2a34 29be 6ea5 01be
00000110: 4341 1d3d 3184 e3bd dcc1 83be 266a 8ebe
00000120: bb57 25be 7642 bf3d dac7 113d 8191 af3e
00000130: 605d 41be 1dbe 03be 712f 91be 9ec3 1abe
00000140: 4dc6 38be 2306 f7bc d30a c4bd bc75 193e
00000150: a7c9 b5bd bea5 6dbe 4cfe 8c3e 2ed8 0bbf
00000160: e816 4bbe 5760 0abf 5c9d 24bf aa6d 8cbe
00000170: fa77 d2bc c233 15be 3e51 a53d 4966 00be
00000180: a0ff a8bc 5289 4dbe c0ec 9fbc 499f d63d
00000190: 4b5c bcbd 7212 cbbd 36e0 52be 62df 7bbe
000001a0: 9685 8c3d cf5c 95bb 481a 86be 902c 38be
000001b0: e811 44be a671 2b3d 4852 8139 dbed 6ebd
000001c0: dd98 a13d de2e 9abe 4139 8bbe c154 0ebd
000001d0: a049 46bd 6aa2 62be d05c 50be c6c3 28be
000001e0: cfaf 0ebd b5bf f2bd 7393 cabc c8e0 99bd
000001f0: 7341 81be 6d6d 90be b827 7c3d 5c85 29bf

fc2.weight f4 [128, 128]
0.062464762 0.056764316 -1.1730778 -0.72858876 -0.02332072 0.19288382 -0.3378655 -0.4803776
-0.78028494 0.74380106 -2.0773177 -0.25312263 -2.8985515 0.6417759 -1.148607 -0.2536013
-0.0033977935 0.21575019 -0.09073705 -0.26585832 0.93466043 0.054255735 0.4991042 0.41317794
0.09106973 -0.06303113 0.5067229 0.7143472 0.22147234 -0.03477001 -0.15703246 -1.0722109
0.4287806 -0.57670677 -0.60485446 0.022194438 0.16313021 0.027414586 0.02706806 0.18769398
-0.4262053 0.016230715 0.31086236 0.3399895 0.33595058 1.1795485 0.22080137 1.4633521
0.75050735 -3.0259824 0.13772869 0.17607842 0.003854759 1.8228565 -0.4967108 0.11494463
0.11110941 0.23902464 0.027755518 0.49074936 -0.045209017 0.45538208 0.2028453 -1.8134348
0.25624952 0.01069471 -0.2646646 -1.0836158 0.0055707595 -0.104094036 0.2545119 -1.2810329
-0.19299708 -0.9274674 -0.00031239327 -0.119295835 -1.2790928 1.4144018 -0.69353616 -0.0010258863
0.23725316 0.09498316 0.10400673 0.24302918 -0.4226223 0.03968463 0.16778797 1.2274052
-0.058343038 -0.051665075 -1.0317426 -0.25471354 0.25891653 -0.06487548 -0.05301458 -0.6421949
-0.38747537 0.5187866 0.0064890734 -0.22272107 0.003320083 -0.39355835 0.0440912 -0.32062283
-0.018805092 -1.9401599 -0.013345175 -0.03727159 0.103382125 -2.0339665 -0.18974438 -0.061665986
-0.42862415 -1.649939 0.07607629 0.013063451 0.070400216 -0.33752826 0.5451799 -1.1212188
1.1185544 0.4053267 0.065583095 -0.14960223 -0.4512738 0.36135912 -1.8023944 -0.3109326
0.0683942 -0.074273005 -1.0460752 0.63139904 -0.10076539 -0.38635078 0.7288931 1.1687152
-0.020612957 -0.574295 -0.84976417 -0.10299092 -1.9039657 0.48496062 -0.093688145 0.81655735
0.07503079 -0.09363951 -0.062355347 0.29602885 -0.9849727 -0.01950594 1.2804348 -0.10156965
0.08475498 0.028618839 -0.3390913 -1.5313481 -0.55522144 -0.008233605 0.24772136 -1.6917413
0.27920547 -0.47852147 -0.98227376 0.6100599 0.21905865 0.005385538 0.89444226 -1.6682012
-0.17651854 0.34339976 -0.1697218 -0.33152407 0.38598105 0.32879543 -0.109925084 -0.5763624
0.017455352 -1.3292544 0.5118004 0.68752027 -0.00062352174 0.21664745 -0.5155423 0.015352403
-0.35893202 -0.50626856 -0.49821058 -1.7688195 0.027179256 0.044917095 -2.0509665 -1.6298769
0.4030164 -0.3554738 -0.62776726 -0.54524076 0.2840758 0.047707874 0.49658564 -1.0402913
-0.07575336 -1.277411 0.40179816 -0.020309644 1.0349972 0.7782881 -0.49878228 0.0071031176
-1.0694964 1.0292413 -0.21421269 0.25916785 0.15389171 0.0019140057 -0.09355242 -1.1495445
-0.05869403 -0.08855358 -0.96463794 -0.0062002945 0.29914042 0.040392153 0.08090073 0.12727691
0.30070403 0.7713653 -0.16576612 0.6478038 0.013614841 1.3973196 0.052670572 -0.29843175
0.043573245 -1.0711979 0.5695169 0.032147754 -0.37393695 1.0370888 -1.2086648 0.0466076
0.5528243 -1.6023269 -0.04418446 0.054116458 0.05479864 -0.5818617 0.40278646 0.82415533
0.062269278 -0.06552923 0.647265 -0.36863622 -2.41919 -1.1988446 0.68915933 -0.5444656
00000000: 0ddb 7f3d b381 683d 6a27 96bf cb84 3abf
00000010: 180b bfbc 5683 453e b5fc acbe 0ef4 f5be
00000020: c1c0 47bf bf69 3e3f c6f2 04c0 4a99 81be
00000030: de81 39c0 6d4b 243f 8e05 93bf 08d8 81be
00000040: 84ad 5ebb 9eed 5c3e 59d4 b9bd 951e 88be
00000050: e845 6f3f 433b 5e3d 968a ff3e 0f8c d33e
00000060: c482 ba3d 7716 81bd 98b8 013f 75df 363f
00000070: a5c9 623e ff6a 0ebd 1ecd 20be 353e 89bf
00000080: 2189 db3e 0ea3 13bf bed7 1abf 1cd1 b53c
00000090: 9b0b 273e 8e94 e03c d6bd dd3c da32 403e
000000a0: 9537 dabe 47f6 843c 5a29 9f3e 1b13 ae3e
000000b0: b701 ac3e 72fb 963f c119 623e 1f4f bb3f
000000c0: 4021 403f b2a9 41c0 c008 0d3e e74d 343e
000000d0: 20a0 7c3b 5d53 e93f e150 febe 1768 eb3d
000000e0: 558d e33d e0c2 743e 8a5f e33c 8043 fb3e
000000f0: 172d 39bd d727 e93e aeb6 4f3e a21e e8bf
00000100: 2333 833e dd38 2f3c 1e82 87be ecb3 8abf
00000110: eb8a b63b 412f d5bd 624f 823e e3f8 a3bf
00000120: 07a1 45be 816e 6dbf b7c8 a3b9 6051 f4bd
00000130: 50b9 a3bf 1e0b b53f 968b 31bf 0877 86ba
00000140: 7ef2 723e 8886 c23d 7b01 d53d a4dc 783e
00000150: f361 d8be 5a8c 223d 9cd0 2b3e 9d1b 9d3f
00000160: 1cf9 6ebd c29e 53bd 2410 84bf d069 82be
00000170: b590 843e 70dd 84bd d125 59bd e366 24bf
00000180: 2c63 c6be 33cf 043f 4ba2 d43b fe10 64be
00000190: c095 593b 7b80 c9be f998 343d ad28 a4be
000001a0: 230d 9abc 2957 f8bf b9a5 5abc 18aa 18bd
000001b0: 02ba d33d 822c 02c0 5a4c 42be 7995 7cbd
000001c0: a074 dbbe 3331 d3bf e3cd 9b3d 1608 563c
000001d0: fd2d 903d 81d0 acbe e990 0b3f 1984 8fbf
000001e0: ca2c 8f3f fb86 cf3e 6e50 863d 5431 19be
000001f0: 5c0d e7be 1004 b93e dcb4 e6bf 8f32 9fbe
00000200: 4212 8c3d 721c 98bd cbe5 85bf 5ea3 213f
00000210: 165e cebd c5cf c5be bd98 3a3f 7698 953f
00000220: 81dc a8bc ff04 13bf 258a 59bf e7ec d2bd
00000230: 26b5 f3bf c24c f83e 92df bfbd e709 513f
00000240: bea9 993d 12c6 bfbd 5268 7fbd 1891 973e
00000250: 2c27 7cbf ecca 9fbc 4ae5 a33f c003 d0bd
00000260: 0594 ad3d 0e72 ea3c 609d adbe 3703 c4bf
00000270: fe22 0ebf 3ee6 06bc abaa 7d3e fb8a d8bf
00000280: 05f4 8e3e c400 f5be 4b76 7bbf e32c 1c3f
00000290: e950 603e 2b79 b03b 2bfa 643f 9e87 d5bf
000002a0: 47c1 34be 18d2 af3e 8dcb 2dbe 86bd a9be
000002b0: 4f9f c53e e057 a83e 6720 e1bd 7c8c 13bf
000002c0: 87fe 8e3c 0225 aabf 5a05 033f 5401 303f
000002d0: d673 23ba d4d8 5d3e 95fa 03bf a588 7b3c
000002e0: f0c5 b7be d19a 01bf 7515 ffbe ad68 e2bf
000002f0: 08a7 de3c fdfa 373d 0943 03c0 ce9f d0bf
00000300: 2a58 ce3e a900 b6be 5bb5 20bf e694 0bbf
00000310: 6272 913e 5569 433d 7940 fe3e 4428 85bf
00000320: 9424 9bbd 3482 a3bf 7db8 cd3e 6960 a6bc
00000330: ca7a 843f e43d 473f 6460 ffbe 45c1 e83b
00000340: 42e5 88bf 2ebe 833f 925a 5bbe a6b1 843e
00000350: ca95 1d3e 60df fa3a 6998 bfbd 4624 93bf
00000360: 2769 70bd 945b b5bd 83f2 76bf d72b cbbb
00000370: ef28 993e 3e72 253d 48af a53d e154 023e
00000380: e1f5 993e 3278 453f 98be 29be 78d6 253f
00000390: c810 5f3c 5edb b23f 19bd 573d 0ccc 98be
000003a0: dc79 323d 031d 89bf dccb 113f 5dad 033d
000003b0: aa74 bfbe 53bf 843f 87b5 9abf 9ce7 3e3d
000003c0: e585 0d3f 0c19 cdbf c4fa 34bd 38a9 5d3d
000003d0: 8a74 603d e3f4 14bf 073a ce3e d8fb 523f
000003e0: 120e 7f3d 3034 86bd 29b3 253f e3bd bcbe
000003f0: 02d4 1ac0 bd73 99bf bf6c 303f 1962 0bbf

fc2.bias f4 [128]
-0.10176725 -0.23106243 -0.031503912 0.32102394 -0.20873977 -0.20121388 -0.009569458 -0.12961736
0.11022869 -0.06990125 -0.18680857 -0.24225846 0.6655429 1.5930544 0.009914976 -0.16719873
0.32260174 1.2051287 0.067383856 -0.103459194 1.1460621 -0.12034973 -0.7838374 -0.089806
0.5503941 -0.07501953 0.8037263 0.6149873 -0.15496168 -0.066230826 0.47730052 1.2379907
0.6386893 0.7521166 0.025129419 -0.5173027 -0.10559156 -0.0781638 1.0057454 -0.006288517
-0.29021567 0.6997902 0.03813314 0.2883594 0.079859294 -0.061307944 1.1874899 0.57768905
1.2672894 -0.27620834 -0.045507014 -0.06917083 0.15048009 -0.19974689 0.40237063 0.020231256
0.48696893 0.062391434 0.028024089 -0.07870004 -0.073437095 -0.25967833 0.4036338 1.235658
-0.14022334 0.14886251 -0.21037318 -0.08250326 -0.17244084 0.14449081 -0.14845695 -0.041673828
-0.11811729 -0.62805694 -0.088922575 0.32944974 -0.1487436 -0.19490051 -0.089959286 0.1553193
0.37838504 -0.67844355 0.92855275 0.44118518 -0.0125872195 -0.07567011 0.6487187 0.12891282
0.096743576 0.11920039 0.07598425 0.6656741 -0.33580968 0.22541468 -0.15338145 1.1635988
0.7703783 -0.01822298 -0.10985827 -0.04835733 -0.00037063425 0.49324146 0.70035577 0.18316244
0.7433058 -0.11796619 0.48272339 0.78302234 0.4172679 -0.16210766 0.29128665 -0.6177556
-0.1686423 0.08890521 0.022288227 0.67566997 -0.5465059 0.04486516 0.5219047 -0.1422048
0.64776343 -0.06475789 -0.010237174 -0.058258895 1.0153273 -0.5327524 -0.14962773 -0.10893082
00000000: 596b d0bd a19b 6cbe 3f0a 01bd 405d a43e
00000010: e1bf 55be 030b 4ebe 37c9 1cbc 6aba 04be
00000020: 94bf e13d 6328 8fbd bf4a 3fbe 9a12 78be
00000030: 0561 2a3f 35e9 cb3f 6c72 223c 2536 2bbe
00000040: 0e2c a53e a841 9a3f 8c00 8a3d 6ae2 d3bd
00000050: 2ab2 923f eb79 f6bd 91a9 48bf 35ec b7bd
00000060: a1e6 0c3f d7a3 99bd 02c1 4d3f cf6f 1d3f
00000070: 46ae 1ebe 07a4 87bd bc60 f43e 7b76 9e3f
00000080: 2481 233f b78a 403f 36dc cd3c f36d 04bf
00000090: 6340 d8bd 5814 a0bd 44bc 803f e70f cebb
000000a0: 2697 94be 7325 333f 7f31 1c3d d8a3 933e
000000b0: 458d a33d 0a1e 7bbd abff 973f 6ee3 133f
000000c0: 8a36 a23f 2e6b 8dbe 9065 3abd 70a9 8dbd
000000d0: 7417 1a3e 738a 4cbe 8603 ce3e 05bc a53c
000000e0: fe53 f93e 298e 7f3d c692 e53c 7d2d a1bd
000000f0: 3066 96bd 8ff4 84be 17a9 ce3e 0b2a 9e3f
00000100: b596 0fbe 6a6f 183e 116c 57be 78f7 a8bd
00000110: 5594 30be 66f5 133e 1905 18be 2db2 2abd
00000120: 7ae7 f1bd 57c8 20bf 0a1d b6bd a3ad a83e
00000130: 3e50 18be 0094 47be 933c b8bd 060c 1f3e
00000140: afbb c13e 7aae 2dbf a2b5 6d3f 06e3 e13e
00000150: a03a 4ebc eef8 9abd 6e12 263f b901 043e
00000160: 7f21 c63d 561f f43d a19d 9b3d 9e69 2a3f
00000170: 3fef abbe 1bd3 663e 0710 1dbe cef0 943f
00000180: 8337 453f 5c48 95bc 5ffd e0bd 5612 46bd
00000190: b051 c2b9 258a fc3e 844a 333f ef8e 3b3e
000001a0: 4a49 3e3f 4298 f1bd 8527 f73e 2774 483f
000001b0: 23a4 d53e 8dff 25be 8623 953e 3b25 1ebf
000001c0: 91b0 2cbe ef13 b63d cd95 b63c b5f8 2c3f
000001d0: d0e7 0bbf 88c4 373d 8c9b 053f 239e 11be
000001e0: d3d3 253f c99f 84bd d2b9 27bc e1a0 6ebd
000001f0: 3ff6 813f 7662 08bf 0338 19be 1f17 dfbd

fc3.weight f4 [2, 128]
0.59577155 0.7190362 -0.023420135 -1.1455942 2.6512942 -0.44928044 -0.07444638 0.066000134
-0.61535984 -0.021421758 -2.0680187 1.1273997 0.2898949 -2.1783633 1.0840762 -0.08306991
1.0271677 -3.4888186 0.35069823 0.036587942 -0.7461085 -0.0036013692 0.613894 1.029624
-3.9193103 0.012425479 -1.2181094 -1.6471142 -0.45036957 -0.005742585 0.61749697 -1.3164207
0.72090036 0.38499355 -0.018556157 1.0575038 2.5648737 0.008197172 0.49060813 -0.2574208
1.4810375 -3.1121695 -1.0436671 0.8558707 1.5116379 -0.0018078928 -1.1032568 0.5894831
-1.7224262 -0.661661 0.023561807 -0.045962367 -1.1936561 1.3810792 -2.116314 2.2835536
0.5018833 1.4411352 -3.8354154 -0.0019088639 -0.51341814 0.027109392 0.14351901 0.5695193
-0.030674454 1.0847011 -1.4556558 -0.018149756 0.03040983 1.0218865 -0.015885761 -0.00394297
-0.028551042 -0.5603513 0.056649562 0.5786896 0.044598367 -0.6536166 -0.015738415 -1.3974465
0.38394386 0.43018484 0.5341889 1.5034056 2.0027661 1.9015781 0.86702263 -3.453455
0.6256173 1.0033084 0.96780914 -6.250779 1.2735791 2.1433337 -0.016477615 -2.8141315
0.48693722 0.011401624 0.029922435 -0.015174212 1.2195758 0.872071 -2.8681269 0.835408
0.90352225 0.026775615 -1.1641018 0.4445293 -3.5795345 -0.488026 0.6671471 0.19228353
1.5658973 2.0243475 -0.007989653 -0.72758055 -0.71430504 3.3143628 0.28743058 -0.023119107
-0.59037954 1.5521162 -0.0044823554 -0.025730764 -3.0329514 1.5420258 0.011397316 0.009956477
0.92282003 0.51896834 -0.027410945 -1.3497643 1.9496641 -1.2939322 0.038204815 0.009108333
-0.5191237 0.10403496 -1.7070988 0.030208344 0.59846765 -1.5538203 0.9769975 0.014619579
0.7852572 -3.6821187 1.4237653 0.04675463 -1.3622795 0.040229864 1.4333701 -2.1309721
-1.8816941 0.0022878293 -0.48742768 -1.1178081 -1.1428968 0.0012165759 0.21767618 -1.1357136
0.69873047 0.31367517 0.064757034 -0.2205328 -2.5140638 0.12520742 0.4324112 1.6085789
1.271167 -1.5700811 -0.39580986 1.353778 1.1287932 -0.0053335535 -1.6223855 0.8498201
-2.0558631 -0.589274 -0.003624305 0.042901084 -0.11252651 0.44322476 -4.379609 1.9130046
0.5908854 1.896927 1.8229918 -0.0024823966 0.4813327 0.01243802 0.92656165 0.60237676
0.030089384 1.0868242 -1.1245493 0.0041188784 -0.10295789 0.9304808 0.03358314 0.035471786
-0.013490581 -0.7438737 0.06193369 0.44455275 0.011722656 0.6251435 0.040848892 3.4418943
0.5927682 0.6594374 0.60440636 1.1430964 -2.4800713 -2.3144636 0.7545267 0.026967527
0.33704954 0.89311534 0.97374177 -1.2996498 1.314425 1.6140009 0.0142601505 -1.5420072
0.47412392 0.016728345 0.03340161 0.11682524 2.0829465 1.0109912 -2.5868487 1.17941
1.3271887 -0.0031879016 -0.6571916 0.5684163 -2.4493923 0.45226803 0.2574915 -0.5141613
1.5768174 1.930295 -0.036958944 -0.6755501 -0.7337559 -1.1146038 0.21090208 0.037296586
-2.4103172 1.1639178 0.045065757 -0.013182376 -1.5625973 -2.5401676 -0.054876283 -0.024310542
00000000: 7c84 183f c212 383f 95db bfbc d5a2 92bf
00000010: ceae 2940 1608 e6be 5877 98bd 142b 873d
00000020: 3988 1dbf af7c afbc 6b5a 04c0 a24e 903f
00000030: 1b6d 943e 4e6a 0bc0 02c3 8a3f 8f20 aabd
00000040: 3b7a 833f ce48 5fc0 b88e b33e 3ddd 153d
00000050: f700 3fbf f304 6cbb 2828 1d3f b8ca 833f
00000060: fbd5 7ac0 3c94 4b3c 02eb 9bbf a3d4 d2bf
00000070: d796 e6be 4b2c bcbb 4814 1e3f 7980 a8bf
00000080: ed8c 383f e01d c53e 1503 98bc 495c 873f
00000090: e426 2440 6e4d 063c fd30 fb3e a9cc 83be
000000a0: a392 bd3f c92d 47c0 e296 85bf 581a 5b3f
000000b0: 5a7d c13f d1f6 ecba 8537 8dbf 5de8 163f
000000c0: 7678 dcbf 9e62 29bf b104 c13c 0943 3cbd
000000d0: b9c9 98bf 34c7 b03f b071 07c0 be25 1240
000000e0: 6d7b 003f 1e77 b83f 7277 75c0 d832 faba
000000f0: 5f6f 03bf 8414 de3c a6f6 123e 04cc 113f
00000100: fe48 fbbc 7cd7 8a3f ee52 babf ccae 94bc
00000110: 091e f93c 2dcd 823f db22 82bc 0834 81bb
00000120: e0e3 e9bc 2f73 0fbf 5f09 683d 0025 143f
00000130: c7ac 363d 6b53 27bf d9ed 80bc 87df b2bf
00000140: 4a94 c43e 3041 dc3e 9bc0 083f 986f c03f
00000150: 522d 0040 e966 f33f 32f5 5d3f 6805 5dc0
00000160: 7528 203f 696c 803f 57c2 773f 6206 c8c0
00000170: a404 a33f 612c 0940 10fc 86bc bb1a 34c0
00000180: d64f f93e e1cd 3a3c e51f f53c 429d 78bc
00000190: 0f1b 9c3f 0c40 5f3f 648f 37c0 4cdd 553f
000001a0: 3c4d 673f 8958 db3c 4a01 95bf 5899 e33e
000001b0: 1817 65c0 8bde f9be 27ca 2a3f f9e5 443e
000001c0: 536f c83f e98e 0140 09e7 02bc b842 3abf
000001d0: b2dc 36bf 851e 5440 1a2a 933e 4864 bdbc
000001e0: 1d23 17bf beab c63f b9e0 92bb 53c9 d2bc
000001f0: e01b 42c0 1a61 c53f cfbb 3a3c 7e20 233c
00000200: ef3d 6c3f 1cdb 043f eb8c e0bc 14c5 acbf
00000210: 988e f93f 929f a5bf a77c 1c3d 1e3b 153c
00000220: 4ae5 04bf 4810 d53d 3782 dabf 7d77 f73c
00000230: 2d35 193f 95e3 c6bf 821c 7a3f f586 6f3c
00000240: 9e06 493f d5a7 6bc0 f13d b63f c881 3f3d
00000250: 2d5f aebf 12c8 243d ac78 b73f d961 08c0
00000260: 5adb f0bf 68ef 153b 1f90 f9be 5614 8fbf
00000270: 714a 92bf 8375 9f3a 81e6 5e3e 105f 91bf
00000280: 00e0 323f 089a a03e 569f 843d 5ad3 61be
00000290: 6ce6 20c0 6036 003e 0065 dd3e eae5 cd3f
000002a0: 9ab5 a23f 6bf8 c8bf 97a7 cabe 9948 ad3f
000002b0: 4c7c 903f 17c5 aebb 54aa cfbf cf8d 593f
000002c0: 4393 03c0 a9da 16bf bf85 6dbb 0cb9 2f3d
000002d0: 4d74 e6bd 5bee e23e c225 8cc0 56dd f43f
000002e0: 4444 173f 81ce f23f cc57 e93f b4af 22bb
000002f0: 3d71 f63e d6c8 4b3c 2533 6d3f 5d35 1a3f
00000300: 037e f63c 0e1d 8b3f 3bf1 8fbf a8f7 863b
00000310: 96db d2bd fd33 6e3f 798e 093d dd4a 113d
00000320: 9907 5dbc 826e 3ebf 2eae 7d3d 6b9c e33e
00000330: 6210 403c 6809 203f 2b51 273d ff47 5c40
00000340: a8bf 173f e4d0 283f 60ba 1a3f fc50 923f
00000350: 7db9 1ec0 2c20 14c0 a928 413f 01eb dc3c
00000360: c291 ac3e 35a3 643f 2447 793f ed5a a6bf
00000370: 143f a83f 9597 ce3f 68a3 693c 7e60 c5bf
00000380: 5fc0 f23e e209 893c 20d0 083d 1242 ef3d
00000390: ff4e 0540 2968 813f ee8e 25c0 e8f6 963f
000003a0: 52e1 a93f 1dec 50bb b53d 28bf bb83 113f
000003b0: d8c2 1cc0 ad8f e73e edd5 833e 13a0 03bf
000003c0: 27d5 c93f e813 f73f 4362 17bd daf0 2cbf
000003d0: 6dd7 3bbf 56ab 8ebf b7f6 573e 4ec4 183d
000003e0: a342 1ac0 42fb 943f df96 383d e4fa 57bc
000003f0: 3003 c8bf 1b92 22c0 f4c5 60bd e726 c7bc

fc3.bias f4 [2]
0.43038124 0.38337076
00000000: ee5a dc3e 2c49 c43e

fc1.weight f4 [128, 31]
-0.09744403 -0.07499303 -0.028388903 -0.0904782 0.019525586 -0.042784978 -0.22190244 0.07219425
-0.035783954 0.1116533 -0.23253433 -0.15383 0.1632797 0.10081693 0.092160545 0.09864942
-0.057880968 -0.09832543 -0.010416854 -0.20608722 -0.004541064 0.053777296 -0.07690999 0.063764855
-0.020565042 0.0804837 0.08272738 0.06762819 0.02256878 0.016819915 -0.07448603 -0.14976372
-0.19231257 -0.09681598 -0.19755411 -0.004819947 -0.037671633 -0.10582221 0.0829983 0.004004256
0.0060370266 0.0693355 -0.1805018 0.0484596 0.082927845 0.054641914 -0.050066534 0.100421235
0.14658788 0.0075170225 0.07715208 -0.1196645 0.081181325 0.10604859 -0.06376234 0.044753894
-0.025640802 0.005287435 -0.053520557 -0.010245991 0.1548277 -0.16673048 -0.20814541 0.9725915
0.13656363 -0.06667421 -1.1063367 -1.9040111 1.412577 1.0852418 -1.7149092 2.598116
-0.7446964 0.23446038 0.3682886 -0.63130724 0.27043223 0.239948 0.45758757 -0.29858392
0.67215955 -0.14051862 0.39924306 -0.48647696 0.6835038 0.038077146 0.46412364 -0.2741097
-0.12860875 -0.035041478 -0.74436873 0.3412833 0.2881115 0.027509028 0.012484413 0.03191869
-0.103477165 -0.156168 -0.08965982 0.033842247 -0.23786388 0.18076797 0.5025916 0.14927961
-0.24545917 -0.48146006 0.16092886 0.008957084 0.0854645 0.14313267 0.012194101 -0.22663431
0.012078806 3.0632575 0.25743613 -5.704383 0.20170923 2.161905 0.8587816 -0.93275
0.0765649 1.2474638 -0.3742928 -0.26287574 -0.2516285 -0.17965725 0.065591246 0.02755698
-0.11913344 -0.1480866 -0.098374516 -0.019444391 -0.15975867 0.27231508 0.08783523 -0.16657732
-0.18249199 -0.07966719 0.056215324 0.09738597 0.19983536 0.1931063 0.10929224 -0.13260841
0.20878375 -0.028522065 0.15225793 -0.006691923 -0.03623672 0.18216951 -0.13557184 0.041848317
-0.06589977 -0.0509776 -0.02616849 -0.6889586 -0.3388287 0.1290133 -0.64611894 1.7999973
1.4636186 -0.66050214 -0.6122957 -1.33394 1.8969954 1.6762947 -0.33824039 -0.077719
0.046532962 -0.1641547 0.020946497 0.25180066 0.66123146 0.0009147868 -0.56752986 0.21715175
1.6200715 1.371981 -0.36404032 0.27353927 1.1448169 0.08539641 -0.34518898 0.24005382
0.6200237 0.3416215 0.020877268 -0.46306017 0.124043286 0.13845794 -1.5480652 -0.63827753
0.5802964 0.45466924 -0.67496 1.4925059 0.16149162 0.15527736 -0.14538865 0.9017523
0.8592398 0.4060529 0.008886993 0.67334545 0.5678201 0.3583122 -0.20083196 0.7043246
-0.4145699 0.29303503 0.29946122 0.4361276 0.02974792 0.46837807 -0.11253885 0.78501576
0.79213387 -0.20386943 0.06424333 0.1713545 -0.10085323 2.1164129 -2.429456 -0.22826535
-0.31228554 -0.11442286 -1.9155247 2.0253484 -0.121325366 0.9180232 -0.8210149 0.010580851
-0.16195746 0.028543683 -0.79553056 1.5580592 0.19969872 0.052801244 -0.43889034 -0.020681903
-0.02027998 -0.25480887 1.0405449 0.017048793 0.1118409 0.39848587 0.19325007 -0.24397293
0.23318115 -1.7896231 -0.03495194 0.401761 -3.5829687 0.5640469 0.68553907 0.46749228
00000000: bc90 c7bd f295 99bd d88f e8bc a24c b9bd
00000010: 1ff4 9f3c 4d3f 2fbd 653a 63be 94da 933d
00000020: 3292 12bd 7caa e43d 7b1d 6ebe 9d85 1dbe
00000030: cb32 273e 1b79 ce3d abbe bc3d b508 ca3d
00000040: 9814 6dbd d85e c9bd 74ab 2abc 8708 53be
00000050: 35cd 94bb 9545 5c3d fc82 9dbd 2697 823d
00000060: 0578 a8bc a3d4 a43d f96c a93d a680 8a3d
00000070: 2ae2 b83c ebc9 893c 228c 98bd a95b 19be
00000080: 96ed 44be 7547 c6bd a04b 4abe a5f0 9dbb
00000090: 924d 1abd 51b9 d8bd 03fb a93d 2236 833b
000000a0: 40d2 c53b c5ff 8d3d 77d5 38be 937d 463d
000000b0: 13d6 a93d 33d0 5f3d 9112 4dbd a6a9 cd3d
000000c0: 221b 163e 5b51 f63b e901 9e3d a912 f5bd
000000d0: 6542 a63d 0130 d93d d495 82bd dc4f 373d
000000e0: a90c d2bc 3842 ad3b 5f38 5bbd cdde 27bc
000000f0: 278b 1e3e 65bb 2abe 1224 55be c2fb 783f
00000100: 56d7 0b3e 7d8c 88bd 719c 8dbf a3b6 f3bf
00000110: 53cf b43f 34e9 8a3f 2582 dbbf 8847 2640
00000120: 6ca4 3ebf 6216 703e 5390 bc3e 5a9d 21bf
00000130: 1876 8a3e eeb4 753e eb48 ea3e fedf 98be
00000140: a612 2c3f 1de4 0fbe 9669 cc3e 8213 f9be
00000150: 1bfa 2e3f c8f6 1b3d 9da1 ed3e 1b58 8cbe
00000160: 03b2 03be a787 0fbd f38e 3ebf afbc ae3e
00000170: 5a83 933e 9d5a e13c 6c8b 4c3c 2cbd 023d
00000180: d6eb d3bd 81ea 1fbe 919f b7bd 2b9e 0a3d
00000190: 9792 73be 3d1b 393e d8a9 003f c1dc 183e
000001a0: a659 7bbe ef81 f6be 89ca 243e bcc0 123c
000001b0: 0308 af3d 5f91 123e c4c9 473c d312 68be
000001c0: 2fe6 453c 690c 4440 abce 833e 4e8a b6c0
000001d0: dd8c 4e3e a75c 0a40 1cd9 5b3f b4c8 6ebf
000001e0: 0fce 9c3d e5ac 9f3f 4ea3 bfbe a697 86be
000001f0: 73d5 80be 12f8 37be b454 863d 2dbf e13c
00000200: 3cfc f3bd 03a4 17be 9478 c9bd d849 9fbc
00000210: c797 23be e26c 8b3e f5e2 b33d 3f93 2abe
00000220: 2edf 3abe 8d28 a3bd 0a42 663d 4c72 c73d
00000230: a4a1 4c3e a8bd 453e 9cd4 df3d 80ca 07be
00000240: 68cb 553e 1ba7 e9bc 81e9 1b3e eb47 dbbb
00000250: f46c 14bd a58a 3a3e 58d3 0abe 2469 2b3d
00000260: 75f6 86bd e3cd 50bd 4d5f d6bc 975f 30bf
00000270: f57a adbe 101c 043e 0d68 25bf 5066 e63f
00000280: db57 bb3f ab16 29bf 69bf 1cbf 8cbe aabf
00000290: bfd0 f23f d390 d63f d82d adbe 242b 9fbd
000002a0: 5999 3e3d 2b18 28be fd97 ab3c 04ec 803e
000002b0: 7746 293f 4ece 6f3a a349 11bf 075d 5e3e
000002c0: 815e cf3f 139d af3f 7e63 babe 570d 8c3e
000002d0: 5c89 923f 50e4 ae3d 9cbc b0be abd0 753e
000002e0: e0b9 1e3f 03e9 ae3e ce06 ab3c 3916 edbe
000002f0: 680a fe3d ebc7 0d3e 0027 c6bf 2866 23bf
00000300: 4e8e 143f 68ca e83e 2eca 2cbf 6f0a bf3f
00000310: 0f5e 253e 0701 1f3e c3e0 14be 3dd9 663f
00000320: 24f7 5b3f 2ae6 cf3e c09a 113c 5e60 2c3f
00000330: a85c 113f b274 b73e e5a6 4dbe 9e4e 343f
00000340: 8242 d4be b008 963e fb52 993e 1e4c df3e
00000350: e9b1 f33c 40cf ef3e c57a e6bd cbf6 483f
00000360: 49c9 4a3f 26c3 50be 0292 833d 8e77 2f3e
00000370: 238c cebd 4f73 0740 357c 1bc0 64be 69be
00000380: e4e3 9fbe 8856 eabd ea2f f5bf 4f9f 0140
00000390: 6f79 f8bd 9203 6b3f 082e 52bf 4e5b 2d3c
000003a0: 2dd8 25be 71d4 e93c e4a7 4bbf 7c6e c73f
000003b0: d27d 4c3e 1e46 583d 3cb6 e0be 186d a9bc
000003c0: 3322 a6bc 4f76 82be 9330 853f e9a9 8b3c
000003d0: d70c e53d 5706 cc3e 59e3 453e 0ad4 79be
000003e0: 0ac7 6e3e 5f12 e5bf c429 0fbd 9eb3 cd3e
000003f0: 5c4f 65c0 6165 103f 7d7f 2f3f 265b ef3e

fc1.bias f4 [128]
-0.15474424 0.057263263 -0.16325627 -0.100048974 -0.07810595 -0.4354214 -0.16575602 -0.36474857
0.016800275 -0.25992078 0.020482365 -0.2937929 -0.24207392 -0.16622907 -0.21974203 -0.19541985
-0.20796753 0.064052165 -0.016631596 -0.14162375 -0.4170918 -0.14710894 -0.19856226 -0.30270767
-0.1695514 -0.07520741 -0.11657957 -0.05894148 -0.30562612 -0.09394097 -0.19558081 -0.05885678
-0.20064314 -0.036667492 -0.43528035 -0.6621913 -0.12754369 -0.17642719 -0.36514264 -0.70122993
-0.10925661 0.17424814 -0.17898898 -0.28337324 0.07418463 -0.1882381 0.073998354 0.12278034
-0.36948684 -0.19543467 -0.08564608 0.3731183 -0.09949956 -0.29004487 -0.4966934 -0.10232359
-0.16701105 -0.18276528 -0.15929034 -0.10901574 -0.17192216 -0.14761108 -0.1848776 -0.3121374
-0.043793444 -0.19189194 -0.13746282 -0.119196504 0.043771725 -0.11109198 -0.24355203 -0.27798545
-0.16146748 0.085406445 0.033853207 0.33955413 -0.1840747 -0.15019518 -0.28135276 -0.15113685
-0.16432416 -0.02475143 -0.10387938 0.13786966 -0.09566471 -0.23207757 0.26911834 -0.5600563
-0.19832957 -0.5222343 -0.6430261 -0.28249878 -0.026120739 -0.14570525 0.08072136 -0.13154143
-0.015179006 -0.20254995 0.0011008168 0.10269416 -0.09197291 -0.124631874 -0.21320795 -0.25688013
0.06861417 -0.00792113 -0.24529989 -0.17985749 -0.19592203 0.03695142 0.004445744 -0.058332305
0.0903759 -0.30081856 -0.2719212 -0.057806373 -0.048410058 -0.25040865 -0.1977043 -0.1664066
-0.031682473 -0.108706206 -0.03747298 -0.07454461 -0.24327901 -0.29577085 0.037309162 -0.66219115
00000000: 4675 1ebe e28c 6a3d a72c 27be 7ae6 ccbd
00000010: 03f6 9fbd 8eef debe f2bb 29be 53c0 babe
00000020: bba0 893c 5614 85be a2ca a73c 066c 96be
00000030: 3ae2 77be f437 2abe 0e04 61be 241c 48be
00000040: 71f5 54be c82d 833d fc3e 88bc d105 11be
00000050: 0e8d d5be baa3 16be e853 4bbe 80fc 9abe
00000060: e29e 2dbe 5806 9abd 45c1 eebd 9f6c 71bd
00000070: 077b 9cbe 2064 c0bd 5646 48be cf13 71bd
00000080: 6575 4dbe a730 16bd 11dd debe 5e85 29bf
00000090: d09a 02be 54a9 34be faf3 babe ce83 33bf
000000a0: eec1 dfbd 1b6e 323e e348 37be 4c16 91be
000000b0: 1cee 973d 7dc1 40be 738c 973d 4274 fb3d
000000c0: 612d bdbe 0720 48be 3667 afbd 5d09 bf3e
000000d0: 6dc6 cbbd c380 94be 994e febe 088f d1bd
000000e0: f204 2bbe d226 3bbe 021d 23be a543 dfbd
000000f0: 5d0c 30be 5c27 17be 8e50 3dbe 79d0 9fbe
00000100: c160 33bd 527f 44be 0ec3 0cbe 4c1d f4bd
00000110: fb49 333d 3184 e3bd b465 79be 1c54 8ebe
00000120: bb57 25be 93e9 ae3d a9a9 0a3d 0ada ad3e
00000130: 147e 3cbe c4cc 19be 780d 90be 9ec3 1abe
00000140: 9844 28be 83c3 cabc b6be d4bd b42d 0d3e
00000150: dceb c3bd bea5 6dbe e1c9 893e da5f 0fbf
00000160: e816 4bbe 26b1 05bf 5c9d 24bf aea3 90be
00000170: 29fb d5bc c233 15be 3e51 a53d ccb2 06be
00000180: 5eb1 78bc 4169 4fbe 4849 903a 5151 d23d
00000190: 4b5c bcbd ff3e ffbd 2f53 5abe cb85 83be
000001a0: 9685 8c3d a1c7 01bc e52f 7bbe 902c 38be
000001b0: c99f 48be 5f5a 173d 9bad 913b dbed 6ebd
000001c0: 0017 b93d e404 9abe 4139 8bbe 60c6 6cbd
000001d0: a049 46bd 9035 80be ff72 4abe 7e66 2abe
000001e0: 7bc5 01bd 5ca1 debd 447d 19bd d8aa 98bd
000001f0: 221e 79be 476f 97be 7ed1 183d 5c85 29bf

fc2.weight f4 [128, 128]
0.062464762 0.056764316 -1.173682 -0.5904298 -0.02332072 0.19288382 -0.28754398 -0.2511451
-0.7531147 0.698171 -2.1886017 -0.25312263 -2.98454 0.63537747 -1.0140512 -0.2345297
-0.0033977935 0.32151136 -0.08751321 -0.30091855 0.9843987 0.054255735 0.58477503 0.3250336
0.09106973 -0.06303113 0.48690817 0.78746724 0.21518332 -0.03477001 -0.18481833 -1.0634416
0.38925308 -0.5212087 -0.60485446 0.03370193 0.20897931 0.027414586 0.010638176 0.22748907
-0.42706993 0.14876011 0.22955765 0.22964413 0.333331 1.0571965 0.24380665 1.3787078
0.7962454 -3.0742955 0.12495953 0.19453721 0.003854759 1.7627038 -0.43461126 0.17756948
0.14754517 0.33810154 0.11054544 0.47727734 -0.045209017 0.45102996 0.19266474 -1.8418827
0.24604072 0.01069471 -0.24842402 -1.0063198 0.03726652 -0.104094036 0.20141059 -1.2669296
-0.19299708 -1.0233647 0.14661781 -0.07877471 -1.0065187 1.3693771 -0.6869263 -0.0010258863
0.15568511 0.042301886 0.100916 0.23965773 -0.56201667 0.03968463 0.18255755 1.2957156
-0.058343038 -0.029075945 -1.0317426 -0.10598186 0.26630124 -0.06487548 -0.05301458 -0.61372125
-0.35201037 0.4534111 0.039364252 -0.2912374 0.003320083 -0.56648874 0.04222808 -0.34018418
-0.018805092 -2.0839143 0.006751941 -0.03727159 0.17652036 -2.0120678 -0.17415124 -0.061665986
-0.44621935 -1.8462899 0.07607629 0.02066496 0.070400216 -0.25379306 0.5494673 -1.0431645
1.1603235 0.43466657 0.065583095 -0.14960223 -0.47677913 0.272165 -1.7769824 -0.3109326
0.0683942 -0.074273005 -0.96091306 0.7566227 -0.10076539 -0.13042767 0.6910781 1.0984919
-0.055999316 -0.5546787 -0.8827877 -0.10299092 -1.9006339 0.48827595 -0.26552665 0.8162767
0.07503079 -0.12921874 -0.043704167 0.27211356 -0.8855416 -0.01950594 1.1925981 -0.1191064
0.08475498 0.028618839 -0.2789884 -1.4489666 -0.5973467 -0.008233605 0.28222877 -1.7906785
0.21649121 -0.35072646 -0.8434245 0.62324566 0.23995772 0.005385538 0.88281846 -1.3651836
-0.16383684 0.34611586 -0.15654086 -0.27415124 0.41482276 0.24999775 -0.06591265 -0.48686504
0.07178227 -1.4437126 0.4897926 0.71443975 -0.00062352174 0.14344338 -0.44332686 0.077987395
-0.27878964 -0.42892984 -0.36836553 -1.8274022 0.027179256 0.040560693 -1.9739554 -1.6033082
0.39640594 -0.3554738 -0.71054596 -0.37439245 0.16963197 0.047707874 0.53563845 -1.0144198
-0.07575336 -1.3194753 0.37045527 -0.04058749 0.9540931 0.64295566 -0.46411008 0.0071031176
-1.0163249 0.98687893 -0.20983864 0.28915185 0.13071212 0.0019140057 -0.025272017 -1.1495445
-0.05869403 -0.1247051 -0.96463794 0.061235968 0.34592775 0.040392153 0.08090073 0.14570284
0.21416424 0.6902014 -0.03648103 0.63100815 0.013614841 1.4763132 0.060670838 -0.30279383
0.043573245 -1.0707328 0.5216989 0.032147754 -0.30538446 1.008674 -1.2350599 0.0466076
0.5642678 -1.5068847 -0.04418446 0.04828886 0.05479864 -0.56753147 0.39179188 0.85606235
0.06580997 -0.015398951 0.657668 -0.22981422 -2.4663599 -1.1875796 0.6576365 -0.5444656
00000000: 0ddb 7f3d b381 683d 363b 96bf 6826 17bf
00000010: 180b bfbc 5683 453e f738 93be 1796 80be
00000020: 20cc 40bf 56bb 323f 0d12 0cc0 4a99 81be
00000030: b402 3fc0 19a8 223f 6ecc 81bf 8e28 70be
00000040: 84ad 5ebb 239d a43e 203a b3bd ff11 9abe
00000050: 8e01 7c3f 433b 5e3d d1b3 153f ce6a a63e
00000060: c482 ba3d 7716 81bd 074c f93e 7497 493f
00000070: 0459 5c3e ff6a 0ebd 0441 3dbe db1e 88bf
00000080: 2e4c c73e ef6d 05bf bed7 1abf 090b 0a3d
00000090: acfe 553e 8e94 e03c bf4b 2e3c e5f2 683e
000000a0: e9a8 dabe 9254 183e 2911 6b3e d527 6b3e
000000b0: 5caa aa3e 3752 873f 73a8 793e 7f79 b03f
000000c0: bdd6 4b3f 42c1 44c0 c8ea ff3d c334 473e
000000d0: 20a0 7c3b 47a0 e13f 5e85 debe c6d4 353e
000000e0: 1516 173e a51b ad3e a665 e23d b25d f43e
000000f0: 172d 39bd 66ed e63e e849 453e d0c2 ebbf
00000100: 19f2 7b3e dd38 2f3c de62 7ebe 16cf 80bf
00000110: c7a4 183d 412f d5bd 943e 4e3e c02a a2bf
00000120: 07a1 45be 9dfd 82bf fb22 163e a354 a1bd
00000130: 9bd5 80bf c047 af3f 67da 2fbf 0877 86ba
00000140: eb6b 1f3e be44 2d3d 0cad ce3d d668 753e
00000150: 53e0 0fbf 5a8c 223d 5ef0 3a3e 02da a53f
00000160: 1cf9 6ebd ad30 eebc 2410 84bf 040d d9bd
00000170: a358 883e 70dd 84bd d125 59bd d61c 1dbf
00000180: b43a b4be 8025 e83e 693c 213d 121d 95be
00000190: c095 593b 6805 11bf 5af7 2c3d 9f2c aebe
000001a0: 230d 9abc da5e 05c0 633f dd3b 18aa 18bd
000001b0: c1c1 343e b8c5 00c0 b454 32be 7995 7cbd
000001c0: dd76 e4be 3a53 ecbf e3cd 9b3d 9049 a93c
000001d0: fd2d 903d 2af1 81be e4a9 0c3f 6a86 85bf
000001e0: 7b85 943f 9e8c de3e 6e50 863d 5431 19be
000001f0: 651c f4be 3659 8b3e 2974 e3bf 8f32 9fbe
00000200: 4212 8c3d 721c 98bd 66fe 75bf 06b2 413f
00000210: 165e cebd d58e 05be 7fea 303f 629b 8c3f
00000220: 8a5f 65bd 6cff 0dbf 60fe 61bf e7ec d2bd
00000230: f947 f3bf 4eff f93e 1cf3 87be 83f7 503f
00000240: bea9 993d eb51 04be 2403 33bd 7852 8b3e
00000250: dbb2 62bf ecca 9fbc 0ea7 983f 0eee f3bd
00000260: 0594 ad3d 0e72 ea3c 91d7 8ebe bd77 b9bf
00000270: b7eb 18bf 3ee6 06bc 4a80 903e f434 e5bf
00000280: dfaf 5d3e 6b92 b3be abea 57bf 078d 1f3f
00000290: 7ab7 753e 2b79 b03b 6400 623f 56be aebf
000002a0: d8c4 27be 1936 b13e 3f4c 20be 8d5d 8cbe
000002b0: a663 d43e 69ff 7f3e 36fd 86bd 6046 f9be
000002c0: 9502 933d 93cb b8bf 18c6 fa3e 86e5 363f
000002d0: d673 23ba d2e2 123e bdfb e2be dbb7 9f3d
000002e0: 84bd 8ebe b19c dbbe 689a bcbe 51e8 e9bf
000002f0: 08a7 de3c f822 263d 92aa fcbf 3439 cdbf
00000300: b8f5 ca3e a900 b6be 57e6 35bf 5eb0 bfbe
00000310: 01b4 2d3e 5569 433d 9a1f 093f 82d8 81bf
00000320: 9424 9bbd 91e4 a8bf 50ac bd3e 113f 26bd
00000330: 723f 743f be98 243f d69f edbe 45c1 e83b
00000340: ef16 82bf 19a4 7c3f f1df 56be b60b 943e
00000350: 66d9 053e 60df fa3a 4307 cfbc 4624 93bf
00000360: 2769 70bd 6365 ffbd 83f2 76bf 91d2 7a3d
00000370: 711d b13e 3e72 253d 48af a53d 2033 153e
00000380: df4d 5b3e 0ab1 303f 226d 15bd c089 213f
00000390: c810 5f3c d5f7 bc3f fc81 783d cb07 9bbe
000003a0: dc79 323d c60d 89bf 0f8e 053f 5dad 033d
000003b0: 5a5b 9cbe 3b1c 813f 7116 9ebf 9ce7 3e3d
000003c0: db73 103f 99e1 c0bf c4fa 34bd 8aca 453d
000003d0: 8a74 603d be49 11bf f298 c83e e726 5b3f
000003e0: 61c7 863d e24b 7cbc ee5c 283f 6b54 6bbe
000003f0: d7d8 1dc0 9c02 98bf de5a 283f 1962 0bbf

fc2.bias f4 [128]
-0.09309974 -0.23112282 -0.031503912 0.3740348 -0.2561357 -0.17875834 -0.009569458 -0.12961736
0.07865939 -0.06990125 -0.16284151 -0.27393255 0.64827365 1.5928118 0.004274319 -0.16719873
0.30439427 1.1937042 0.05224764 -0.103459194 1.1299967 -0.12034973 -0.74010223 -0.06776595
0.546092 -0.07501953 0.79051095 0.6244011 -0.12218076 -0.066230826 0.49695817 1.2437632
0.63994914 0.7492605 0.025129419 -0.5173027 -0.08789055 -0.0781638 0.97890204 0.0172833
-0.28023586 0.6997902 0.023949131 0.29289296 0.06520244 -0.061307944 1.1865501 0.57256407
1.2492962 -0.2625983 -0.045507014 -0.06917083 0.13217032 -0.19974689 0.36641225 0.08033366
0.45054495 0.06587611 0.08715805 -0.07870004 -0.046922166 -0.25967833 0.40390128 1.2189581
-0.14022334 0.16261983 -0.1972703 -0.08250326 -0.17244084 0.12183468 -0.14845695 -0.041673828
-0.11811729 -0.66347504 -0.088922575 0.29202926 -0.1487436 -0.17537415 -0.089959286 0.18707323
0.32253915 -0.67844355 0.93585163 0.43331227 -0.0125872195 -0.065993525 0.6519935 0.12891282
0.115480125 0.11727829 0.059572138 0.6428236 -0.35201246 0.19975515 -0.15338145 1.1520977
0.728612 -0.01822298 -0.10985827 -0.04835733 0.031276017 0.49270287 0.68946487 0.17212006
0.74758 -0.11796619 0.49460495 0.76492906 0.39024284 -0.13885401 0.25895888 -0.6270575
-0.18324743 0.06837857 0.022288227 0.6641333 -0.52234775 0.049021512 0.5276475 -0.1422048
0.64163065 -0.08401977 -0.010237174 -0.058258895 1.0243807 -0.45197785 -0.14962773 -0.10893082
00000000: 14ab bebd 76ab 6cbe 3f0a 01bd 7d81 bf3e
00000010: 3824 83be 6d0c 37be 37c9 1cbc 6aba 04be
00000020: 2d18 a13d 6328 8fbd edbf 26be e340 8cbe
00000030: 43f5 253f 42e1 cb3f 960f 8c3b 2536 2bbe
00000040: 91d9 9b3e 4dcb 983f 9f01 563d 6ae2 d3bd
00000050: bba3 903f eb79 f6bd 5777 3dbf e0c8 8abd
00000060: afcc 0b3f d7a3 99bd ed5e 4a3f c0d8 1f3f
00000070: e839 fabd 07a4 87bd 4d71 fe3e a233 9f3f
00000080: b5d3 233f 89cf 3f3f 36dc cd3c f36d 04bf
00000090: f6ff b3bd 5814 a0bd 5399 7a3f b595 8d3c
000000a0: 137b 8fbe 7325 333f f830 c43c 11f6 953e
000000b0: db88 853d 0a1e 7bbd e0e0 973f 8f93 123f
000000c0: f0e8 9f3f 4973 86be 9065 3abd 70a9 8dbd
000000d0: a857 073e 738a 4cbe 639a bb3e f985 a43d
000000e0: d4ad e63e 0eea 863d eb7f b23d 7d2d a1bd
000000f0: 7531 40bd 8ff4 84be 26cc ce3e d206 9c3f
00000100: b596 0fbe d085 263e 3a01 4abe 78f7 a8bd
00000110: 5594 30be 7684 f93d 1905 18be 2db2 2abd
00000120: 7ae7 f1bd 80d9 29bf 0a1d b6bd dc84 953e
00000130: 3e50 18be 4895 33be 933c b8bd 2090 3f3e
00000140: da23 a53e 7aae 2dbf f993 6f3f 1bdb dd3e
00000150: a03a 4ebc 9d27 87bd 0ce9 263f b901 043e
00000160: d880 ec3d 9a2f f03d ea01 743d 1690 243f
00000170: fa3a b4be 9d8c 4c3e 0710 1dbe f077 933f
00000180: 5186 3a3f 5c48 95bc 5ffd e0bd 5612 46bd
00000190: 481b 003d 8d43 fc3e c580 303f 3e40 303e
000001a0: 6761 3f3f 4298 f1bd dc3c fd3e 64d2 433f
000001b0: e9cd c73e bf2f 0ebe 4296 843e d786 20bf
000001c0: 37a5 3bbe 100a 8c3d cd95 b63c a404 2a3f
000001d0: 95b8 05bf c8ca 483d e813 073f 239e 11be
000001e0: e841 243f 8f12 acbd d2b9 27bc e1a0 6ebd
000001f0: e81e 833f a469 e7be 0338 19be 1f17 dfbd

fc3.weight f4 [2, 128]
0.6232359 0.7073999 -0.023420135 -1.1381413 2.5451338 -0.42978057 -0.07444638 0.066000134
-0.6106705 -0.021421758 -2.0949984 1.026773 0.28235197 -2.3020043 1.0479476 -0.08306991
0.97122574 -3.2835472 0.42249477 0.036587942 -0.7340924 -0.0036013692 0.68675 0.9993314
-4.1218257 0.012425479 -1.3173723 -1.7711345 -0.36006698 -0.005742585 0.6459361 -1.4440137
0.7116254 0.39168787 -0.018556157 1.0575038 2.5648737 0.008197172 0.49634114 -0.5825381
1.4324278 -3.1121695 -1.0475918 0.7957984 1.5213203 -0.0018078928 -1.1014559 0.59468937
-1.7173954 -0.69777745 0.023561807 -0.045962367 -1.2694535 1.3810792 -2.0082684 2.3445642
0.5054703 1.4394473 -3.9330194 -0.0019088639 -0.4199456 0.027109392 0.096877314 0.5569043
-0.030674454 1.1035337 -1.4288652 -0.018149756 0.03040983 1.0247121 -0.015885761 -0.00394297
-0.028551042 -0.5718792 0.056649562 0.57047045 0.044598367 -0.64064205 -0.015738415 -1.3974465
0.45555493 0.43018484 0.5209156 1.3491366 2.0027661 1.89611 0.8870977 -3.453455
0.65003514 1.0596262 1.0531809 -6.1867266 1.2544618 2.2574873 -0.016477615 -2.8721192
0.4811668 0.011401624 0.029922435 -0.015174212 1.2446997 0.8375672 -2.8283658 0.79669315
0.9250631 0.026775615 -1.1019735 0.43869537 -3.333115 -0.4918211 0.6368913 0.24459833
1.4957342 1.87455 -0.007989653 -0.8067497 -0.73401546 3.3399124 0.30521986 -0.023119107
-0.50996727 1.5260564 -0.0044823554 -0.025730764 -2.901328 1.4910268 0.011397316 0.009956477
0.91638595 0.5079464 -0.027410945 -1.5067667 2.0023184 -1.2161679 0.038204815 0.009108333
-0.49927324 0.10403496 -1.6248089 0.09254795 0.60613066 -1.5596914 1.0469679 0.014619579
0.7996858 -3.8310647 1.3602437 0.04675463 -1.3645316 0.040229864 1.4021926 -2.1933842
-1.7893484 0.0022878293 -0.39539298 -1.1283296 -1.0662713 0.0012165759 0.21414155 -1.1068804
0.70950645 0.3097553 0.064757034 -0.2205328 -2.5357387 0.12520742 0.41969404 1.6202171
1.2145536 -1.5700811 -0.3596683 1.3555791 1.0871686 -0.0053335535 -1.6435267 0.82761294
-2.0741107 -0.5577417 -0.003624305 0.042901084 -0.08620838 0.44322476 -4.3216543 1.9509213
0.5664462 1.9319326 1.7875152 -0.0024823966 0.4435478 0.01243802 0.8886544 0.5886788
0.030089384 1.0380536 -1.18247 0.0041188784 -0.10295789 0.96221346 0.03358314 0.035471786
-0.013490581 -0.75817627 0.06193369 0.4459233 0.011722656 0.5260543 0.040848892 3.4728858
0.5560686 0.6594374 0.6059813 1.1207458 -2.4800713 -2.4024866 0.7541288 0.026967527
0.33916324 0.8942047 0.9352499 -1.2500721 1.3500828 1.505111 0.0142601505 -1.5667505
0.47353923 0.016728345 0.03340161 0.11682524 2.0829465 1.0013622 -2.6001265 1.0429065
1.344512 -0.0031879016 -0.5955867 0.563434 -2.5186276 0.4746175 0.18023814 -0.5478125
1.5838972 1.9961299 -0.036958944 -0.66115 -0.69212073 -1.2686888 0.19675663 0.037296586
-2.4141018 1.2800602 0.045065757 -0.013182376 -1.6696647 -2.7754712 -0.054876283 -0.024310542
00000000: 638c 1f3f 2918 353f 95db bfbc 9dae 91bf
00000010: 79e3 2240 330c dcbe 5877 98bd 142b 873d
00000020: e754 1cbf af7c afbc 7414 06c0 4c6d 833f
00000030: 7090 903e 0a54 13c0 2623 863f 8f20 aabd
00000040: 40a2 783f a325 52c0 3c51 d83e 3ddd 153d
00000050: 7bed 3bbf f304 6cbb d9ce 2f3f 2fd4 7f3f
00000060: ffe5 83c0 3c94 4b3c a89f a8bf 89b4 e2bf
00000070: b35a b8be 4b2c bcbb 115c 253f 71d5 b8bf
00000080: 152d 363f 508b c83e 1503 98bc 495c 873f
00000090: e426 2440 6e4d 063c 6d20 fe3e 3821 15bf
000000a0: cb59 b73f c92d 47c0 7d17 86bf 72b9 4b3f
000000b0: a0ba c23f d1f6 ecba 82fc 8cbf 903d 183f
000000c0: 9dd3 dbbf 8ba1 32bf b104 c13c 0943 3cbd
000000d0: 747d a2bf 34c7 b03f 7887 00c0 570d 1640
000000e0: 8066 013f cf3f b83f 97b6 7bc0 d832 faba
000000f0: 1c03 d7be 8414 de3c 9d67 c63d 4891 0e3f
00000100: fe48 fbbc 9840 8d3f 0ee5 b6bf ccae 94bc
00000110: 091e f93c c429 833f db22 82bc 0834 81bb
00000120: e0e3 e9bc ad66 12bf 5f09 683d 5a0a 123f
00000130: c7ac 363d 1e01 24bf d9ed 80bc 87df b2bf
00000140: 7f3e e93e 3041 dc3e ba5a 053f 82b0 ac3f
00000150: 522d 0040 bcb3 f23f d618 633f 6805 5dc0
00000160: b468 263f d5a1 873f a2ce 863f aaf9 c5c0
00000170: 3492 a03f ac7a 1040 10fc 86bc cdd0 37c0
00000180: 7f5b f63e e1cd 3a3c e51f f53c 429d 78bc
00000190: 5252 9f3f ce6a 563f f203 35c0 15f4 4b3f
000001a0: efd0 6c3f 8958 db3c 780d 8dbf ae9c e03e
000001b0: c251 55c0 facf fbbe 4f0b 233f fc77 7a3e
000001c0: 3874 bf3f 41f1 ef3f 09e7 02bc 2687 4ebf
000001d0: 70e8 3bbf 20c1 5540 c745 9c3e 4864 bdbc
000001e0: 378d 02bf d155 c33f b9e0 92bb 53c9 d2bc
000001f0: 5caf 39c0 f7d9 be3f cfbb 3a3c 7e20 233c
00000200: 4598 6a3f c608 023f eb8c e0bc bbdd c0bf
00000210: fc25 0040 64ab 9bbf a77c 1c3d 1e3b 153c
00000220: bea0 ffbe 4810 d53d bdf9 cfbf c889 bd3d
00000230: 612b 1b3f f8a3 c7bf 0b03 863f f586 6f3c
00000240: 35b8 4c3f 2a30 75c0 771c ae3f c881 3f3d
00000250: f9a8 aebf 12c8 243d 0c7b b33f 6860 0cc0
00000260: 5e09 e5bf 68ef 153b f370 cabe 1b6d 90bf
00000270: 947b 88bf 8375 9f3a ec47 5b3e 42ae 8dbf
00000280: 37a2 353f 3f98 9e3e 569f 843d 5ad3 61be
00000290: 8b49 22c0 6036 003e 23e2 d63e 4663 cf3f
000002a0: 7e76 9b3f 6bf8 c8bf 7226 b8be 9e83 ad3f
000002b0: 5728 8b3f 17c5 aebb 155f d2bf 71de 533f
000002c0: 3bbe 04c0 29c8 0ebf bf85 6dbb 0cb9 2f3d
000002d0: 058e b0bd 5bee e23e fe4a 8ac0 cab7 f93f
000002e0: 9e02 113f 9149 f73f 4ccd e43f b4af 22bb
000002f0: b218 e33e d6c8 4b3c db7e 633f a7b3 163f
00000300: 037e f63c f1de 843f 2d5b 97bf a8f7 863b
00000310: 96db d2bd 9f53 763f 798e 093d dd4a 113d
00000320: 9907 5dbc d717 42bf 2eae 7d3d 0f50 e43e
00000330: 6210 403c 7fab 063f 2b51 273d c343 5e40
00000340: 835a 0e3f e4d0 283f 9721 1b3f 9974 8f3f
00000350: 7db9 1ec0 57c2 19c0 960e 413f 01eb dc3c
00000360: cea6 ad3e 99ea 643f 8a6c 6f3f 5d02 a0bf
00000370: 83cf ac3f 7aa7 c03f 68a3 693c 488b c8bf
00000380: bc73 f23e e209 893c 20d0 083d 1242 ef3d
00000390: ff4e 0540 a32c 803f 7968 26c0 f67d 853f
000003a0: f818 ac3f 1dec 50bb 5f78 18bf 363d 103f
000003b0: 3231 21c0 1101 f33e 5990 383e 713d 0cbf
000003c0: 25bd ca3f 2f81 ff3f 4362 17bd 2041 29bf
000003d0: d32e 31bf 6564 a2bf 927a 493e 4ec4 183d
000003e0: a580 1ac0 03d9 a33f df96 383d e4fa 57bc
000003f0: 93b7 d5bf 52a1 31c0 f4c5 60bd e726 c7bc

fc3.bias f4 [2]
0.3880601 0.41245756
00000000: d0af c63e a32d d33e
