checkpoint_v1_obstacle/dqn_episode_100.pth (torch, 343593 bytes, 24 tensors)

fc1.weight f4 [128, 31]
00000000: bc90 c7bd f295 99bd d88f e8bc a24c b9bd
00000010: 1ff4 9f3c 4d3f 2fbd 653a 63be 94da 933d
00000020: 3292 12bd 7caa e43d 7b1d 6ebe 9d85 1dbe
00000030: cb32 273e 1b79 ce3d abbe bc3d b508 ca3d
00000040: 9814 6dbd d85e c9bd 74ab 2abc 8708 53be
00000050: 35cd 94bb 9545 5c3d fc82 9dbd 2697 823d
00000060: 0578 a8bc a3d4 a43d f96c a93d a680 8a3d
00000070: 2ae2 b83c ebc9 893c 228c 98bd 8132 f4bd
00000080: 36da 2ebe 7547 c6bd 3709 2bbe d36f c33c
00000090: b44a 3fbc 80d0 b4bd 7dad e03d febe 083d
000000a0: 40d2 c53b 89d1 b83d 0e93 19be effd ba3c
000000b0: 622b e73d eed0 933d 405b bfbc a6a9 cd3d
000000c0: 221b 163e 3e7f bcbc cd86 dc3d 372f b7bd
000000d0: 55ca e23d dc49 0b3e e521 08bd 09e0 993d
000000e0: 80de 733b a9d4 103d 305d bcbc ab03 a63c
000000f0: 7b5f 3c3e d0d6 0bbe ff33 85bd 2015 e53d
00000100: 56d7 0b3e 2d66 37bd 9025 82bc 44a2 1ebf
00000110: d931 f63e 6b71 b93e 6ef2 9bbe 9bab a83e
00000120: 8d61 11bf 5b99 953d e1e0 893e ba1f 9abe
00000130: c31e 753c e614 a2bd 2d2d d53e 944e f9be
00000140: 3941 a83e c0ba c1bd 69e3 093e b520 6e3d
00000150: f3cb 5e3e 9e55 8f3d f1b4 6c3e df76 bc3d
00000160: e592 5cbe 381f 79bc 1c3f 64bd c660 2dbe
00000170: 60d7 793e 6db8 e33d e52c b2be 2cbd 023d
00000180: abfc 11bd 408a 3ebe 6eaf 2d3e 6e6f ca3d
00000190: 0355 27be 0048 7fbd 8809 7f3e 95d9 c93e
000001a0: 1505 bebe 491b 82be f6b0 0b3e d4e6 b6bd
000001b0: 8d2e 50bc f6ac 71bb 2e6a bdbd d53c cdbc
000001c0: 8460 c33d 51c8 ee3e 3149 283f 4b93 1bbf
000001d0: 15ef 913e bc6a c13e e0c9 a73c 80c1 d7be
000001e0: d447 083e 6e22 b93d 6a28 e53a 092b 77be
000001f0: 6cbe 62be 58f9 18be b454 863d 8b91 6c3d
00000200: 4f19 bebd 665e 33be 6a45 8cbd 0d32 2f3c
00000210: 71c5 43be cb74 9b3e 43f3 e83d ee97 0bbe
00000220: cd18 1cbe 95a7 a4bd a8da ac3d 8fb6 023e
00000230: bf21 653e a8bd 453e 8c17 093e 1d92 cebd
00000240: 92d8 4f3e f32c 52bc 4d93 283e ec3e cd3c
00000250: 650b 88bd a093 363e fad1 d7bd 2469 2b3d
00000260: d3ca c4bd 103c a6bd ccd8 66bd 7be5 4ebe
00000270: bd15 6cbe 101c 043e 9f07 23be bda7 293f
00000280: 1738 943e 0ec7 31be b168 00be a9c6 05bf
00000290: 0726 743f ef21 383f c2d9 bfbd 65bb f6bd
000002a0: a908 febd bf6d 57be e474 333d 3250 133e
000002b0: 26f5 4e3e 0e86 f93c c91c a5bd 8d9d 583e
000002c0: 526d 1e3e fc66 213e c7a2 fb3d 41d1 223e
000002d0: bf58 30bd e250 acbd 8035 0c3e b690 d13d
000002e0: 6936 b63e bd04 2e3e 910a 083e a6f6 c13d
000002f0: 680a fe3d 9f95 483e e678 68bf b5b7 3abe
00000300: f0c0 a83e 7730 ab3e 8a9a 86be 5e67 c53d
00000310: 076b a2be f4d1 463e 5d99 1f3d 1c5d 163f
00000320: 98bb e33e 52c3 533e 1fd5 3bbf fdd2 d43e
00000330: ae7c 253f e74f c63d d120 bbbc a31b 503e
00000340: a2a3 d4bd 4141 3b3e 0928 4f3d 7b12 9fbd
00000350: 705f 213e 71a5 c63d 4687 bdbb 61e3 523e
00000360: 4b3e 9d3d 449d febc 5ccb 38be 8e77 2f3e
00000370: 429a 763d e780 153f da00 65bf 8ebd cabd
00000380: 8008 46be dea9 6fbe 2ddf 57be 8dc7 053f
00000390: a933 b93d e040 d33e dcf2 e73e d4b1 153e
000003a0: 051f 9c3d 7ece 873c 6d94 2b3f ca97 f03e
000003b0: b40d 2f3e 9aa2 c6bd 0230 bf3d f470 523e
000003c0: 9e49 82bd 83d3 7bbc 948b 8e3e 0b4b ffbd
000003d0: 7002 eb3c ae2a 293e 2a3c 13bd ff0c 8fbd
000003e0: 8471 813d c5c1 bcbe c429 0fbd 41b2 763d
000003f0: e71d 50bf 77e8 293f 869e f93d 7459 febd
-0.09744403 -0.07499303 -0.028388903 -0.0904782 0.019525586 -0.042784978 -0.22190244 0.07219425
-0.035783954 0.1116533 -0.23253433 -0.15383 0.1632797 0.10081693 0.092160545 0.09864942
-0.057880968 -0.09832543 -0.010416854 -0.20608722 -0.004541064 0.053777296 -0.07690999 0.063764855
-0.020565042 0.0804837 0.08272738 0.06762819 0.02256878 0.016819915 -0.07448603 -0.11923695
-0.17075428 -0.09681598 -0.16702734 0.023857033 -0.011675525 -0.08828831 0.1097059 0.03338527
0.0060370266 0.09024341 -0.14997503 0.022826163 0.112875715 0.072175846 -0.023358941 0.100421235
0.14658788 -0.023009893 0.10767899 -0.089445524 0.11073748 0.13602394 -0.03323545 0.075134344
0.0037211478 0.03535906 -0.022993654 0.02026542 0.18395798 -0.13656163 -0.06504058 0.1118567
0.13656363 -0.044775177 -0.015887052 -0.6196635 0.48084906 0.36219344 -0.30458397 0.32943425
-0.56789476 0.07304641 0.2692938 -0.3010233 0.014960947 -0.07914142 0.4163603 -0.48692763
0.3286226 -0.09459448 0.13465656 0.05813666 0.21757488 0.06998752 0.23115899 0.0920236
-0.21540411 -0.015205197 -0.05572425 -0.16931447 0.24398565 0.11119161 -0.34799877 0.03191869
-0.035641354 -0.18607426 0.16961452 0.09884535 -0.16341023 -0.062324524 0.2490598 0.39423814
-0.37113252 -0.25411442 0.13641724 -0.08930746 -0.012706411 -0.0036876774 -0.09248768 -0.025053421
0.09539893 0.46637204 0.6573668 -0.60771626 0.28502718 0.37776744 0.020482004 -0.42139816
0.1330865 0.0903977 0.0017483358 -0.2413751 -0.22142953 -0.14938867 0.065591246 0.057755988
-0.09282171 -0.17516479 -0.06849177 0.010693085 -0.19118287 0.30362543 0.113745235 -0.13632175
-0.15243836 -0.08039776 0.08440143 0.12764953 0.22376154 0.1931063 0.13387889 -0.10086463
0.20297459 -0.0128281 0.16462441 0.025054418 -0.06642798 0.17829752 -0.10538097 0.041848317
-0.09608998 -0.08116925 -0.056359097 -0.20204727 -0.23055167 0.1290133 -0.15920876 0.66271573
0.28949043 -0.1736109 -0.12539937 -0.52256256 0.95370525 0.7192678 -0.09367706 -0.120474614
-0.124039955 -0.21037959 0.043812647 0.14386061 0.20210704 0.03045943 -0.08062131 0.21153851
0.1547139 0.15761942 0.12286907 0.15900137 -0.043053385 -0.08413865 0.13692284 0.102326795
0.35588387 0.16993995 0.13285281 0.094708726 0.124043286 0.19588326 -0.90809476 -0.18234141
0.329597 0.33435413 -0.2628978 0.09638856 -0.3172228 0.19416028 0.038964618 0.58735824
0.4447906 0.20679978 -0.7337207 0.4156722 0.6464337 0.09683209 -0.022842797 0.20323043
-0.10382773 0.18286611 0.05057529 -0.07767197 0.15759063 0.09699524 -0.005783948 0.2059455
0.07677897 -0.03108085 -0.18046325 0.1713545 0.060205705 0.58399814 -0.89454424 -0.09899436
-0.1933918 -0.23404643 -0.21081229 0.52257615 0.090430565 0.41260433 0.45302474 0.14618617
0.07623104 0.016577955 0.67023355 0.46990806 0.17095071 -0.096989825 0.09335329 0.205509
-0.063616976 -0.015370253 0.27840865 -0.12465485 0.028687686 0.16520187 -0.03594605 -0.06984901
0.063204795 -0.36866584 -0.03495194 0.06022859 -0.8129563 0.6637034 0.12188439 -0.124194056

fc1.bias f4 [128]
00000000: 4675 1ebe 55cb b33d 115f 8cbc f01b 86bc
00000010: 153a 44bd 41e3 523d 2145 5cbd 2292 44be
00000020: 21db 1cbe bb0b 36bd 78f2 223a d49d aa3c
00000030: 1c70 4fbe dff4 c6bd c431 84bd f39a 813d
00000040: 71f5 54be 8229 603d 4791 853d ea05 2cbd
00000050: 1fb3 a23d cb90 08be cdba 833c 4dfa 2cbe
00000060: e29e 2dbe cdcd 67bd aeaf b0bd 861c 1f3e
00000070: 4eb1 69bd 2064 c0bd 3614 fabd 7aea 14bd
00000080: 2c87 343d 5062 25bd 4f5c 933d cfc4 94be
00000090: 9442 e4bd 54a9 34be 2a5e 0cbe 6e94 dabd
000000a0: 6c8f cabd d47b 773e 3831 99bd 67f3 333d
000000b0: 7484 ab3c 45a1 c0bd 41d6 d7bc 3376 eb3d
000000c0: fc31 02be e929 02be fb11 393d 6aaa de3d
000000d0: bb1e 36bd 7134 9d3c 7e96 38be c551 c9bd
000000e0: b76c dbbc 3f14 ecbd ac97 85bd 3145 133e
000000f0: 5d0c 30be fa02 19bc 2ecb 753d 1a83 04be
00000100: 907f ec3d be07 8f3d fcc6 4bbe b131 613d
00000110: 17ee 2e3e 16be b8bd d484 0abe 4802 b7bd
00000120: dc30 75bd 0bac 263d ef48 c23d 9fa1 083e
00000130: 4305 ffbd 007a 543d 93cd b83d 0b05 0dbe
00000140: 0f2a 0cbe 883d 1b3e ca87 97bd f610 3f3e
00000150: 268e 0b39 0762 4ebe 29a2 383e bd9f 74be
00000160: b287 34be 8dc1 22be 8b7f 29be b92a 5cbd
00000170: 33ed a03d c233 15be 3e51 a53d ce55 e0bd
00000180: 3fc4 693d 6410 c4bc 8ab7 143c 1aec 0f3e
00000190: 4b5c bcbd a586 9e3d b503 a6bd 6b95 0abd
000001a0: 0b90 043e 48bb ea3c 9d10 9ebd 902c 38be
000001b0: 469d e23d 3dca f23d d883 68bd 40c6 edbc
000001c0: c6a3 0f3e 8c1b 5fbe dafc 75be 03d0 263e
000001d0: 442a 1abd 66a7 2dbe 1cda bbbd f1c8 0dbe
000001e0: 9a2a 9abd a320 70bd ef63 123e 3f99 d83d
000001f0: e89e 94bd 8f1f 9bbc 5f9c 8ebd 505d a6bd
-0.15474424 0.08779017 -0.017135175 -0.016370744 -0.047906954 0.051486257 -0.053776864 -0.1919637
-0.15317966 -0.04444478 0.000621594 0.020827211 -0.2025761 -0.09714674 -0.064548045 0.06328382
-0.20796753 0.054727085 0.0652185 -0.041997828 0.07944321 -0.13336484 0.016080284 -0.16892357
-0.1695514 -0.05659275 -0.08627258 0.15538225 -0.057053857 -0.09394097 -0.12210886 -0.036356427
0.044074222 -0.04037696 0.07195341 -0.29056403 -0.11145511 -0.17642719 -0.13707796 -0.10672842
-0.09890637 0.2416833 -0.07480091 0.0439333 0.020937182 -0.0940576 -0.026347281 0.11497154
-0.1271438 -0.127113 0.045183163 0.10872348 -0.0444629 0.019190045 -0.18026158 -0.098300494
-0.026785238 -0.11527299 -0.0652307 0.14381863 -0.17192216 -0.009339089 0.06000822 -0.12940636
0.11547768 0.069838986 -0.19900125 0.05497903 0.17083012 -0.09020631 -0.13527232 -0.08935982
-0.05986105 0.040691417 0.09486567 0.13342904 -0.124521755 0.05187416 0.09023585 -0.13771455
-0.13687919 0.15160191 -0.073989466 0.18658814 0.00013309027 -0.20154582 0.18030609 -0.2388906
-0.17629889 -0.15894146 -0.1655256 -0.05375168 0.07857742 -0.14570525 0.08072136 -0.10953866
0.05707192 -0.023933597 0.009076962 0.1405491 -0.09197291 0.07740525 -0.08106176 -0.033833902
0.12945573 0.028653756 -0.077180125 -0.17985749 0.11065154 0.1185498 -0.05676636 -0.029025197
0.14027318 -0.21787852 -0.24022236 0.16290288 -0.037637964 -0.16958389 -0.091724604 -0.13846184
-0.07527657 -0.058624875 0.14295934 0.105761044 -0.072568715 -0.018935947 -0.06963419 -0.08123267

fc2.weight f4 [128, 128]
00000000: 0ddb 7f3d b381 683d cc71 a3bd d965 c0ba
00000010: 180b bfbc e1ef aabe 75a8 8e3d ade5 aa3e
00000020: aba7 18bd f7fc 943d b9b3 15bf 63fd 78be
00000030: d451 b2bf 03d8 d63e 240e 67be f0d5 d5be
00000040: 84ad 5ebb 0a1c f23e 2969 e3be 6620 023e
00000050: ad8d a43d 433b 5e3d cd23 293e d43a 063d
00000060: c482 ba3d 7716 81bd eeeb e6bc 9050 ae3d
00000070: 0b73 abbc ff6a 0ebd da56 a8bd 42bb 353d
00000080: d86e 513e dfd2 10be 897d 393e 69e8 14bd
00000090: df30 893e 8e94 e03c 478f c13d e4f7 6cbe
000000a0: 545d bf3d edf2 683e 8017 0e3d 1932 a73e
000000b0: 088f 1f3e 5828 7cbe 035a d0bd 6dda da3d
000000c0: 497d 38bd 5182 94bf 86f2 6d3e bf5a 0bbb
000000d0: 20a0 7c3b 3a9c 8e3e c6c3 353d 7a80 debd
000000e0: 9a43 ea3d f751 5a3e 0270 d9be cd28 153e
000000f0: 172d 39bd fabc ba3e b9be 2a3e 6a7e 0cc0
00000100: 4219 8e3d 031f 8d3d 1a09 b73c a18a 64bd
00000110: 1047 8d3e 412f d5bd e47e cbbd 7f94 83be
00000120: d0db 56be d46a f6be 52ff 9c3e 1b8e 7d3e
00000130: 7143 adbe 839c 9a3d 0b6e 9abe e05a 3e3c
00000140: 6656 c1bd d242 9abe 5b83 6e3e 0452 09be
00000150: 81db 353e 3bcc 7b3d 11c0 4f3d 0491 93be
00000160: bfc3 a3bd 5e83 653e 90bb cc3d 5ae6 733e
00000170: 7f6c 273e 70dd 84bd d125 59bd 88e1 72be
00000180: 611a 7e3e 6898 8b3c 4e71 103d 8c5d 48bc
00000190: c095 593b e4a0 aa3e 724c 073e 6fb8 fc3c
000001a0: ea13 b0bc 5673 92bf d544 303e 18aa 18bd
000001b0: 8179 983d 7443 c6bd 3eb7 dcbe 6bcd b8bd
000001c0: 087a 9e3e 351f 91be e3cd 9b3d 28ce 2abe
000001d0: fd2d 903d cf9d cb3e f7bc a03e 14f3 5ebe
000001e0: 81f8 1a3d 85fe b5bb c92b 9fbd 16af 613e
000001f0: a07a 313b c0b0 3dbd 8ef3 5fbd b6de 073e
00000200: 4212 8c3d 721c 98bd d521 26be d897 1c3e
00000210: 165e cebd 6b71 48bd 91d4 26bd 383e 41bd
00000220: d9c8 0dbd 1556 1dbc fe6e 62bf 5dff 7bbd
00000230: e733 86bf 0d47 803e ae0d 4bbe 4703 263c
00000240: bea9 993d 7613 103e 8f7c 66bf 2d23 b83c
00000250: d7a9 02be ecca 9fbc ea9b 5ebd 83e4 0bbd
00000260: 0594 ad3d 0e72 ea3c 73ec 8bbd f22f dc3d
00000270: cc2b 50bd 3ee6 06bc d08b 90bc c2a0 523e
00000280: b94a 6d3c 5b8d 17be 6beb d7bd fde5 d8bd
00000290: 9cb1 3c3e 2b79 b03b 95b4 17bc 5238 223e
000002a0: 40ee d93c a1a4 463e fa12 713d 5163 bbbd
000002b0: dfe2 3c3e 107b bcbe f22b 79bd 0c35 e7bd
000002c0: 9c83 e4bd 774b 28bf c79e a53d 5d23 3d3e
000002d0: ea65 81bc 9e7c 823d 792b ec3d a9bf 573d
000002e0: 8c75 07be 91ee 01be b867 56be 73b7 abbd
000002f0: 08a7 de3c e980 613d f7a0 bebd 5804 d7bf
00000300: f5f4 2ebe fb13 d2be c7bc 853d 4fe4 03bd
00000310: 7d34 a73e 5569 433d 9d53 28bd f360 bbbd
00000320: 619d fabd 4228 04bf 665d f6b9 8007 8c3e
00000330: 8c0e 41bf 44ea a9bd 7cdf 263e 442f a33c
00000340: 1703 8cbc 72e3 bdbd ff28 8cbd d683 c63c
00000350: 2636 813e f965 923c e32f a83c 9926 06be
00000360: 6ea0 b3bd 1cf3 3f3d dd53 643e b798 e8bb
00000370: d441 bd3d 3e72 253d 48af a53d 9998 c73a
00000380: 655c c43e b848 76be 2afa 61bd 7d05 5f3e
00000390: c810 5f3c 2ad7 41bd d940 523d 8c49 25be
000003a0: 35b8 283d d250 65bf 410e 07be 5dad 033d
000003b0: 9d4e 15bd 2522 4fbe 45c3 20be f6e9 a43c
000003c0: 5287 98bd 7669 40be c4fa 34bd f693 c43d
000003d0: 8a74 603d 6354 b8bc 8f41 0d3e 1452 b03d
000003e0: 1cf0 673d 62cc 8e3d 6bbb 303e d51a 983e
000003f0: bf18 27be 2b11 60be e5b9 583d 43e0 7ebe
0.062464762 0.056764316 -0.079806894 -0.001467879 -0.02332072 -0.33386138 0.069657244 0.33378354
-0.037269276 0.07274812 -0.5847736 -0.2431541 -1.3931222 0.4196168 -0.22563988 -0.41764784
-0.0033977935 0.47287017 -0.44416168 0.12707672 0.08034835 0.054255735 0.16517563 0.032770947
0.09106973 -0.06303113 -0.028188672 0.0851146 -0.02092888 -0.03477001 -0.082196906 0.044368036
0.2045244 -0.14142941 0.18114294 -0.036354456 0.26795098 0.027414586 0.09451156 -0.23141438
0.09343973 0.22748919 0.03469038 0.3265541 0.15581906 -0.24624765 -0.101734184 0.10686193
-0.045041356 -1.160227 0.23237047 -0.0021263806 0.003854759 0.27853566 0.044376157 -0.10864349
0.11438675 0.2132033 -0.42468268 0.14566346 -0.045209017 0.36472303 0.16674317 -2.1952157
0.06938411 0.06890681 0.022343207 -0.05579627 0.2759328 -0.104094036 -0.09936312 -0.2569923
-0.2098229 -0.48128378 0.30663544 0.2476124 -0.33840516 0.075493835 -0.3016208 0.011618346
-0.09440307 -0.30129105 0.23292296 -0.13410193 0.17759515 0.061474066 0.05072028 -0.28821576
-0.0799632 0.22413394 0.09996712 0.23818341 0.16349982 -0.06487548 -0.05301458 -0.23718846
0.2481475 0.017040446 0.035264306 -0.012229335 0.003320083 0.33325875 0.13212755 0.030849664
-0.02149387 -1.1441448 0.17213757 -0.03727159 0.0744505 -0.096808344 -0.43108553 -0.09023555
0.30952477 -0.28344122 0.07607629 -0.16680205 0.070400216 0.39768836 0.3139417 -0.21772414
0.037834648 -0.0055540227 -0.07772023 0.22039446 0.0027081147 -0.04631114 -0.05467563 0.13268551
0.0683942 -0.074273005 -0.16223843 0.15292299 -0.10076539 -0.04893629 -0.040730063 -0.047178477
-0.03461537 -0.009603043 -0.8845061 -0.06152283 -1.0484589 0.25054207 -0.19829437 0.010132617
0.07503079 0.14069924 -0.9003381 0.02247771 -0.12760101 -0.01950594 -0.05434791 -0.034153473
0.08475498 0.028618839 -0.068322085 0.10751332 -0.050823018 -0.008233605 -0.017644793 0.20569137
0.014483147 -0.14800017 -0.10542949 -0.10590742 0.18427128 0.005385538 -0.009259363 0.15841797
0.026602864 0.19398738 0.058855988 -0.091498025 0.1844592 -0.3681264 -0.060832925 -0.11289415
-0.11157915 -0.6574015 0.08086925 0.18470521 -0.015795667 0.06371425 0.11531729 0.052673016
-0.13228434 -0.12688662 -0.20938003 -0.083845995 0.027179256 0.05505458 -0.09308045 -1.6798201
-0.17085631 -0.4103087 0.06530147 -0.032200154 0.32657233 0.047707874 -0.041095365 -0.09149351
-0.12237049 -0.5162393 -0.00046990364 0.27349472 -0.7541282 -0.08296636 0.1629619 0.019919999
-0.017091317 -0.092718974 -0.06843757 0.024232786 0.25236624 0.01787089 0.020530647 -0.13100661
-0.08770834 0.046862707 0.22297616 -0.007098283 0.09241071 0.040392153 0.08090073 0.0015227973
0.3835174 -0.24051178 -0.055170216 0.21779437 0.013614841 -0.047324337 0.051331375 -0.16141337
0.0411913 -0.89576447 -0.13189031 0.032147754 -0.036451925 -0.20227869 -0.1569949 0.020131093
-0.07447685 -0.1879023 -0.04418446 0.09598534 0.05479864 -0.022501176 0.1379454 0.08609405
0.05662547 0.06972577 0.17258994 0.2970797 -0.16318034 -0.21881549 0.052911658 -0.24890237

fc2.bias f4 [128]
00000000: f024 5e3b c608 be3d 3f0a 01bd 5d1b 563e
00000010: 254f eabb a9ec 49be 3723 923c 81cb c8bd
00000020: 595f bbbd 10d1 1cbd ae29 a8bd 2003 26be
00000030: bd9c 283e 78d2 903e 777a 8dbd 5410 e0bd
00000040: 1a9a 0e3d 79b6 b33e 6e84 00bd 6ae2 d3bd
00000050: 8bac bf3e eb79 f6bd f5c2 b1bd 4138 62bd
00000060: 5589 6a3e 9b08 4ebc 7193 5bbe ef24 1a3e
00000070: 7f90 50bb 07a4 87bd 9d87 723d 38f3 923e
00000080: bf4c 06be 6a61 183e 36dc cd3c bb41 d9bd
00000090: 09e2 2ebd 5814 a0bd a290 f13d 3f65 f7bc
000000a0: dd18 233d d2b9 953e da5a 3bbd 313d 163d
000000b0: f4ef 803c cfad 8a3c dc9c 6d3d fea5 d53d
000000c0: fdfc 303e 65ef 9bbd 9065 3abd ac78 38bd
000000d0: 1584 dabd d8c3 e1bd 96e3 533e b049 c0bd
000000e0: 802f f93d 9fec ec3c 388a a63c a479 40bd
000000f0: a627 2fbd 80e8 31be 77e4 a53d d492 773e
00000100: 25ab e1bd 8302 27bd c537 59be 78f7 a8bd
00000110: 2e39 a0bd 999b e5bb 6633 b1bd a673 b13c
00000120: 7405 a8bd be29 02be 5f75 c7bc 37fb 9d3d
00000130: 96a0 efbd ba08 f4bd 933c b8bd 3bc0 d1bc
00000140: c9a2 a23d 51cd b2bd 8b12 8a3d 3763 3cbc
00000150: ed54 5c3e e3f1 8fbc 3587 5fbc 8f4a 803e
00000160: 9408 fc3c 468f d1bd fe2f 273d cec6 213e
00000170: 346c 863d 22d5 23bd fa87 f9bd 97d8 823e
00000180: 05e7 2b3e 2118 ae3a dff7 9fbd abb4 29bb
00000190: ffa4 613c b3e5 d5bd 6bf8 5b3e 802f 433e
000001a0: e217 e23d 21e6 5fbd 7cc4 3e3e de2e 113e
000001b0: 89f9 823e e937 8dbd 279f 96bc eab6 bdb9
000001c0: f692 fc3c 9bcb 5abe d8fa cf3c 3565 593e
000001d0: c140 40be 679b f0bd a76a ac3b b849 e2bd
000001e0: efb5 c73e 12c7 f43d 4915 e23b d899 47ba
000001f0: ef7c c43e ab01 aebd 3390 babd 1f17 dfbd
0.0033896528 0.09279017 -0.031503912 0.20908876 -0.007150548 -0.19719185 0.017839057 -0.0980444
-0.091490455 -0.038285315 -0.08211075 -0.1621213 0.16466041 0.28285575 -0.06908124 -0.10940614
0.03481493 0.35100153 -0.031376295 -0.103459194 0.37436327 -0.12034973 -0.08679763 -0.05522943
0.2290395 -0.012575294 -0.21442963 0.15053152 -0.0031824408 -0.066230826 0.059211362 0.28701186
-0.13115214 0.1488091 0.025129419 -0.1060824 -0.042696033 -0.0781638 0.11795165 -0.030199645
0.039818633 0.29243332 -0.04574094 0.03667945 0.015739419 0.016928582 0.05801092 0.10432051
0.17284007 -0.0761402 -0.045507014 -0.045036957 -0.10669724 -0.11023682 0.20692286 -0.09389055
0.12167263 0.028921423 0.02032958 -0.046991006 -0.04276242 -0.17373848 0.08100217 0.24177104
-0.11018971 -0.04077388 -0.2121268 -0.08250326 -0.07823406 -0.007007074 -0.086523816 0.02166159
-0.08204165 -0.12711236 -0.02434796 0.07713931 -0.11700551 -0.11915727 -0.089959286 -0.025604358
0.07941205 -0.08730567 0.06741818 -0.011498264 0.21516772 -0.017571395 -0.013643076 0.25056884
0.03076581 -0.10232405 0.040817253 0.15798494 0.06563607 -0.03999818 -0.121841386 0.2555587
0.16787346 0.0013282337 -0.078109495 -0.002589504 0.013772248 -0.10444202 0.21481483 0.19061089
0.110397115 -0.054662827 0.1862964 0.14178035 0.25581005 -0.0689543 -0.018386437 -0.0003618517
0.030831795 -0.21366732 0.025388166 0.21230014 -0.18774702 -0.11748391 0.0052617374 -0.11049217
0.39005992 0.11952032 0.00689951 -0.0007614172 0.38376567 -0.08496412 -0.09109535 -0.10893082

fc3.weight f4 [2, 128]
00000000: 99ee 1f3f 6217 ee3e 95db bfbc 2623 44bf
00000010: 0fde a03d c5d0 89be 5877 98bd 142b 873d
00000020: 17e0 983e af7c afbc dc89 adbe ce6a 673d
00000030: e475 be3e 09af 44bf 32d2 f93e f9c5 60bd
00000040: ad46 e63e 6085 6cbf b7d2 b0be 3ddd 153d
00000050: e4d4 85bf f304 6cbb ed42 83bc 0e78 853e
00000060: b5c7 9cbf 3c94 4b3c 1d03 1abe 969e d5be
00000070: 7b04 8f3e 4b2c bcbb 09cb bc3e ba9c ccbe
00000080: c3d5 913e e834 733e 1503 98bc 8e73 37bc
00000090: ee48 103e 6e4d 063c 587b e03e e5bb bfb9
000000a0: 5588 903e c90b 75bf a15d f6be c121 be3d
000000b0: 12c1 f63e 0776 06bc c033 c1be c57b eb3e
000000c0: 570c d1be 0cc3 f7bd b104 c13c 837c 533c
000000d0: 0dbb 14bf 64ab 803e 3435 03bf b08b ae3e
000000e0: a8d8 3b3e e59b 143f 62fd 27bf d832 faba
000000f0: 3233 bdbc 079a 163d 549e b13d b333 fe3e
00000100: 7887 683a af36 063e 6d96 cd3e ccae 94bc
00000110: f8da b1bc a233 833e 4780 a0bc 84be e13c
00000120: 687f a3bc 20fa 18bf 1897 853d b68c ad3e
00000130: c7ac 363d dc93 b3bb d9ed 80bc 3186 93bc
00000140: 3264 fe3e 257d a53c af1b 063f f181 083f
00000150: 9247 30be ef91 f53e c6d6 953d 26bd 99bf
00000160: 622a 0e3f ad37 513e 1cf6 a43e f423 2bbf
00000170: 5dca 223d 587f 953e 10fc 86bc 05a9 88bf
00000180: 60ec 9c3e 3292 02bd e51f f53c 107b 363d
00000190: 2ef7 6e3f c1d5 1c3f f093 8bbf b4b8 9f3e
000001a0: fd1d 343e 8958 db3c 2459 a9be d31e c53e
000001b0: cf59 71bf 1edb 7ebd 775a fc3e 169f b23e
000001c0: 500a 47be f695 003f 97f2 66bd d4a0 c2be
000001d0: 1731 91be 93fa 09bc 1681 a93e ef94 5cbd
000001e0: 0556 85bf 2f16 4e3f 2620 f5bb 2089 39bb
000001f0: c388 93bf 87fa 0ebd 72e9 303d 7e20 233c
00000200: 3c0a 393f 1fe1 d53e eb8c e0bc c20e 8fbf
00000210: 7134 d83e 4767 a1be acc7 273d 89ae b1bc
00000220: 697d c8be ddd5 093e 7e36 e7be 560f 5f3a
00000230: d6d9 ba3e b503 3bbf f6a1 c8be 27dd acbc
00000240: 1a73 793c e5dc 93bf 72ba 8f3e c881 3f3d
00000250: a287 37bf 12c8 243d da95 973d 3c74 a0bd
00000260: 1bda 98be c214 f43a a9e9 52be c9af 8abe
00000270: f184 fcbe 8375 9f3a e0bd d63e 9ee9 1cbf
00000280: 20bd d33e e401 b63e 569f 843d 9d4d 97bb
00000290: ffaa d5bd 6036 003e 906b 2a3e c1f4 01bd
000002a0: c1df b03e a343 19bf fef2 c83d ed94 d03e
000002b0: 191f 133f ec3c 07bd b382 a1be 1266 cd3e
000002c0: 8ccd 12bf 25e7 0ebf bf85 6dbb 0c49 b83d
000002d0: 5c4a a33c d25f 9abe c698 83bf 3d80 883f
000002e0: d245 8d3e edf5 303f 53d5 be3e 2068 09bd
000002f0: 6489 2bbd 5d41 b8bd 7bb9 c43e 1e0a 043f
00000300: 037e f63c 3190 e43e c259 31be a8f7 863b
00000310: b7eb 85bd 2243 a43d 798e 093d e47c 833d
00000320: 5c16 5dbb db3a ebbe 037b 0e3d cac3 043f
00000330: f556 303d 15d2 033d 2b51 273d 303a 1d3e
00000340: 12a8 203f 8b75 1e3a 894d 3d3f b52a 0c3f
00000350: c89c 69bf 192e 37bf 9eee 013e 790c 11be
00000360: d9e0 053f 6cc7 2cbe fa4f 223f 7ecf 12bc
00000370: 0ade b63c e4d7 a9be 1a98 2c3d 877f d23d
00000380: 1ae7 af3e 2329 6b3d bb36 853d cd2c de3d
00000390: fc5c 49be 6bcc 283f d5f9 61bf 2d88 5c3e
000003a0: a36b 7b3e f683 82bd 91aa 2bbf 4648 ba3e
000003b0: aedf 95bf 591f 363c 73ab 2e3f df79 ccbe
000003c0: 8014 563e 6328 c43e 6d54 2cbd fded 8cbe
000003d0: 178c 60bf b36e 8dbb a9df 933e 4ec4 183d
000003e0: 3ccd 97bf a54f 5ebe 2d87 0e3d ed5a 92bc
000003f0: 4f92 52bf 8d08 1abd 28a5 89bd e726 c7bc
0.62473446 0.46502215 -0.023420135 -0.7661613 0.07854854 -0.2691709 -0.07444638 0.066000134
0.29858467 -0.021421758 -0.3389424 0.05649834 0.37199318 -0.7682958 0.4879318 -0.0548763
0.44975796 -0.92391014 -0.34535763 0.036587942 -1.0455594 -0.0036013692 -0.016023124 0.26068157
-1.2248446 0.012425479 -0.1504025 -0.41722554 0.27933106 -0.005742585 0.36873654 -0.39963323
0.284834 0.23750651 -0.018556157 -0.011196984 0.1409032 0.008197172 0.43844104 -0.0003657035
0.28229013 -0.9572111 -0.48118308 0.09283782 0.48194176 -0.008206851 -0.37734795 0.45992866
-0.40829727 -0.12097749 0.023561807 0.012908104 -0.58097917 0.2513076 -0.51253057 0.34090948
0.18344367 0.58050376 -0.65621006 -0.0019088639 -0.0230957 0.036767986 0.08672777 0.49648818
0.0008870284 0.13106798 0.40153828 -0.018149756 -0.021710858 0.2562533 -0.019592417 0.027556665
-0.019958213 -0.5975666 0.065229595 0.33896416 0.044598367 -0.0054802727 -0.015738415 -0.018008323
0.49685818 0.020201275 0.5238599 0.53323275 -0.17214802 0.479629 0.073163554 -1.2010849
0.5553342 0.20431395 0.32219017 -0.66851735 0.03974377 0.29198718 -0.016477615 -1.0676581
0.3064909 -0.031877704 0.029922435 0.044550955 0.93345916 0.6126366 -1.0904522 0.31195605
0.17589565 0.026775615 -0.3307582 0.3850008 -0.9427766 -0.062220685 0.4928777 0.34886998
-0.19437528 0.5022882 -0.056383695 -0.38013327 -0.28357765 -0.008421558 0.33106297 -0.05385297
-1.0416876 0.805026 -0.007480639 -0.0028310493 -1.1526111 -0.03490689 0.04319138 0.009956477
0.7228124 0.41773316 -0.027410945 -1.1176379 0.4222751 -0.31524107 0.040961906 -0.02168967
-0.3915818 0.13460489 -0.45158762 0.000850906 0.3649432 -0.7305253 -0.39186066 -0.021101547
0.015225196 -1.1551787 0.28071934 0.04675463 -0.71691334 0.040229864 0.07401629 -0.0783467
-0.298539 0.0018621909 -0.20596947 -0.27087238 -0.49320176 0.0012165759 0.41941738 -0.6129397
0.41355228 0.35548317 0.064757034 -0.0046174065 -0.104330055 0.12520742 0.16642594 -0.031727556
0.3454571 -0.5986883 0.09811972 0.4073862 0.57469326 -0.033017084 -0.31545028 0.40116936
-0.5734489 -0.5582145 -0.003624305 0.089983076 0.019932918 -0.3015123 -1.0280998 1.0664135
0.2759233 0.6912525 0.37272128 -0.033546567 -0.041879073 -0.08996842 0.3842276 0.5157794
0.030089384 0.4464126 -0.17319396 0.0041188784 -0.065391 0.08020617 0.03358314 0.06420305
-0.003373525 -0.4594334 0.034785282 0.5186125 0.04305168 0.03218277 0.040848892 0.15354228
0.62756455 0.0006044737 0.73946434 0.54752666 -0.91254854 -0.71554714 0.12688681 -0.14164914
0.52296215 -0.16872948 0.63403285 -0.008960603 0.022322673 -0.33172524 0.042137243 0.1027823
0.34356004 0.057412278 0.0650458 0.10848389 -0.19664377 0.6593692 -0.8827184 0.21536322
0.24552779 -0.06372826 -0.6705714 0.36383265 -1.1708887 0.011115872 0.6823036 -0.3993673
0.20906258 0.38312063 -0.042072702 -0.2752532 -0.8771376 -0.004316175 0.28881577 0.037296586
-1.1859508 -0.2171007 0.034796882 -0.017865622 -0.822545 -0.03760581 -0.06720954 -0.024310542

fc3.bias f4 [2]
00000000: e7c0 2f3d 85c2 953c
0.042908575 0.01828123

fc1.weight f4 [128, 31]
00000000: 347a 87bd bf35 3bbd d88f e8bc 356c 72bd
00000010: d89f 4c3d a4d5 d9bc ba3f 4abe f29f d03d
00000020: 7aed f3bb 7caa e43d 6f43 53be c6f4 fabd
00000030: 8924 473e b90b 073e f4b3 ee3d 0a67 033e
00000040: 74e3 b3bd d85e c9bd 0fd1 993c 4dfd 32be
00000050: 947f ad3c e063 ac3d 1091 40bd aead c23d
00000060: 803b 0a3c 3b68 e03d 10ea e43d 2e97 ca3d
00000070: 543b bd3a 270c 3c3d 26be 3dbd 8132 f4bd
00000080: 36da 2ebe 7547 c6bd 3709 2bbe d36f c33c
00000090: b44a 3fbc 80d0 b4bd 7dad e03d febe 083d
000000a0: 40d2 c53b 89d1 b83d 0e93 19be effd ba3c
000000b0: 622b e73d eed0 933d 405b bfbc a6a9 cd3d
000000c0: 221b 163e 3e7f bcbc cd86 dc3d 372f b7bd
000000d0: 55ca e23d dc49 0b3e e521 08bd 09e0 993d
000000e0: 80de 733b a9d4 103d 305d bcbc ab03 a63c
000000f0: 7b5f 3c3e d0d6 0bbe db74 18bd eae9 0b3e
00000100: 56d7 0b3e 69fc d9bc ce69 57bc 94e8 25bf
00000110: 83b6 e63e fe3d b03e 1edd a5be 168f a03e
00000120: cd41 0dbf 90c6 d53d 7f7a 873e 9776 abbe
00000130: 307c 8a3c 81f2 8cbd 17df cb3e d346 ffbe
00000140: db31 9d3e 7897 a1bd 6e2e ee3d f78f 9b3c
00000150: 4901 463e 530d b03d 6a42 583e dcb9 8e3d
00000160: 027b 70be 13de 493a ea57 8dbd 5a77 4cbe
00000170: 9f1b 6f3e 4986 e03d 188a b6be 2cbd 023d
00000180: cf38 1abd 4886 44be 1097 2a3e ecbb ca3d
00000190: 377a 27be c750 72bd 5d44 7f3e 4ce8 c63e
000001a0: 7789 adbe a4a8 72be 6aa7 1e3e a99a a3bd
000001b0: f0a1 06bb f5a4 3cb9 84b0 a8bd c8a2 3fbc
000001c0: 8d09 be3d 8c7e b63e 1a93 293f 3796 08bf
000001d0: 6299 903e 8ed6 a43e 2bd7 9a3d 7b9f c8be
000001e0: 918a 003e 703b 023d 05fc 0ebc 4483 8abe
000001f0: 6cbe 62be 58f9 18be b454 863d 8b91 6c3d
00000200: 4f19 bebd 665e 33be 6a45 8cbd 0d32 2f3c
00000210: 71c5 43be cb74 9b3e 43f3 e83d ee97 0bbe
00000220: cd18 1cbe 95a7 a4bd a8da ac3d 8fb6 023e
00000230: bf21 653e a8bd 453e 8c17 093e 1d92 cebd
00000240: 92d8 4f3e f32c 52bc 4d93 283e ec3e cd3c
00000250: 650b 88bd a093 363e fad1 d7bd 2469 2b3d
00000260: d3ca c4bd 103c a6bd ccd8 66bd a0c5 5cbe
00000270: f355 77be 101c 043e c4e7 30be c799 283f
00000280: ccb2 a43e 2ba7 3fbe db48 0ebe 4a30 e8be
00000290: 1f16 573f d037 373f e74f dbbd d1f8 04be
000002a0: e8ec 00be b778 50be 00cd 483d 6551 143e
000002b0: 995d 563e fab4 243d 1cdd c0bd a4cf 503e
000002c0: 8ef9 083e ac5a f93d 78e2 df3d 8945 0d3e
000002d0: c255 79bd 5274 c7bd c9aa fc3d db65 ba3d
000002e0: c620 ac3e 417a 0b3e 2002 003e f3ab c13d
000002f0: 680a fe3d b62d 3f3e ad20 63bf 8956 1ebe
00000300: 91ad 993e 1667 a33e d07c 65be 0a84 b73d
00000310: 3d44 acbe 62ad 3c3e a409 9b3c 3a89 183f
00000320: ac03 d03e 4225 403e f032 31bf 51a3 cc3e
00000330: f023 203f 4343 a63d df54 94bc 842e 583e
00000340: 37be c2bd 536d 2b3e fc7f 593d bbcc 56bd
00000350: 78ee 273e 1d19 853d 3e6a 8cbc 1cea 4f3e
00000360: 1314 8a3d 359d d8bc fbe0 46be 8e77 2f3e
00000370: 23cd 843d 2642 063f f5a5 50bf 9e3d c1bd
00000380: 8d48 41be e488 4dbe 8fee 47be a511 ed3e
00000390: a8b3 c23d 6c9e ce3e 6cbc e73e e971 1a3e
000003a0: 109f a53d 70ee afbb 08f0 1a3f f46c f43e
000003b0: 4497 283e 4904 c3bd ff81 f03d ea40 593e
000003c0: d082 8fbd e635 6cbc 0368 7b3e edee 08be
000003d0: 078a 823c 49f9 1a3e 1d95 5fbd 8448 b5bd
000003e0: 0b80 8f3d 7b8b b9be c429 0fbd a767 893d
000003f0: 77d7 3bbf c10a 213f 75d6 033e fa4a f0bd
-0.06615105 -0.045705553 -0.028388903 -0.059185226 0.049957126 -0.02659113 -0.19750872 0.10186757
-0.007444081 0.1116533 -0.20631193 -0.12253718 0.19447531 0.13188066 0.11655417 0.12832275
-0.087836176 -0.09832543 0.018776445 -0.17479439 0.021178998 0.08417487 -0.047013342 0.09505783
0.0084370375 0.109573804 0.111774564 0.098921165 0.0014437237 0.045910027 -0.046323918 -0.11923695
-0.17075428 -0.09681598 -0.16702734 0.023857033 -0.011675525 -0.08828831 0.1097059 0.03338527
0.0060370266 0.09024341 -0.14997503 0.022826163 0.112875715 0.072175846 -0.023358941 0.100421235
0.14658788 -0.023009893 0.10767899 -0.089445524 0.11073748 0.13602394 -0.03323545 0.075134344
0.0037211478 0.03535906 -0.022993654 0.02026542 0.18395798 -0.13656163 -0.037220817 0.1366345
0.13656363 -0.026609616 -0.013147784 -0.6480801 0.4506112 0.34422296 -0.32395262 0.31359166
-0.5517853 0.104382634 0.26460645 -0.33488914 0.01690492 -0.068821914 0.39818642 -0.49858722
0.307021 -0.078902185 0.116299495 0.018989546 0.19336428 0.085962914 0.21119085 0.069690436
-0.23484424 0.0007700633 -0.06901534 -0.19967404 0.2335038 0.10963113 -0.35652232 0.03191869
-0.037651833 -0.19191849 0.16659188 0.098991245 -0.16355215 -0.059159067 0.24928422 0.38849103
-0.3389394 -0.23697144 0.15493551 -0.079884835 -0.00205433 -0.00017990528 -0.08236793 -0.011696525
0.092791654 0.35643423 0.66240084 -0.5335421 0.28242022 0.32194942 0.07560571 -0.39184174
0.12552859 0.031794965 -0.008727078 -0.27053273 -0.22142953 -0.14938867 0.065591246 0.057755988
-0.09282171 -0.17516479 -0.06849177 0.010693085 -0.19118287 0.30362543 0.113745235 -0.13632175
-0.15243836 -0.08039776 0.08440143 0.12764953 0.22376154 0.1931063 0.13387889 -0.10086463
0.20297459 -0.0128281 0.16462441 0.025054418 -0.06642798 0.17829752 -0.10538097 0.041848317
-0.09608998 -0.08116925 -0.056359097 -0.21559763 -0.24153881 0.1290133 -0.17275912 0.65859646
0.3216766 -0.18716113 -0.1389498 -0.45349342 0.8401813 0.7156954 -0.107085995 -0.12985541
-0.12590373 -0.20358549 0.04902363 0.14484175 0.20934142 0.040211655 -0.09417173 0.20391709
0.13376448 0.121754974 0.10931867 0.13796057 -0.0608728 -0.09738983 0.12337262 0.09101459
0.33618754 0.13620855 0.1250081 0.09456625 0.124043286 0.18669781 -0.88721734 -0.15462698
0.30015233 0.31914586 -0.22410893 0.08960731 -0.33645812 0.18425515 0.018925495 0.5958439
0.406278 0.18764213 -0.6921835 0.3996835 0.62554836 0.08118298 -0.018106876 0.21111494
-0.09508937 0.16740923 0.05310057 -0.05244134 0.16399562 0.064989306 -0.017140504 0.2030415
0.0674211 -0.02644215 -0.1942176 0.1713545 0.06484439 0.52444685 -0.8150323 -0.09435581
-0.18875332 -0.20071751 -0.19524597 0.46302524 0.09506923 0.4035524 0.45260942 0.15082516
0.080869794 -0.005369 0.6052251 0.47739375 0.16463953 -0.09522302 0.11743545 0.21216169
-0.070073724 -0.014417147 0.24551396 -0.13372393 0.015934957 0.15134157 -0.054585565 -0.08851722
0.07006844 -0.36239228 -0.03495194 0.06709223 -0.7337565 0.62907034 0.12874778 -0.11733051

fc1.bias f4 [128]
00000000: 18d4 fcbd 55cb b33d 8e56 2e3c 71e4 92bc
00000010: 153a 44bd af62 1b3d 0a67 7cbd 2bd2 3fbe
00000020: e7d3 15be aafd 65bd 9fbc 943b 13b2 90bb
00000030: c931 57be 6c00 c2bd 96f2 89bd c8d0 8e3d
00000040: e5ca 1ebe 0081 4b3d 746f 7f3d 7894 08bd
00000050: b993 893d cb90 08be 8014 0f3c 6e5f 1ebe
00000060: e29e 2dbe cdcd 67bd aeaf b0bd a60b 1e3e
00000070: 00de 7bbd 2064 c0bd a719 04be 4688 42bd
00000080: 7649 043d 1975 24bd 6b8a 853d 8eb5 91be
00000090: 38be edbd 54a9 34be dce2 0cbe d704 bebd
000000a0: 47fb d8bd 4e3a 733e b99d 83bd ee2c 6e3d
000000b0: 3135 393d 12d7 9cbd 1e86 aebc a81d 023e
000000c0: a8e1 0dbe 2152 fbbd eac4 c13d 99ca e63d
000000d0: bb1e 36bd b94b 703d c2bf 30be b991 b3bd
000000e0: 1ead f2bc 8681 c6bd b24b 2cbd 48dc 153e
000000f0: 5d0c 30be 9284 aabc b9b5 743d ae45 05be
00000100: 0752 e13d 7ec6 373d fb00 34be bb4f 6f3d
00000110: 0e61 2c3e 16be b8bd 50b1 fcbd 4494 c2bd
00000120: eb93 74bd 7ebf 483d 51c8 da3d c2e8 033e
00000130: 407a 06be 007a 543d 95d8 a03d 0b05 0dbe
00000140: 0f2a 0cbe b5bb 093e 1f93 a4bd e976 353e
00000150: f19a ebba 332c 2ebe 2df5 363e 20fc 73be
00000160: b287 34be 5ee3 27be 7e6a 32be bb25 23bd
00000170: dc67 923d c233 15be fe4c f93d 54f9 d1bd
00000180: f001 473d 63ee c8bc 8ab7 143c 54b4 133e
00000190: 4b5c bcbd 89ea ac3d 13b2 b6bd 5a7c 3abc
000001a0: 60e9 073e 5405 0e3d f1d2 93bd 902c 38be
000001b0: b051 ed3d 5a98 d33d 2945 69bd 40c6 edbc
000001c0: c948 0b3e 15e8 58be dafc 75be f63b 293e
000001d0: 442a 1abd afb4 2dbe 32d0 bcbd e68a 25be
000001e0: 9a2a 9abd a320 70bd c96d 053e b7db e23d
000001f0: a0fa a6bd 423a 0bbd 2111 2bbd 3093 63bd
-0.12345141 0.08779017 0.010640753 -0.017931195 -0.047906954 0.03793591 -0.061621703 -0.18732516
-0.14631616 -0.056150116 0.004539087 -0.0044157594 -0.21015085 -0.09472737 -0.06735723 0.069734156
-0.15507086 0.04968357 0.06236215 -0.033344716 0.06717629 -0.13336484 0.008732915 -0.15466091
-0.1695514 -0.05659275 -0.08627258 0.15434131 -0.061491013 -0.09394097 -0.1290041 -0.04749324
0.03229662 -0.040150736 0.06520542 -0.28458828 -0.11608547 -0.17642719 -0.13758415 -0.09278267
-0.10594802 0.2375271 -0.064265676 0.058148317 0.045216743 -0.07658209 -0.021304186 0.12706625
-0.13855612 -0.12271524 0.094613865 0.11269111 -0.0444629 0.058665965 -0.1726065 -0.08768029
-0.029623564 -0.096926734 -0.042064376 0.14634812 -0.17192216 -0.020815168 0.059743617 -0.13014862
0.110019736 0.04486703 -0.17578499 0.058425646 0.16833898 -0.09020631 -0.12338507 -0.09500936
-0.059711378 0.049010746 0.106827386 0.12881759 -0.13132572 0.05187416 0.0785381 -0.13771455
-0.13687919 0.13450511 -0.080358736 0.17721142 -0.0017975253 -0.17009048 0.17866965 -0.23826647
-0.17629889 -0.16395327 -0.17423436 -0.039830904 0.07148716 -0.14570525 0.12172888 -0.10252634
0.048585832 -0.024527734 0.009076962 0.14424258 -0.09197291 0.084431715 -0.08920684 -0.011382187
0.13272619 0.03467305 -0.07217968 -0.17985749 0.11587846 0.10331793 -0.056950722 -0.029025197
0.13601984 -0.21182282 -0.24022236 0.1652678 -0.037637964 -0.16963457 -0.092193976 -0.16166267
-0.07527657 -0.058624875 0.13030161 0.110770635 -0.08153272 -0.033991106 -0.041764382 -0.05556029

fc2.weight f4 [128, 128]
00000000: 6f79 b93d b381 683d 1558 fabd 4f48 313d
00000010: 180b bfbc 6cb0 83be f843 833d f2e9 933e
00000020: 0d28 203d 86e9 ff3b d930 1ebf 985c 0abe
00000030: 2b71 b0bf 4ed2 cd3e cdf8 88be fcd1 d0be
00000040: dd15 b7bc 8173 eb3e d6fe 0bbf 5bf6 143e
00000050: 78eb a73d 433b 5e3d 90c8 1c3e 8f01 433d
00000060: c482 ba3d 7716 81bd eeeb e6bc c704 ba3d
00000070: 5f85 81bc ff6a 0ebd d6c1 bfbd 4890 803d
00000080: d81b 373e 4f08 29be bc55 1b3e abe6 17bd
00000090: e921 823e 8e94 e03c 6b16 a23c fdeb 50be
000000a0: 5cfe db3d b4d5 5d3e d239 3c3d a137 983e
000000b0: debc 133e 7ce5 5abe 64b7 c2bd 032f 983d
000000c0: eb77 cfbd 9fda 93bf 2286 673e 209b ce3c
000000d0: 20a0 7c3b 0f66 8c3e f439 023d 55a8 e3bd
000000e0: c67e 813d 14d8 413e 224b c0be da92 e23d
000000f0: 172d 39bd 302a be3e 5e7b 243e 842d 07c0
00000100: 191b 933d 39e8 653c 7a66 473d 86eb adbd
00000110: dbbb 863e 412f d5bd fa4f 95bd 3bd7 51be
00000120: 86bc 49be cbe1 c0be 50fd 9b3e 2692 763e
00000130: 104b c1be 839c 9a3d 2e84 88be e05a 3e3c
00000140: 6656 c1bd e3dd 83be 825b 683e 55b1 e6bd
00000150: 7c7c 4c3e 3bcc 7b3d bdea 4e3d 3093 8bbe
00000160: bfc3 a3bd 81da 6f3e b8a8 193e b356 603e
00000170: b518 293e 70dd 84bd bb85 b6bc b987 62be
00000180: f240 6e3e 0961 74bb 4e71 103d 1f43 4e3c
00000190: c095 593b 0d8c a33e 8137 103e 1fee da3c
000001a0: 8a79 b7bc d549 90bf 395c 063e 18aa 18bd
000001b0: 0fa4 513d 68f9 4dbd a138 dabe 6bcd b8bd
000001c0: 46b6 a23e 4fab c8be e3cd 9b3d e825 13be
000001d0: fd2d 903d a110 b33e b231 9f3e 540d 43be
000001e0: 81f8 1a3d 85fe b5bb 3416 69bd 5c11 6a3e
000001f0: 7f10 e2bc f943 8dbd b2df 6dbd 5763 d03d
00000200: 4212 8c3d 721c 98bd 3742 49be f504 083e
00000210: 165e cebd fc53 e2bd d883 ebbc 49ba 40bd
00000220: 21aa 90bc e58a 64bc ae38 39bf 211d 6fbc
00000230: d2b1 85bf bf4a 823e ae33 70be 23e3 243d
00000240: 5f12 653d ea61 fd3d 1e55 6ebf 46ae 603d
00000250: 6872 b7bd ecca 9fbc 4a2f 72bd 4300 6abd
00000260: 0594 ad3d 0e72 ea3c 73ec 8bbd 2265 c33d
00000270: 889c 17bd 3ee6 06bc 7e72 acbc c576 413e
00000280: 788c 363d b43d 12be 15fe 00be fde5 d8bd
00000290: 2e58 203e 2b79 b03b d9c4 30bd 36de 2d3e
000002a0: 6ba9 f23c dc3a 2a3e 7fa5 6c3d 2348 a2bd
000002b0: 144a 333e 4bce 6abe cb4a 94bd 19b7 a3bd
000002c0: d44d f3bc 35b7 27bf d82d a93d f4a8 553e
000002d0: ea65 81bc f11e b43d e89c d03d fc5a 063d
000002e0: 1bdd f9bd e6f4 0dbe e5ef 38be 1e6e 9bbd
000002f0: 08a7 de3c 4e7c 863d 2e8e 9dbd a295 d5bf
00000300: c79d 24be 9020 bcbe c4e2 983c 4280 cfbc
00000310: 86c9 963e 5569 433d f1db 30bd 6901 9fbd
00000320: 7fb0 debd 20dc e6be 0571 a03c d501 7f3e
00000330: 132a 30bf 44ea a9bd e70e 2b3e 442f a33c
00000340: 1703 8cbc f681 0cbe f0ab 88bd c462 ca3c
00000350: 43b5 6a3e f965 923c b1e5 923c 6c7d 75bd
00000360: 6ea0 b3bd 6814 0f3d 58c2 533e e9e4 c2bb
00000370: 9716 b13d 3e72 253d 48af a53d 371a 81bb
00000380: 0b78 c13e 6ed1 6ebe 2afa 61bd 79c6 5c3e
00000390: c810 5f3c 0219 adbc 5a1a 813d e1b7 18be
000003a0: 3ad9 1a3d 891f 66bf 4883 f1bd 5dad 033d
000003b0: dc70 d0bb 89c7 13be d257 1dbe f6e9 a43c
000003c0: f047 cfbc b2ab 63be c4fa 34bd 0691 c63d
000003d0: 8a74 603d 7d7b a03c d9d0 1d3e be90 a23d
000003e0: 1cf0 673d 62cc 8e3d 6a0d 2a3e 13b5 7e3e
000003f0: 1f39 40be 1b7c 0fbe d8a2 403d d99a 56be
0.09056365 0.056764316 -0.122238316 0.04328185 -0.02332072 -0.25720537 0.064094484 0.28889424
0.039100695 0.0078098206 -0.61793286 -0.13511884 -1.3784536 0.40199512 -0.2675232 -0.40785205
-0.022349292 0.4598656 -0.54685724 0.14547102 0.08199209 0.054255735 0.15310884 0.04760891
0.09106973 -0.06303113 -0.028188672 0.090829425 -0.015810667 -0.03477001 -0.09363143 0.062775195
0.17881715 -0.16507076 0.15169424 -0.037085216 0.25416496 0.027414586 0.01978608 -0.20402522
0.107418746 0.21663553 0.04595358 0.2972994 0.14427516 -0.21376604 -0.09507635 0.07430842
-0.101302944 -1.1551093 0.22609761 0.025220454 0.003854759 0.27421615 0.03179355 -0.11116091
0.06323008 0.18930084 -0.37557322 0.11063166 -0.045209017 0.37141562 0.16062686 -2.112153
0.07182903 0.014032417 0.048681714 -0.08492188 0.26315197 -0.104094036 -0.07290645 -0.2049226
-0.19700822 -0.37672266 0.304667 0.24079189 -0.3775258 0.075493835 -0.26663345 0.011618346
-0.09440307 -0.25755224 0.22691157 -0.11264292 0.19969362 0.061474066 0.050516833 -0.27260733
-0.0799632 0.23423196 0.15005767 0.21908073 0.16513331 -0.06487548 -0.022280565 -0.22122087
0.23266962 -0.0037289283 0.035264306 0.012589245 0.003320083 0.31942788 0.14083673 0.026724873
-0.022396822 -1.1272532 0.13121118 -0.03727159 0.05118185 -0.05028668 -0.4262133 -0.09023555
0.3177969 -0.39193198 0.07607629 -0.14369929 0.070400216 0.34973624 0.31092602 -0.19048053
0.037834648 -0.0055540227 -0.05690594 0.22858185 -0.027595757 -0.068977304 -0.05807466 0.101751976
0.0683942 -0.074273005 -0.19654165 0.13283141 -0.10076539 -0.11051175 -0.028749391 -0.047052655
-0.017659249 -0.013949131 -0.7235211 -0.014594347 -1.0444891 0.25447652 -0.23457214 0.040255677
0.055925723 0.12372191 -0.9309863 0.0548537 -0.08957368 -0.01950594 -0.05912713 -0.057129156
0.08475498 0.028618839 -0.068322085 0.09540774 -0.037014514 -0.008233605 -0.021050688 0.18892963
0.044567555 -0.1428135 -0.12596925 -0.10590742 0.15658638 0.005385538 -0.04315648 0.16979298
0.0296218 0.16624016 0.057775017 -0.07923915 0.17508727 -0.22930257 -0.07240828 -0.079939075
-0.029700197 -0.65513927 0.08260697 0.20865232 -0.015795667 0.08794964 0.101861775 0.032801613
-0.12200376 -0.13862953 -0.18060263 -0.075893626 0.027179256 0.06566678 -0.07693134 -1.6686289
-0.16075812 -0.36743593 0.018662818 -0.025329713 0.29450625 0.047707874 -0.043178502 -0.07763941
-0.10873508 -0.45089817 0.019585142 0.24903043 -0.688142 -0.08296636 0.16704904 0.019919999
-0.017091317 -0.13721451 -0.066734195 0.024705298 0.22920708 0.01787089 0.017931791 -0.059934065
-0.08770834 0.03493157 0.20679605 -0.0059476984 0.08646887 0.040392153 0.08090073 -0.0039398926
0.37786898 -0.23322079 -0.055170216 0.21560086 0.013614841 -0.021130089 0.06303854 -0.14913894
0.03780482 -0.8989187 -0.11792618 0.032147754 -0.00636111 -0.14431585 -0.15365532 0.020131093
-0.025302857 -0.22233465 -0.04418446 0.0969563 0.05479864 0.019590134 0.154117 0.07937764
0.05662547 0.06972577 0.1660668 0.24873762 -0.1877179 -0.14012186 0.0470303 -0.20957507

fc2.bias f4 [128]
00000000: a337 223c 42e9 ad3d 3f0a 01bd 7597 393e
00000010: 5710 d1bb b8e8 45be 3723 923c 81cb c8bd
00000020: 91dd b3bd 10d1 1cbd 89cd 72bd 2003 26be
00000030: f8b0 253e fe07 643e 0094 70bd 5410 e0bd
00000040: e045 033d 63dd b33e 56b4 f5bc bd67 93bd
00000050: 2c33 c13e 3bf0 bcbd f5c2 b1bd 151d 68bd
00000060: f937 593e 9b08 4ebc da9c 5bbe 5dc0 0f3e
00000070: e427 f7bb 07a4 87bd c602 583d 5ac1 873e
00000080: c920 0fbe 1ff4 1c3e 36dc cd3c bb41 d9bd
00000090: 54c7 26bd 5814 a0bd e162 de3d 3f65 f7bc
000000a0: 8407 2c3d dc28 903e d381 12bd d9b2 633d
000000b0: b0d7 0d3c cfad 8a3c 9e52 913d e4af b93d
000000c0: f44c 1f3e 661b a2bd 9065 3abd ac78 38bd
000000d0: 2501 a6bd 044e a3bd 90b4 3d3e d78a b8bd
000000e0: 9a53 013e d175 133d ba05 723b a479 40bd
000000f0: a627 2fbd f0dc 31be ccea 913d e21d 783e
00000100: 25ab e1bd c46d 3abd d38e 4dbe 78f7 a8bd
00000110: 2e39 a0bd b0f3 84bc 6633 b1bd a673 b13c
00000120: 7405 a8bd 8510 0bbe 5f75 c7bc 96d5 a43d
00000130: 96a0 efbd ba08 f4bd 933c b8bd 3db5 d53c
00000140: 1aef 893d 51cd b2bd e5ee 453d 86ef 2b3a
00000150: 4a15 513e 4ad7 45bd 6780 ee3a c640 5d3e
00000160: 6ec3 063d 6a3d a8bd 79d3 f13c 6fb3 f83d
00000170: 76e3 913d cd37 14bd fa87 f9bd ffe7 733e
00000180: eb3a 233e 2118 ae3a dff7 9fbd abb4 29bb
00000190: 9d83 8bbc 2d05 10be f399 3a3e b616 293e
000001a0: 830b c53d 21e6 5fbd 88d2 223e add1 023e
000001b0: 86c0 6a3e e937 8dbd 6686 1bbd fb5a 7dbc
000001c0: 8d53 b23c 968a 48be d8fa cf3c 5f0b 643e
000001d0: 2208 41be 679b f0bd 38b8 7d3b b849 e2bd
000001e0: b838 bc3e 3e27 0a3e 4915 e23b d899 47ba
000001f0: b47f bf3e ab01 aebd 3390 babd f8e3 9ebd
0.00990096 0.08491756 -0.031503912 0.18124183 -0.0063801217 -0.19327056 0.017839057 -0.0980444
-0.08782495 -0.038285315 -0.059278045 -0.1621213 0.1618079 0.22268674 -0.058734894 -0.10940614
0.03204906 0.35129842 -0.029993217 -0.07197521 0.37734354 -0.09225508 -0.08679763 -0.05666836
0.21212758 -0.012575294 -0.21446553 0.14038225 -0.007542597 -0.066230826 0.05273702 0.26514703
-0.1397735 0.153275 0.025129419 -0.1060824 -0.040717438 -0.0781638 0.108587034 -0.030199645
0.041999355 0.28156173 -0.03576834 0.055590484 0.008657381 0.016928582 0.07095836 0.090667516
0.15556699 -0.07915382 -0.045507014 -0.045036957 -0.08105687 -0.07973865 0.1852591 -0.090108566
0.12629548 0.03600103 0.0036929683 -0.046991006 -0.04276242 -0.17369437 0.07124862 0.2423015
-0.11018971 -0.045514837 -0.20074014 -0.08250326 -0.07823406 -0.01622948 -0.086523816 0.02166159
-0.08204165 -0.1358052 -0.02434796 0.08048551 -0.11700551 -0.11915727 -0.089959286 0.026087398
0.06735058 -0.08730567 0.04832353 0.0006558824 0.20418277 -0.04830102 0.0018196226 0.2160674
0.03290122 -0.08214839 0.029519783 0.12143599 0.07123463 -0.03618603 -0.121841386 0.23818968
0.15940444 0.0013282337 -0.078109495 -0.002589504 -0.017030532 -0.14064474 0.1822279 0.1651257
0.09621336 -0.054662827 0.15900624 0.12775297 0.22925004 -0.0689543 -0.03796997 -0.015463586
0.021768356 -0.19584116 0.025388166 0.22269963 -0.18850759 -0.11748391 0.003871454 -0.11049217
0.36762023 0.13491532 0.00689951 -0.0007614172 0.37402117 -0.08496412 -0.09109535 -0.07758325

fc3.weight f4 [2, 128]
00000000: d1f2 1c3f 6752 e23e 95db bfbc 260f 30bf
00000010: 9443 693d 5d19 7abe 5877 98bd 142b 873d
00000020: 8d81 983e af7c afbc c316 b2be ce6a 673d
00000030: c2ae b73e 46a9 1dbf acab da3e f9c5 60bd
00000040: 6057 e73e 6638 4dbf ca77 b7be 18c9 7a3d
00000050: 2e79 74bf 8e1d f6bc ed42 83bc 1055 433e
00000060: 50e6 89bf 3c94 4b3c 1908 1ebe ba9d ccbe
00000070: 9263 9f3e 542c bcbb 3bfa b13e 4e59 b7be
00000080: 12e1 8b3e f728 723e 1503 98bc 8e73 37bc
00000090: 4293 053e 6e4d 063c 68bb dc3e e5bb bfb9
000000a0: 94e2 8f3e 5d8c 56bf f77f f3be 80be c83d
000000b0: 7f33 e43e 0776 06bc df60 b2be 30ea e03e
000000c0: b226 c1be 7f59 e8bd b104 c13c 837c 533c
000000d0: 38ac 0fbf 19fb 653e f91d f5be 6659 c03e
000000e0: 67de 3f3e 81da 103f 4645 fdbe d832 faba
000000f0: 3233 bdbc 079a 163d 26f6 fb3d cc79 f63e
00000100: 7887 683a 129e f73d 5fed bc3e ccae 94bc
00000110: f8da b1bc 3245 803e 4780 a0bc 84be e13c
00000120: 687f a3bc 4f6a 16bf 1897 853d 2210 a73e
00000130: c7ac 363d dc93 b3bb d9ed 80bc d6e1 41bc
00000140: 6166 fd3e 257d a53c 23b1 093f 3bae ef3e
00000150: f49e ebbd bdd0 dd3e 19fe ad3d e3ef 85bf
00000160: 670e 0e3f 54f9 1d3e 868a a53e f186 1bbf
00000170: c883 db3c f49b 863e 10fc 86bc 7c26 75bf
00000180: 6713 9f3e 3292 02bd e51f f53c 107b 363d
00000190: 781a 5d3f eeb1 093f bf2c 74bf bfca 893e
000001a0: 9a9d 0f3e 8958 db3c 8ed3 a4be e2b7 bb3e
000001b0: d782 5bbf 1edb 7ebd 5b6d e73e f0b9 ad3e
000001c0: 5c1b 39be 59a2 e23e 97f2 66bd 99cc c2be
000001d0: 0db2 79be 93fa 09bc 6c21 a73e ef94 5cbd
000001e0: 3559 6fbf 8cf9 403f 2620 f5bb 2089 39bb
000001f0: 74e3 84bf 87fa 0ebd 72e9 303d 0b34 9fbc
00000200: 9bfd 293f 31d5 ce3e eb8c e0bc a63f 84bf
00000210: ffef d73e 3061 92be acc7 273d 89ae b1bc
00000220: 7b17 b6be ddd5 093e d748 edbe 560f 5f3a
00000230: bee3 b03e ee37 34bf 3dbd a7be 27dd acbc
00000240: c7b7 3a3c beea 8ebf 622c 823e c881 3f3d
00000250: 7c80 3ebf 309e e43c da95 973d 7abd 8fbd
00000260: f2cd b8be c214 f43a c899 2ebe 12cc 8fbe
00000270: 01bf f7be 8375 9f3a a1fd c63e ec13 0bbf
00000280: 6aa0 ec3e 4f72 af3e 569f 843d 9d4d 97bb
00000290: 92d6 08be 6036 003e 2a40 2d3e c1f4 01bd
000002a0: 4ba1 9b3e 7133 18bf 74db 833d 605b bd3e
000002b0: bf77 0a3f ec3c 07bd c624 b3be 6a57 d53e
000002c0: f11f 17bf ba84 10bf bf85 6dbb 0c49 b83d
000002d0: a1be 5d3d 8379 81be ec0f 6dbf 157c 6d3f
000002e0: 5834 863e 7b7e 223f db8f 9c3e 2068 09bd
000002f0: 6489 2bbd 0b4d b8bd 0e51 b73e b758 013f
00000300: 037e f63c 037c e53e a060 15be a8f7 863b
00000310: b7eb 85bd c28f 0f3d 798e 093d e47c 833d
00000320: 5c16 5dbb 8bcf bfbe 037b 0e3d 26e1 f13e
00000330: f556 303d 15d2 033d 2b51 273d d70d 223e
00000340: 5d79 173f 8b75 1e3a 6753 313f d71a 033f
00000350: 58e6 52bf 4f35 1ebf 781f ce3d 69d4 61be
00000360: a2ee 003f b6e4 20be 2fc0 113f 0788 a8bd
00000370: 6c5c b93c 17f8 9dbe 1a98 2c3d b369 c93d
00000380: 7b70 a83e 2329 6b3d bb36 853d cd2c de3d
00000390: ef63 03be 153b 1a3f 82b0 56bf 99be 3d3e
000003a0: 0fb6 4a3e f683 82bd f09c 34bf 6912 b63e
000003b0: 258e 89bf 591f 363c df48 0c3f 3c2a b7be
000003c0: 220e 413e 3356 c43e 6d54 2cbd e770 8cbe
000003d0: d0a0 5cbf b36e 8dbb 71ce 8f3e 4ec4 183d
000003e0: bb85 8fbf 164f 6fbe 2d87 0e3d ed5a 92bc
000003f0: b170 5abf 8d08 1abd 28a5 89bd e726 c7bc
0.6130801 0.44203493 -0.023420135 -0.68773115 0.056949213 -0.24423738 -0.07444638 0.066000134
0.2978634 -0.021421758 -0.3478299 0.05649834 0.35875517 -0.61586416 0.427091 -0.0548763
0.4518385 -0.8016418 -0.3583358 0.061226934 -0.95497406 -0.03004339 -0.016023124 0.19075418
-1.0773411 0.012425479 -0.15432777 -0.39964086 0.31130654 -0.005742589 0.34761223 -0.35810322
0.27320153 0.2364844 -0.018556157 -0.011196984 0.13044456 0.008197172 0.4311173 -0.0003657035
0.28102553 -0.8380793 -0.47558567 0.0980196 0.44570538 -0.008206851 -0.34839532 0.4392867
-0.37724835 -0.11345195 0.023561807 0.012908104 -0.5612216 0.22459067 -0.4787443 0.37568206
0.18737184 0.5658341 -0.49466914 -0.0019088639 -0.0230957 0.036767986 0.123028085 0.481398
0.0008870284 0.120906964 0.3689985 -0.018149756 -0.021710858 0.25052792 -0.019592417 0.027556665
-0.019958213 -0.58755964 0.065229595 0.32629496 0.044598367 -0.0054802727 -0.015738415 -0.011833629
0.4949217 0.020201275 0.53785914 0.46812615 -0.11504927 0.43323317 0.08495731 -1.0463833
0.55490726 0.15427142 0.32332247 -0.6075278 0.026796237 0.26290858 -0.016477615 -0.9576185
0.3106949 -0.031877704 0.029922435 0.044550955 0.86368513 0.53787124 -0.9538078 0.26912495
0.14024964 0.026775615 -0.32192653 0.3666373 -0.8574652 -0.062220685 0.4520062 0.33930922
-0.18076843 0.44264486 -0.056383695 -0.3804672 -0.24384327 -0.008421558 0.32642686 -0.05385297
-0.93495494 0.7538078 -0.007480639 -0.0028310493 -1.0381913 -0.03490689 0.04319138 -0.019433996
0.66402596 0.40397027 -0.027410945 -1.0331924 0.4217529 -0.28589773 0.040961906 -0.02168967
-0.3556479 0.13460489 -0.46344635 0.000850906 0.34548753 -0.7039784 -0.32761565 -0.021101547
0.011396355 -1.1165388 0.25424486 0.04675463 -0.744148 0.02790746 0.07401629 -0.07018562
-0.36094624 0.0018621909 -0.1705085 -0.2808538 -0.48387912 0.0012165759 0.38865378 -0.54327273
0.46216136 0.34266898 0.064757034 -0.0046174065 -0.13363102 0.12520742 0.16919008 -0.031727556
0.30396494 -0.59453493 0.06438342 0.36983776 0.5408897 -0.033017084 -0.34988993 0.41668254
-0.59033114 -0.56452525 -0.003624305 0.089983076 0.054136876 -0.2528802 -0.9260242 0.9276746
0.2621181 0.63474244 0.30578503 -0.033546567 -0.041879073 -0.0899907 0.35804027 0.50525993
0.030089384 0.44821176 -0.14587641 0.0041188784 -0.065391 0.035049208 0.03358314 0.06420305
-0.003373525 -0.3746303 0.034785282 0.47242087 0.04305168 0.03218277 0.040848892 0.15825592
0.5916956 0.0006044737 0.69267887 0.5121283 -0.82382727 -0.6180009 0.10064596 -0.22053684
0.50364125 -0.15712246 0.56933874 -0.0822907 0.022627078 -0.3085334 0.042137243 0.09834614
0.32898316 0.057412278 0.0650458 0.10848389 -0.1283109 0.602464 -0.8386308 0.18529738
0.19796012 -0.06372826 -0.7055197 0.3556092 -1.0746504 0.011115872 0.5479869 -0.3577441
0.18853047 0.38347015 -0.042072702 -0.27429888 -0.8618288 -0.004316175 0.2808719 0.037296586
-1.1212686 -0.23370013 0.034796882 -0.017865622 -0.85328203 -0.03760581 -0.06720954 -0.024310542

fc3.bias f4 [2]
00000000: bb3a 2b3d c299 9b3b
0.041804057 0.004748554
