checkpoints/dqn_episode_300.pth (torch, 343593 bytes, 24 tensors)

fc1.weight f4 [128, 31]
000000 bc 90 c7 bd f2 95 99 bd d8 8f e8 bc a2 4c b9 bd
       -0.09744403 -0.07499303 -0.028388903 -0.0904782
000010 1f f4 9f 3c 4d 3f 2f bd 65 3a 63 be 94 da 93 3d
       0.019525586 -0.042784978 -0.22190244 0.07219425
000020 32 92 12 bd 7c aa e4 3d 7b 1d 6e be 9d 85 1d be
       -0.035783954 0.1116533 -0.23253433 -0.15383
000030 cb 32 27 3e 1b 79 ce 3d ab be bc 3d b5 08 ca 3d
       0.1632797 0.10081693 0.092160545 0.09864942
000040 98 14 6d bd d8 5e c9 bd 74 ab 2a bc 87 08 53 be
       -0.057880968 -0.09832543 -0.010416854 -0.20608722
000050 35 cd 94 bb 95 45 5c 3d fc 82 9d bd 26 97 82 3d
       -0.004541064 0.053777296 -0.07690999 0.063764855
000060 05 78 a8 bc a3 d4 a4 3d f9 6c a9 3d a6 80 8a 3d
       -0.020565042 0.0804837 0.08272738 0.06762819
000070 2a e2 b8 3c eb c9 89 3c 22 8c 98 bd a9 5b 19 be
       0.02256878 0.016819915 -0.07448603 -0.14976372
000080 96 ed 44 be 75 47 c6 bd a0 4b 4a be a5 f0 9d bb
       -0.19231257 -0.09681598 -0.19755411 -0.004819947
000090 92 4d 1a bd 51 b9 d8 bd 03 fb a9 3d 22 36 83 3b
       -0.037671633 -0.10582221 0.0829983 0.004004256
0000a0 40 d2 c5 3b c5 ff 8d 3d 77 d5 38 be 93 7d 46 3d
       0.0060370266 0.0693355 -0.1805018 0.0484596
0000b0 13 d6 a9 3d 33 d0 5f 3d 91 12 4d bd a6 a9 cd 3d
       0.082927845 0.054641914 -0.050066534 0.100421235
0000c0 22 1b 16 3e 5b 51 f6 3b e9 01 9e 3d a9 12 f5 bd
       0.14658788 0.0075170225 0.07715208 -0.1196645
0000d0 65 42 a6 3d 01 30 d9 3d d4 95 82 bd dc 4f 37 3d
       0.081181325 0.10604859 -0.06376234 0.044753894
0000e0 a9 0c d2 bc 38 42 ad 3b 5f 38 5b bd cd de 27 bc
       -0.025640802 0.005287435 -0.053520557 -0.010245991
0000f0 27 8b 1e 3e 65 bb 2a be ec d1 0c be 58 ae c4 3e
       0.1548277 -0.16673048 -0.13751954 0.38414264
000100 56 d7 0b 3e 10 6f 7e bd 44 14 4a 3e 09 b7 72 bf
       0.13656363 -0.062117636 0.19734293 -0.9481054
000110 dc fc 28 3f 66 9f ee 3e b8 86 9c be ed bd 4a 3f
       0.6601083 0.46605986 -0.30571532 0.79196054
000120 56 b9 3e bf e6 22 e7 3c 7f 1c a9 3e ab 49 e0 be
       -0.7450155 0.028214883 0.33029553 -0.43806204
000130 c7 10 ff 3c d0 4f 9f bd 7d 7a b3 3e d5 6a 0a bf
       0.03113593 -0.07778895 0.3505439 -0.5406926
000140 4e 6a af 3e 83 17 37 be a1 cc 52 3e 1c 6a 56 bd
       0.34260792 -0.17880063 0.20585872 -0.052347288
000150 cf ed 71 3e 3e 2a ec ba 33 7e b4 3e e0 8a c5 3d
       0.23625873 -0.001801796 0.35252532 0.09645629
000160 29 e0 90 be b8 f4 28 bd b6 3e 00 be f4 1a fa 3d
       -0.2829602 -0.041249007 -0.12523922 0.12212172
000170 82 85 88 3e ec 7a 55 3d ba 1f 0c 3d 2c bd 02 3d
       0.26664358 0.05211918 0.034209944 0.03191869
000180 68 d6 05 be c7 64 35 be 52 70 ae 3d d6 37 87 3d
       -0.1307007 -0.17714225 0.08517517 0.06602447
000190 29 8b 59 be 8b 63 a2 bd e3 8b 8b 3e fe f7 7e 3e
       -0.21244492 -0.079291426 0.27255163 0.24899289
0001a0 66 b4 e4 be a1 27 54 be fc b9 1a 3e 24 e2 6f bd
       -0.44668883 -0.20718242 0.1511001 -0.058565274
0001b0 f4 f5 50 3c d6 a3 94 3b ef 28 b8 bc 62 67 4f 3d
       0.012753952 0.0045361323 -0.022480456 0.050635703
0001c0 b3 1f 14 3d 77 a6 cb 3f 84 29 18 40 03 b4 16 c0
       0.036163043 1.5910176 2.377534 -2.354737
0001d0 9f 36 67 3e b5 b3 bb 3f 31 b3 4c 3e 25 1f 28 bf
       0.2257943 1.4664217 0.19990231 -0.6567252
0001e0 56 a7 c2 3d 6f 21 8b 3f fa cc ee be ef 04 6c be
       0.09504573 1.0869578 -0.4664076 -0.23048757
0001f0 73 d5 80 be 12 f8 37 be b4 54 86 3d 2d bf e1 3c
       -0.2516285 -0.17965725 0.065591246 0.02755698
000200 3c fc f3 bd 03 a4 17 be 94 78 c9 bd d8 49 9f bc
       -0.11913344 -0.1480866 -0.098374516 -0.019444391
000210 c7 97 23 be e2 6c 8b 3e f5 e2 b3 3d 3f 93 2a be
       -0.15975867 0.27231508 0.08783523 -0.16657732
000220 2e df 3a be 8d 28 a3 bd 0a 42 66 3d 4c 72 c7 3d
       -0.18249199 -0.07966719 0.056215324 0.09738597
000230 a4 a1 4c 3e a8 bd 45 3e 9c d4 df 3d 80 ca 07 be
       0.19983536 0.1931063 0.10929224 -0.13260841
000240 68 cb 55 3e 1b a7 e9 bc 81 e9 1b 3e eb 47 db bb
       0.20878375 -0.028522065 0.15225793 -0.006691923
000250 f4 6c 14 bd a5 8a 3a 3e 58 d3 0a be 24 69 2b 3d
       -0.03623672 0.18216951 -0.13557184 0.041848317
000260 75 f6 86 bd e3 cd 50 bd 4d 5f d6 bc 0f 54 85 be
       -0.06589977 -0.0509776 -0.02616849 -0.26040694
000270 fd 5a 19 be 10 1c 04 3e 50 ca 5e be 3a dd a8 3f
       -0.14976116 0.1290133 -0.21756864 1.3192513
000280 10 ca a0 3f ff 89 6d be 83 2b 3c be bf f5 1d bf
       1.2561665 -0.23197173 -0.18375973 -0.61703104
000290 e0 0d ff 3f b6 da 9f 3f 37 4c a4 bd a8 ff 53 3d
       1.9926109 1.248862 -0.08022349 0.051757485
0002a0 88 46 7e be 77 40 9c be ff 03 91 bd 36 69 3f 3e
       -0.24831593 -0.30517933 -0.0708084 0.18692479
0002b0 da b4 b6 3e 68 ce 88 3e 2c 51 0e be e2 93 f6 3d
       0.35684854 0.26719975 -0.13898152 0.12039925
0002c0 9b 72 69 3f c4 ec a1 3e 38 1d 84 3d 19 8b 59 3e
       0.911905 0.3162595 0.064508855 0.21244468
0002d0 96 7e 13 3f 0e 60 ba ba c8 1c 9a 3d 3a 75 ac 3e
       0.5761503 -0.00142193 0.07525021 0.33683187
0002e0 96 bd 25 3f 58 8a 9e 3e 82 74 04 3e fe 24 91 be
       0.6474241 0.30964923 0.12935069 -0.28348535
0002f0 68 0a fe 3d cc d9 5f 3e d0 38 f7 bf d2 0c 30 be
       0.124043286 0.21860427 -1.9314213 -0.1719239
000300 fd d1 e0 3e 9c b7 de 3e ef 8f 84 be 3f 3a 03 3f
       0.43910208 0.43499458 -0.25891063 0.5126075
000310 d5 bf b9 be f0 90 8c 3e 2c 44 bb bd d5 05 5c 3f
       -0.3627917 0.2745433 -0.09143862 0.859464
000320 9d 1d 63 3f c0 0b 08 3f ed 5e 4c be 0a 36 11 3f
       0.8871706 0.5314293 -0.19958086 0.5672308
000330 6a 0b 36 3f da fd ee 3e af f3 b2 3e 21 24 37 3f
       0.71111166 0.46678048 0.3495154 0.71539503
000340 e5 99 c1 3e 78 be 98 3e d3 d6 86 3e 09 a1 51 bd
       0.37812725 0.29832816 0.26335773 -0.051178966
000350 14 79 b1 3e 31 7e 42 3e 44 e2 be bd 96 97 b5 3e
       0.34662688 0.1899345 -0.093205005 0.35467213
000360 65 7a 7e 3e f0 ad 76 bd 28 c0 ea be 8e 77 2f 3e
       0.24851377 -0.060224473 -0.4584973 0.1713545
000370 c8 75 fe 3c f5 0b 97 3f 88 84 c5 bf a5 36 03 be
       0.031062022 1.1800524 -1.543107 -0.12813814
000380 0d e0 63 be 7f 1c fb be d8 8c 13 bf 05 2f 8f 3f
       -0.22253437 -0.49045178 -0.57636786 1.1186224
000390 a7 44 8f 3d f0 a1 19 3f e3 0b 12 bd c6 5b 2a 3e
       0.06995516 0.6001272 -0.035655867 0.16636571
0003a0 e0 95 a3 3d e6 66 1a bf cd 43 83 3e 9b 6b 85 3f
       0.07987571 -0.6031326 0.25637665 1.0423464
0003b0 b5 1c 49 3e 0a 66 1f be 6d 07 34 bd d2 18 8d 3e
       0.19639857 -0.15566269 -0.043952394 0.27558
0003c0 51 35 08 bd 99 c0 9a be 78 82 d3 3e 17 7a 05 be
       -0.03325397 -0.30225065 0.41310477 -0.13034855
0003d0 9a 4d b9 3d 25 69 6b 3e ee 33 6c 3e 0f cc a5 bc
       0.090480044 0.22989328 0.23066685 -0.020238904
0003e0 bf df f0 3d 21 9e 32 bf c4 29 0f bd 0d d7 19 3e
       0.11761426 -0.69772536 -0.03495194 0.15023442
0003f0 1f 7f fa bf c4 d7 5b 3f 82 80 b2 3e df f4 84 3d
       -1.9570044 0.8587611 0.3486367 0.06492018

fc1.bias f4 [128]
000000 46 75 1e be e2 8c 6a 3d 27 8d bd bd fc 81 9a bd
       -0.15474424 0.057263263 -0.09255438 -0.07544324
000010 03 f6 9f bd 0c 40 e1 bb 6e 9d 6a bd 67 69 62 be
       -0.07810595 -0.00687409 -0.057279043 -0.2211052
000020 6a 47 ca bd f4 29 c3 bd 16 1c 5d 3d d1 13 83 be
       -0.098769024 -0.09529486 0.053981863 -0.25601056
000030 f2 4e 60 be 1d 39 87 bd 15 2f 01 be b1 4d f3 3c
       -0.21905115 -0.0660269 -0.12615617 0.029700132
000040 71 f5 54 be c9 bd 89 3d c8 71 18 3e 28 5a cc bd
       -0.20796753 0.06725652 0.14887154 -0.099781334
000050 9c a4 63 bd cb 90 08 be 0d a0 c7 bd fd 5d 39 be
       -0.055576906 -0.13336484 -0.09747324 -0.1810226
000060 e2 9e 2d be cd cd 67 bd ae af b0 bd 80 16 83 3d
       -0.1695514 -0.05659275 -0.08627258 0.06400776
000070 bc 95 16 be 20 64 c0 bd f2 da 4a be 08 ca a4 bc
       -0.14705557 -0.09394097 -0.19810084 -0.020115867
000080 e8 8d b9 bc 38 7c 5a bd ee 15 a4 bb 8e b4 91 be
       -0.022650674 -0.05334112 -0.005007497 -0.28458065
000090 cf 0c bd bd 54 a9 34 be b7 ca 3a be 18 a4 43 be
       -0.09230959 -0.17642719 -0.18241392 -0.19105566
0000a0 03 8f 12 be e1 f4 77 3e 89 2c aa bd 1d e7 e3 bd
       -0.14312367 0.24214508 -0.08309276 -0.11128066
0000b0 1e 42 b4 3c 0c 04 0f be 33 9e 92 bd 79 f1 18 3d
       0.022004183 -0.13966388 -0.0715908 0.03733966
0000c0 4c bb e0 bd 7f a1 1e be bd 74 a4 bd 9d 79 6e 3d
       -0.10973224 -0.15491293 -0.080300786 0.05822145
0000d0 bb 1e 36 bd 5a 21 3e bc ca b0 6c be 01 65 d4 bd
       -0.0444629 -0.011604631 -0.23114315 -0.103708275
0000e0 b4 82 bd bd fa 41 39 be 27 d6 9c bd 46 3a d0 3d
       -0.09253445 -0.18091574 -0.07658034 0.10167365
0000f0 5d 0c 30 be 1d d2 c0 bc c0 eb d4 bd 75 64 81 be
       -0.17192216 -0.02353769 -0.10396528 -0.25271955
000100 7d 0d 02 3e 6c f4 06 be 46 af 57 be c1 99 7c bc
       0.12700458 -0.13179177 -0.21062955 -0.015417517
000110 05 38 cb 3d 16 be b8 bd 93 99 28 be 06 d9 3e be
       0.09922794 -0.09020631 -0.16464834 -0.18637475
000120 33 db fd bd f2 e1 22 3c 39 4a a7 3d 10 b3 2a 3e
       -0.123953246 0.009941565 0.08168454 0.1666987
000130 7b 63 36 be 14 39 ac bc f6 81 c4 bd 0b 05 0d be
       -0.17811386 -0.02102331 -0.095951006 -0.13771455
000140 63 9c a6 bd bd 26 d9 3d 78 ff fc bd 41 24 83 3e
       -0.08135297 0.10603092 -0.12353414 0.25613597
000150 f5 64 bd 3c 07 62 4e be 0b 48 de 3d a5 4f 95 be
       0.02311943 -0.20154582 0.10853585 -0.29162326
000160 b2 87 34 be 95 9f 65 be b4 8e 25 be a9 03 75 be
       -0.17629889 -0.22424157 -0.16167718 -0.23927177
000170 18 3e b4 3c c2 33 15 be 3e 51 a5 3d 87 e8 0b be
       0.022002265 -0.14570525 0.08072136 -0.13662921
000180 3a de 10 3d c7 07 bb bd 8a b7 14 3c 44 6c 25 3e
       0.03536818 -0.09132343 0.009076962 0.16154581
000190 4b 5c bc bd ff 6a 5d bc dc e6 11 be 1b eb 0f be
       -0.09197291 -0.013514279 -0.14248222 -0.1405453
0001a0 96 85 8c 3d b5 a6 f7 bc 9c e2 24 be 90 2c 38 be
       0.06861417 -0.03023086 -0.1610207 -0.17985749
0001b0 cd eb 0d bd 74 94 94 3d 26 97 75 bd db ed 6e bd
       -0.034648705 0.07254878 -0.0599586 -0.058332305
0001c0 7d b1 25 3e 94 58 5b be 41 39 8b be ec f7 d0 3d
       0.16180988 -0.21420509 -0.2719212 0.10203537
0001d0 a0 49 46 bd 56 c3 55 be bc d0 10 be 65 08 47 bd
       -0.048410058 -0.20875296 -0.14142126 -0.04859199
0001e0 83 7b cb bd 85 d6 bb 3c 63 f5 32 3d 33 0a de 3d
       -0.09935667 0.02292944 0.04369105 0.10841789
0001f0 9a b1 31 be 15 d0 16 be 4c 91 37 be 97 19 38 be
       -0.17352906 -0.14727814 -0.1792652 -0.17978512

fc2.weight f4 [128, 128]
000000 0d db 7f 3d b3 81 68 3d d3 05 d0 be bc 37 a0 3e
       0.062464762 0.056764316 -0.40629444 0.31292522
000010 18 0b bf bc 86 1f a2 be cd 51 91 be b4 e7 21 be
       -0.02332072 -0.31664675 -0.28382722 -0.15811044
000020 aa 6f 68 be 6f ce 67 3f 1a 57 51 bf 4a 99 81 be
       -0.22698846 0.9054937 -0.8177353 -0.25312263
000030 9a 67 fa bf b6 a8 0f 3f bd 1a 8f bf 52 69 fa bd
       -1.9562867 0.5611681 -1.1180035 -0.122271195
000040 84 ad 5e bb e9 c0 ba 3e 79 49 f1 be a8 9f 72 be
       -0.0033977935 0.36475304 -0.47126368 -0.23693717
000050 4b 51 d4 3c 43 3b 5e 3d 53 13 1f bb eb d3 81 3e
       0.02591767 0.054255735 -0.0024272993 0.25356993
000060 c4 82 ba 3d 77 16 81 bd ee eb e6 bc f2 48 58 3d
       0.09106973 -0.06303113 -0.028188672 0.05280394
000070 d6 f9 f5 bd ff 6a 0e bd 9a 68 44 bd 09 e0 f2 be
       -0.12010543 -0.03477001 -0.04795132 -0.4743655
000080 ec db a1 3e 84 8d 25 bb d6 92 36 3c 41 15 0c bc
       0.316131 -0.0025261352 0.011143407 -0.008549989
000090 25 9a a7 3e 8e 94 e0 3c ea 1d 87 be c9 a4 b3 be
       0.3273479 0.027414586 -0.2639001 -0.3508666
0000a0 ba a3 3b 3e d2 b6 38 3e 58 f0 e4 3e f2 83 6a 3d
       0.18324175 0.1803849 0.44714618 0.05725474
0000b0 e0 bc cb 3e ee 90 1d 3e d9 82 e8 3d 71 c0 88 3e
       0.39792538 0.15387318 0.11353082 0.2670932
0000c0 63 34 11 bd 93 08 00 c0 1b a7 84 3e 0b b0 26 3e
       -0.03545035 -2.0005233 0.2590874 0.16278093
0000d0 20 a0 7c 3b 02 ce 13 3e 5d a3 cf bd 88 e2 06 bd
       0.003854759 0.14434054 -0.10138581 -0.03293088
0000e0 bd bc 0e 3e 76 67 a3 3e db 53 5b be a6 cd 83 3d
       0.13939185 0.31914872 -0.21418707 0.06435709
0000f0 17 2d 39 bd 37 df c4 3e 07 a8 7a 3e a2 7b e9 bf
       -0.045209017 0.3845155 0.2447816 -1.8240855
000100 53 b9 d2 3d 6d 24 1b 3c 1a 09 b7 3c 35 64 45 bc
       0.10289254 0.009469134 0.022343207 -0.012047817
000110 89 55 d4 3d 41 2f d5 bd 2f 66 9d 3d e1 0e 07 bf
       0.10367877 -0.104094036 0.076855056 -0.5275708
000120 07 a1 45 be d9 11 06 bf 3e e6 bf 3e f7 56 66 3e
       -0.19299708 -0.52370983 0.37480348 0.22494112
000130 93 94 68 bf 11 1c ce 3e d5 e7 e9 be e0 5a 3e 3c
       -0.90851706 0.40255788 -0.45684686 0.011618346
000140 25 e7 8c 3e 9f 79 3a be 71 3a ac 3e 14 5d ad bd
       0.275201 -0.18210457 0.33638337 -0.08465019
000150 b4 eb 0e 3d 3b cc 7b 3d 36 70 3a 3e f3 ae 98 3c
       0.034892753 0.061474066 0.18206868 0.01863811
000160 bf c3 a3 bd 98 70 fe 3d 0a 07 4e bd b3 7f 77 bd
       -0.0799632 0.12423819 -0.05029968 -0.060424518
000170 72 9c 88 3e 70 dd 84 bd d1 25 59 bd a1 55 de be
       0.26681858 -0.06487548 -0.05301458 -0.43424705
000180 8f 06 b2 3c df 07 1b bf 4e 71 10 3d f4 4b ff bd
       0.021731643 -0.60558885 0.035264306 -0.12465659
000190 c0 95 59 3b f8 fd 62 3e e3 cc 5a 3e e7 b5 87 be
       0.003320083 0.22167194 0.2136722 -0.26505968
0001a0 23 0d 9a bc f9 4c bd bf 11 a8 f7 3b 18 aa 18 bd
       -0.018805092 -1.4789115 0.007557877 -0.03727159
0001b0 2e d6 cc 3e 0a 67 a3 bd e1 1a 50 be 79 95 7c bd
       0.40007156 -0.079786375 -0.20322753 -0.061665986
0001c0 de ac 36 3f e5 38 99 bf e3 cd 9b 3d 3a 2e 3e be
       0.71357524 -1.1970488 0.07607629 -0.18572322
0001d0 fd 2d 90 3d 80 fc 7b 3d 34 99 0c 3f 0b 3c 03 bf
       0.070400216 0.0615201 0.5492127 -0.51263493
0001e0 6b 73 ec bc e3 68 eb bd 1e 50 a6 be 3b 52 32 3e
       -0.02886363 -0.11494615 -0.32483 0.17414181
0001f0 56 85 1b bf d4 eb d4 3e 31 4d 75 be 6a 3d e5 bd
       -0.6075033 0.41586173 -0.23955227 -0.111933544
000200 42 12 8c 3d 72 1c 98 bd bd 22 22 bf bd 30 0e 3f
       0.0683942 -0.074273005 -0.63334256 0.5554312
000210 16 5e ce bd 24 e6 2c 3e dc 54 d1 3e 3b a2 87 3e
       -0.10076539 0.16884667 0.40885055 0.2649096
000220 cc 83 0e be 83 cc 54 3e 64 ab b3 bf e7 ec d2 bd
       -0.13917464 0.2078114 -1.4036679 -0.10299092
000230 8d 49 8a bf e9 21 ad 3e 2a 56 1a be 6b 23 64 be
       -1.0803696 0.33814934 -0.15071931 -0.22279136
000240 be a9 99 3d bb 06 71 3d 5e b9 53 bf 02 ae 3b bc
       0.07503079 0.05884431 -0.8270472 -0.011455061
000250 e4 25 94 be ec ca 9f bc 90 0f 1d 3f 06 08 29 be
       -0.28935158 -0.01950594 0.6135187 -0.16506967
000260 05 94 ad 3d 0e 72 ea 3c 73 ec 8b bd de ee 30 bf
       0.08475498 0.028618839 -0.068322085 -0.6911448
000270 ae b1 52 3e 3e e6 06 bc 1b 6a e1 3d c5 f7 81 3c
       0.20575592 -0.008233605 0.11006566 0.015865216
000280 df 41 76 3d 88 41 4d be e6 c4 06 3e 51 52 b9 bd
       0.060121413 -0.2004453 0.13161048 -0.09048904
000290 d5 93 ea 3d 2b 79 b0 3b e3 4c c1 bd 74 24 75 3e
       0.11453978 0.005385538 -0.09438493 0.23939687
0002a0 63 e8 10 bc c2 c0 34 3e c2 cf 8c 3e c6 e2 61 3e
       -0.008844468 0.17651656 0.27502257 0.22059163
0002b0 b0 04 72 3e f0 a4 2f bc fa 0f 9b 3d a0 c5 16 be
       0.236346 -0.0107204765 0.07571407 -0.14723825
0002c0 4b cd 53 be 2f 71 5f bf 02 11 46 bc 81 8f 84 3e
       -0.20683782 -0.8728208 -0.012089016 0.25890735
0002d0 ea 65 81 bc 25 4d bf 3e 85 31 54 be 5a 92 ae 3e
       -0.015795667 0.37363544 -0.20722015 0.34096032
0002e0 c8 48 fc bd 4d 24 56 bf 36 5a 96 be 5d f1 88 bd
       -0.123185694 -0.8364914 -0.293657 -0.066866614
0002f0 08 a7 de 3c 9a f4 12 3e 35 01 3d bc c6 c6 a5 bf
       0.027179256 0.1435112 -0.011535932 -1.2951286
000300 1f 96 c8 bb 5a b9 b6 be c7 bc 85 3d 09 88 da be
       -0.0061214115 -0.35688287 0.06530147 -0.42681912
000310 c5 7a b9 3e 55 69 43 3d 4f 06 e3 bd 6c c0 5e bd
       0.36226478 0.047707874 -0.11085188 -0.054382727
000320 94 24 9b bd 8b 93 b8 bf 36 be 9d 3e 4b 69 76 3e
       -0.07575336 -1.4420027 0.30809182 0.24063604
000330 7a 66 f5 be f0 9f 4e 3e 4c 0a 78 3e 44 2f a3 3c
       -0.47929746 0.20178199 0.24222678 0.019919999
000340 94 c6 b0 bd 4d 75 92 3e 89 33 48 be cc ea 02 bc
       -0.08631626 0.28605118 -0.19550909 -0.00799055
000350 0d 8f 3f 3e f9 65 92 3c 42 93 a0 3d c0 c4 2d be
       0.18706913 0.01787089 0.07840587 -0.16969585
000360 6e a0 b3 bd 51 97 2a 3e cb 4e 3b 3e 7a 4b 20 be
       -0.08770834 0.16659285 0.18291776 -0.15653792
000370 79 9e 45 3e 3e 72 25 3d 48 af a5 3d 67 fd b0 be
       0.19298734 0.040392153 0.08090073 -0.3456833
000380 4f 1c 99 3e 37 22 3b be 2a fa 61 bd 2e 1c 0f 3f
       0.2990441 -0.1827477 -0.055170216 0.55902374
000390 c8 10 5f 3c c9 b3 83 bc e5 2e e5 3b d3 e8 e9 bd
       0.013614841 -0.01607694 0.0069941157 -0.11421361
0003a0 dc 79 32 3d 83 0b 63 bf fd 53 0a 3e 5d ad 03 3d
       0.043573245 -0.8868944 0.13508601 0.032147754
0003b0 87 7d 35 bf 54 78 03 be c3 aa b1 bf 9c e7 3e 3d
       -0.70894665 -0.1283887 -1.3880237 0.0466076
0003c0 01 31 e7 3e 43 b4 e1 bf c4 fa 34 bd 26 8e 8c 3e
       0.45154575 -1.7633137 -0.04418446 0.274522
0003d0 8a 74 60 3d 1d 07 0d bd 45 e7 18 3e 8a 52 04 3d
       0.05479864 -0.034430612 0.14931972 0.032305278
0003e0 a1 fe b5 3c 4f 7f bb 3d fe 47 3a be 96 29 b7 3e
       0.022216143 0.091551416 -0.18191525 0.35773915
0003f0 8e 26 27 bf c0 b2 85 bf 5b 71 ac be 5f bd 66 be
       -0.65293205 -1.0445175 -0.33680233 -0.22533177

fc2.bias f4 [128]
000000 60 52 aa bd 4a ef b8 bc 3f 0a 01 bd 5a cd c5 3e
       -0.08316493 -0.02257504 -0.031503912 0.38633233
000010 93 23 76 bd 57 4d b5 be 37 c9 1c bc 6a ba 04 be
       -0.06009252 -0.35410568 -0.009569458 -0.12961736
000020 dc 74 86 bd 10 d1 1c bd 45 fe 27 be 20 03 26 be
       -0.06565258 -0.038285315 -0.1640559 -0.1621213
000030 3c ef a8 3e e3 f1 65 3f db eb 0f be 54 10 e0 bd
       0.3299502 0.89822215 -0.14054815 -0.10940614
000040 db 53 1d 3e 56 e5 4a 3f 68 74 4a be 6a e2 d3 bd
       0.1536402 0.7925619 -0.19770968 -0.103459194
000050 08 6c 1c 3f eb 79 f6 bd 23 f7 90 bd 17 cf f1 bd
       0.6110234 -0.12034973 -0.070783876 -0.118070774
000060 5e b6 dd 3e 4e c5 31 bd 21 bd b0 bc ae 6e bb 3e
       0.43303198 -0.043401055 -0.021574559 0.3660788
000070 ec 10 bb 3d 07 a4 87 bd bb 43 23 3e 6e 38 17 3f
       0.09134087 -0.066230826 0.15943806 0.5907048
000080 01 14 16 bd 5b af 7e 3e 36 dc cd 3c bb 41 d9 bd
       -0.03664017 0.2487158 0.025129419 -0.1060824
000090 9f 6e 77 be 58 14 a0 bd 09 4f 9b 3e 6e 81 7d bd
       -0.24163292 -0.0781638 0.30333737 -0.061891012
0000a0 d4 1f a0 bd b5 02 08 3f f9 fa 2a 3d 9e d4 9e 3c
       -0.07818571 0.5312913 0.041743252 0.019388493
0000b0 d4 50 0c be bd a4 49 bc 87 28 f3 3e 1a 3d 3d 3e
       -0.13702708 -0.012307343 0.47491857 0.1848034
0000c0 75 06 1c 3f db ea 87 bd 90 65 3a bd ac 78 38 bd
       0.6094735 -0.06636592 -0.045507014 -0.045036957
0000d0 77 77 0a be 6c 3f 68 be 50 f8 f7 3e 59 6f 4e bd
       -0.13522135 -0.22680444 0.48431635 -0.05039916
0000e0 fa da 86 3e 54 9a 45 be a1 bc c0 bd 7d 2d a1 bd
       0.2633894 -0.19297153 -0.09410978 -0.07870004
0000f0 2a 9c 76 bd 77 49 6c be 0f 45 8e 3e 54 33 15 3f
       -0.060207523 -0.230749 0.27787063 0.58281446
000100 b5 96 0f be 8c ca 60 3d ca 7b 3f be 78 f7 a8 bd
       -0.14022334 0.054880664 -0.18699566 -0.08250326
000110 a1 c2 19 be 65 6e d5 3d 8b 2c f2 bd 8b e7 24 bc
       -0.15015651 0.10421447 -0.11824902 -0.01006497
000120 74 05 a8 bd 30 08 92 be 05 35 2f bd 98 f0 00 bb
       -0.08204165 -0.28521872 -0.042775173 -0.0019674655
000130 96 a0 ef bd ba 08 f4 bd 93 3c b8 bd 65 c2 d2 3d
       -0.11700551 -0.11915727 -0.089959286 0.10290984
000140 a9 f1 24 3e 6b 7f 35 be 51 f2 b2 3e 44 ed 87 bc
       0.16107811 -0.17724387 0.34950498 -0.01659263
000150 65 1a 00 3f 42 78 30 bd b2 3b 3e 3e 1e 3a dd 3e
       0.50040275 -0.043083437 0.1857746 0.43208402
000160 ab c2 33 bd 5c 32 bd bc ce 18 46 bc 76 de d9 3e
       -0.04388682 -0.023095302 -0.012090875 0.42552537
000170 d6 b9 80 3c ea 52 09 be fa 87 f9 bd 0b e7 0c 3f
       0.015713613 -0.13410535 -0.121841386 0.55040044
000180 04 8a 53 3e 5c 48 95 bc 5f fd e0 bd f5 e7 0a bd
       0.20658118 -0.01822298 -0.10985827 -0.033912618
000190 e0 c7 5c 3c 95 97 77 bd 99 be b7 3e f3 4b 8b 3d
       0.013475388 -0.060447294 0.35887602 0.068015955
0001a0 8c 01 74 3e 16 fd b0 bd 30 a5 1b 3e 13 49 5e 3e
       0.23828715 -0.08642022 0.15199733 0.21707563
0001b0 d3 aa ca 3e 16 b8 22 be 46 1e 34 3e c0 5a e1 bc
       0.39583454 -0.15890536 0.17589673 -0.027509093
0001c0 ca 9f 25 be b4 94 91 be cd 95 b6 3c 6b 11 eb 3e
       -0.16174236 -0.28433764 0.022288227 0.45911726
0001d0 4d 0a 9b be d2 89 82 bd ff 69 d1 3d 23 9e 11 be
       -0.30281296 -0.063739434 0.10225295 -0.1422048
0001e0 11 dc 07 3f 33 bc a8 bd 49 15 e2 3b 25 23 da bc
       0.5307017 -0.08239021 0.00689951 -0.026628086
0001f0 34 43 2a 3f ab 01 ae bd f8 07 ff bd 1f 17 df bd
       0.66508794 -0.08496412 -0.12452692 -0.10893082

fc3.weight f4 [2, 128]
000000 f9 74 1c 3f 64 54 21 3f 95 db bf bc b6 02 b5 bf
       0.61115986 0.63019395 -0.023420135 -1.4141452
000010 1a 78 c8 3e 55 c1 ec be 58 77 98 bd 14 2b 87 3d
       0.3915413 -0.4624125 -0.07444638 0.066000134
000020 fc db b9 3e af 7c af bc 26 a8 1e bf ce 6a 67 3d
       0.36300647 -0.021421758 -0.61975324 0.05649834
000030 06 af 9d 3e 1a 50 e1 bf 4c 5b a2 3f f9 c5 60 bd
       0.30797595 -1.760257 1.2684112 -0.0548763
000040 1e c5 70 3f e5 49 0b c0 06 7f 68 be 3d dd 15 3d
       0.94050777 -2.1763852 -0.22704706 0.036587942
000050 31 78 c7 bf f3 04 6c bb 3e 3b 59 3e 9d 02 fd 3e
       -1.5583555 -0.0036013692 0.21214005 0.49416056
000060 96 87 35 c0 3c 94 4b 3c 06 8f 80 bf 00 36 9f bf
       -2.8364005 0.012425479 -1.0043647 -1.2438354
000070 0e 85 04 be 4b 2c bc bb ce 50 03 3f 5b 4f 88 bf
       -0.12941381 -0.005742585 0.51295173 -1.0649217
000080 b1 6f c5 3e a0 7b c8 3e 15 03 98 bc 8e 73 37 bc
       0.38561776 0.39156818 -0.018556157 -0.011196984
000090 4c 29 9d 3f 6e 4d 06 3c 85 5a 0d 3f e5 bb bf b9
       1.2278228 0.008197172 0.55216247 -0.0003657035
0000a0 7f 4e 9f 3f 26 31 08 c0 6a 50 06 bf 0c d0 52 3f
       1.244583 -2.1279998 -0.5246645 0.82348704
0000b0 95 e2 7b 3f eb d2 a9 3c 7e 86 6f bf 83 f8 1e 3f
       0.9839261 0.020730456 -0.93564594 0.6209795
0000c0 eb f8 c8 bf 55 a0 0f bf b1 04 c1 3c 83 7c 53 3c
       -1.5700964 -0.5610402 0.023561807 0.012908104
0000d0 08 3a 42 bf ac 4f a7 3f 55 61 30 bf bb cd fa 3e
       -0.758698 1.3071189 -0.68898517 0.48985085
0000e0 f4 7b 57 3e c1 98 1a 3f e7 96 d0 bf d8 32 fa ba
       0.21043378 0.60389334 -1.6296052 -0.0019088639
0000f0 ca c1 7d be fa 9e 19 bb 4b 55 5a 3d e7 eb 1f 3f
       -0.24780956 -0.0023440705 0.053303998 0.62469333
000100 fe 48 fb bc 26 f7 67 3e 94 48 0c bf cc ae 94 bc
       -0.030674454 0.22652873 -0.54798245 -0.018149756
000110 70 a9 c8 3c a6 b4 50 3f 1e 1b 42 3c 08 34 81 bb
       0.024494857 0.8152565 0.011847286 -0.00394297
000120 68 7f a3 bc cf a5 50 bf 3d 41 09 3d ea e1 3e 3f
       -0.019958213 -0.81503004 0.03350948 0.7456347
000130 c7 ac 36 3d dc 93 b3 bb d9 ed 80 bc 05 5a b6 bf
       0.044598367 -0.0054802727 -0.015738415 -1.4246222
000140 9b 6c f8 3e 2b 9e e4 3e 23 55 f7 3e d0 29 33 3f
       0.4852036 0.44651923 0.48307142 0.69985676
000150 d6 54 ba 3d 46 6b d1 3f f3 2f 03 3f 60 5e 52 c0
       0.090982124 1.6360862 0.5124504 -3.2870102
000160 ce f3 02 3f 2e 2e 57 3f 2d c2 6d 3f 21 1b 3f c0
       0.51153266 0.8405484 0.92874414 -2.9860308
000170 5d b9 50 3f bb 0e 8b 3f 10 fc 86 bc c0 b2 46 c0
       0.8153284 1.086387 -0.016477615 -3.10466
000180 1e 11 03 3f e1 cd 3a 3c e5 1f f5 3c 8c bd 85 3c
       0.51197994 0.011401624 0.029922435 0.016325735
000190 0e c9 8e 3f aa 56 68 3f 33 eb 1d c0 41 03 e2 3e
       1.1155107 0.9075724 -2.4674804 0.44143108
0001a0 09 56 86 3e 89 58 db 3c e4 f3 c8 be 96 86 f1 3e
       0.26237515 0.026775615 -0.39248574 0.47172993
0001b0 9a 29 ef bf d1 3a 05 bf e2 7b 3f 3f a0 c0 a8 3d
       -1.8684571 -0.5204287 0.74798405 0.08239865
0001c0 6c 2b 7b be d6 a6 8f 3f 09 e7 02 bc 99 ec 08 bf
       -0.24528283 1.1222789 -0.007989653 -0.5348602
0001d0 a0 9d 0f bf d6 f5 b0 3f 4e aa d1 3e 48 64 bd bc
       -0.5609989 1.3825023 0.40950245 -0.023119107
0001e0 de 59 ed bf 46 ea 45 3f 26 20 f5 bb 53 c9 d2 bc
       -1.854305 0.773106 -0.007480639 -0.025730764
0001f0 3f 08 15 c0 87 fa 0e bd 70 bd 30 3d 7e 20 23 3c
       -2.3286283 -0.03490689 0.04314941 0.009956477
000200 ae 33 73 3f 8f 0f b8 3e eb 8c e0 bc ca ef 37 c0
       0.9500073 0.3594937 -0.027410945 -2.8740106
000210 dc 18 04 3f 7a 54 18 bf a7 7c 1c 3d 1e 3b 15 3c
       0.5160043 -0.595039 0.038204815 0.009108333
000220 83 85 d2 be dd d5 09 3e af bc 04 bf 56 0f 5f 3a
       -0.41117486 0.13460489 -0.5185041 0.000850906
000230 e3 23 bd 3e b0 e0 02 c0 c0 a4 78 3d 27 dd ac bc
       0.36941442 -2.0449638 0.060703993 -0.021101547
000240 ed 04 9d 3f 80 5e 21 c0 81 65 2a 3f c8 81 3f 3d
       1.2267128 -2.5213928 0.6656113 0.04675463
000250 42 47 b3 bf 12 c8 24 3d 41 92 9b 3e 40 58 32 bf
       -1.4006121 0.040229864 0.3038502 -0.6966591
000260 63 d1 2d bf ed a2 ef bc ce 01 66 bf 4a 12 ae bf
       -0.67897624 -0.029252494 -0.89846504 -1.3599331
000270 11 e4 1e bf 83 75 9f 3a 4f c9 c3 3e c5 f2 9e bf
       -0.6206675 0.0012165759 0.38239524 -1.2417837
000280 65 50 f0 3e 41 e3 cd 3e 56 9f 84 3d 9d 4d 97 bb
       0.46936336 0.40212443 0.064757034 -0.0046174065
000290 6d 62 c3 bf 60 36 00 3e 6f 39 ea 3e e4 a8 dc b9
       -1.5264412 0.12520742 0.45746943 -0.00042087503
0002a0 26 94 95 3f 80 76 80 bf 10 90 61 be 34 92 80 3f
       1.1685836 -1.0036163 -0.22027612 1.0044618
0002b0 26 f6 52 3f ec 3c 07 bd e3 76 92 bf eb aa f2 3e
       0.8240684 -0.033017084 -1.1442531 0.47396025
0002c0 98 1f 13 c0 d8 04 fe be bf 85 6d bb 0c 49 b8 3d
       -2.2988033 -0.4961307 -0.003624305 0.089983076
0002d0 11 6f 08 bf ec 5f cf be 31 4b 3f c0 72 76 d7 3f
       -0.53294474 -0.4050287 -2.9889643 1.6833022
0002e0 9f 15 90 3e 11 ce 24 3f 74 bd 2e 3f b4 af 22 bb
       0.28141496 0.6437693 0.6825783 -0.0024823966
0002f0 cb 44 a3 3e d6 c8 4b 3c ab c9 47 3f 28 df 14 3f
       0.31888422 0.01243802 0.78042096 0.5815301
000300 03 7e f6 3c 1d 9b af 3e bb 3f 0e bf a8 f7 86 3b
       0.030089384 0.3429803 -0.55565995 0.0041188784
000310 06 c5 ef bd 65 3c f9 3e 79 8e 09 3d e4 7c 83 3d
       -0.11707501 0.4867889 0.03358314 0.06420305
000320 5c 16 5d bb c7 1d 82 bf b6 e4 ff 3b bd ce 16 3f
       -0.003373525 -1.0165337 0.007809247 0.5890921
000330 f5 56 30 3d 15 d2 03 3d 2b 51 27 3d 6b a5 c9 3f
       0.04305168 0.03218277 0.040848892 1.5753607
000340 e1 42 11 3f c1 c2 19 3f 54 0c 2d 3f 8d 3b 67 3f
       0.56742674 0.60062796 0.67596936 0.9032524
000350 8e 88 1b c0 b9 05 10 c0 bf 47 f1 3e 7b 91 81 be
       -2.4302096 -2.2503493 0.4712505 -0.25306305
000360 a4 87 09 3f 93 37 01 3f e3 96 51 3f a3 f8 54 bf
       0.53722596 0.50475425 0.8187086 -0.8319189
000370 17 9c 7a 3e 39 5f 4e bf 1a 98 2c 3d aa 13 9b bf
       0.24473606 -0.8061405 0.042137243 -1.2115376
000380 9b 40 04 3f e2 09 89 3c 20 d0 08 3d cd 2c de 3d
       0.5166108 0.016728345 0.03340161 0.10848389
000390 b0 e9 bb 3f 01 39 5e 3f a4 14 22 c0 2e 92 37 3e
       1.4680691 0.8680573 -2.5325098 0.17926857
0003a0 a2 c6 27 3f 4c 86 03 bd 87 e0 1b bf d9 09 30 3f
       0.65537465 -0.032110497 -0.60889477 0.68765026
0003b0 d2 77 2b c0 3a 72 83 3e b9 fc 2e 3f d2 6c 10 bf
       -2.6791883 0.25673085 0.68354374 -0.56416047
0003c0 ce ba d1 3e 07 1d ab 3f 43 62 17 bd 3f ab 05 bf
       0.40962833 1.3368233 -0.036958944 -0.52214426
0003d0 dd 0f 52 bf 39 81 a0 be f7 f2 9d 3e 4e c4 18 3d
       -0.82055455 -0.3134859 0.3084943 0.037296586
0003e0 5c 6c 2e c0 2f 3c f2 3d 2d 87 0e 3d c3 cd 97 3c
       -2.7253637 0.11827885 0.034796882 0.018530732
0003f0 c4 10 41 bf 8d 08 1a bd ca 20 7e bd e7 26 c7 bc
       -0.7541621 -0.03760581 -0.06204299 -0.024310542

fc3.bias f4 [2]
000000 0e 46 04 3d c0 74 a1 bd
       0.03229337 -0.078835964

fc1.weight f4 [128, 31]
000000 bc 90 c7 bd f2 95 99 bd d8 8f e8 bc a2 4c b9 bd
       -0.09744403 -0.07499303 -0.028388903 -0.0904782
000010 1f f4 9f 3c 4d 3f 2f bd 65 3a 63 be 94 da 93 3d
       0.019525586 -0.042784978 -0.22190244 0.07219425
000020 32 92 12 bd 7c aa e4 3d 7b 1d 6e be 9d 85 1d be
       -0.035783954 0.1116533 -0.23253433 -0.15383
000030 cb 32 27 3e 1b 79 ce 3d ab be bc 3d b5 08 ca 3d
       0.1632797 0.10081693 0.092160545 0.09864942
000040 98 14 6d bd d8 5e c9 bd 74 ab 2a bc 87 08 53 be
       -0.057880968 -0.09832543 -0.010416854 -0.20608722
000050 35 cd 94 bb 95 45 5c 3d fc 82 9d bd 26 97 82 3d
       -0.004541064 0.053777296 -0.07690999 0.063764855
000060 05 78 a8 bc a3 d4 a4 3d f9 6c a9 3d a6 80 8a 3d
       -0.020565042 0.0804837 0.08272738 0.06762819
000070 2a e2 b8 3c eb c9 89 3c 22 8c 98 bd a9 5b 19 be
       0.02256878 0.016819915 -0.07448603 -0.14976372
000080 96 ed 44 be 75 47 c6 bd a0 4b 4a be a5 f0 9d bb
       -0.19231257 -0.09681598 -0.19755411 -0.004819947
000090 92 4d 1a bd 51 b9 d8 bd 03 fb a9 3d 22 36 83 3b
       -0.037671633 -0.10582221 0.0829983 0.004004256
0000a0 40 d2 c5 3b c5 ff 8d 3d 77 d5 38 be 93 7d 46 3d
       0.0060370266 0.0693355 -0.1805018 0.0484596
0000b0 13 d6 a9 3d 33 d0 5f 3d 91 12 4d bd a6 a9 cd 3d
       0.082927845 0.054641914 -0.050066534 0.100421235
0000c0 22 1b 16 3e 5b 51 f6 3b e9 01 9e 3d a9 12 f5 bd
       0.14658788 0.0075170225 0.07715208 -0.1196645
0000d0 65 42 a6 3d 01 30 d9 3d d4 95 82 bd dc 4f 37 3d
       0.081181325 0.10604859 -0.06376234 0.044753894
0000e0 a9 0c d2 bc 38 42 ad 3b 5f 38 5b bd cd de 27 bc
       -0.025640802 0.005287435 -0.053520557 -0.010245991
0000f0 27 8b 1e 3e 65 bb 2a be 75 50 ce bd ee f6 e0 3e
       0.1548277 -0.16673048 -0.1007394 0.43938392
000100 56 d7 0b 3e 4e 81 d2 bc d3 29 3b 3e 0f 69 6c bf
       0.13656363 -0.025696423 0.18277673 -0.92347807
000110 1f 6b 30 3f c4 33 00 3f ce ea bd be 96 7c 5c 3f
       0.68913454 0.5007899 -0.37093204 0.86127603
000120 73 99 3b bf 99 d9 96 3d 7c f4 aa 3e 7b f3 e3 be
       -0.7328102 0.07365722 0.33389652 -0.44521698
000130 ed 48 03 3d 19 8d 8c bd 90 43 b1 3e 72 05 08 bf
       0.03205197 -0.0686285 0.3462186 -0.5313331
000140 31 8e a8 3e e6 ef 13 be 7c 30 4b 3e e9 6e 29 bd
       0.32920983 -0.14446983 0.19842714 -0.041365538
000150 d8 33 6b 3e 86 ed 04 3d 69 7b af 3e 3b e0 f8 3d
       0.22968996 0.032453083 0.34273842 0.121521436
000160 ca e3 97 be 7f 4b dc bb 6a 53 13 be a8 bd a6 3d
       -0.29665977 -0.006722867 -0.14387289 0.08141643
000170 2b 61 80 3e b8 f9 7f 3d ac 90 0a 3a 2c bd 02 3d
       0.25074133 0.06249401 0.000528584 0.03191869
000180 d5 50 f6 bd 31 e1 30 be 47 5d ad 3d 3c e5 7e 3d
       -0.12027136 -0.17273404 0.08465057 0.062230334
000190 95 9c 5b be 60 98 9c bd 80 ce 8c 3e 67 98 81 3e
       -0.2144645 -0.07646251 0.27501297 0.25311586
0001a0 31 55 d6 be 75 c0 50 be 03 05 19 3e 75 8f 78 bd
       -0.4186187 -0.20385917 0.14943318 -0.060683686
0001b0 36 4f 44 3c 5d cf 67 3b 31 32 cf bc a8 91 4c 3d
       0.011981776 0.00353714 -0.025292488 0.049943596
0001c0 77 9e 3e 3d c5 c4 bf 3f f1 34 14 40 a5 7f 15 c0
       0.046537843 1.4981924 2.3157313 -2.3359158
0001d0 3e d6 71 3e 4d 29 bb 3f 7a 15 7a 3e df dc 21 bf
       0.23616883 1.4621979 0.24422255 -0.6322765
0001e0 b7 e6 d7 3d 23 39 8b 3f ac 4b c7 be a0 f1 33 be
       0.10542052 1.0876812 -0.3892492 -0.17572641
0001f0 73 d5 80 be 12 f8 37 be b4 54 86 3d 2d bf e1 3c
       -0.2516285 -0.17965725 0.065591246 0.02755698
000200 3c fc f3 bd 03 a4 17 be 94 78 c9 bd d8 49 9f bc
       -0.11913344 -0.1480866 -0.098374516 -0.019444391
000210 c7 97 23 be e2 6c 8b 3e f5 e2 b3 3d 3f 93 2a be
       -0.15975867 0.27231508 0.08783523 -0.16657732
000220 2e df 3a be 8d 28 a3 bd 0a 42 66 3d 4c 72 c7 3d
       -0.18249199 -0.07966719 0.056215324 0.09738597
000230 a4 a1 4c 3e a8 bd 45 3e 9c d4 df 3d 80 ca 07 be
       0.19983536 0.1931063 0.10929224 -0.13260841
000240 68 cb 55 3e 1b a7 e9 bc 81 e9 1b 3e eb 47 db bb
       0.20878375 -0.028522065 0.15225793 -0.006691923
000250 f4 6c 14 bd a5 8a 3a 3e 58 d3 0a be 24 69 2b 3d
       -0.03623672 0.18216951 -0.13557184 0.041848317
000260 75 f6 86 bd e3 cd 50 bd 4d 5f d6 bc a2 e6 71 be
       -0.06589977 -0.0509776 -0.02616849 -0.23623136
000270 fb d1 10 be 10 1c 04 3e c8 08 46 be a3 ae a4 3f
       -0.14142601 0.1290133 -0.19339287 1.2865795
000280 26 1d 9e 3f 8e c8 54 be 00 6a 23 be 65 49 1f bf
       1.2352645 -0.2077963 -0.15958405 -0.62221366
000290 cb 8a ff 3f 9a 5c a7 3f 2d 9d 2a bd d7 d4 68 3d
       1.9964231 1.3075135 -0.0416538 0.056843605
0002a0 b5 14 80 be 01 9a 9a be 0d 61 7f bd 3e f7 4f 3e
       -0.25015798 -0.3019562 -0.062348414 0.20309159
0002b0 56 7d b6 3e 5a 61 85 3e 37 1f eb bd 14 b8 06 3e
       0.356425 0.26050836 -0.11480563 0.13156158
0002c0 99 85 70 3f 01 c3 99 3e 2f a0 b5 3d 43 09 58 3e
       0.93953854 0.3003159 0.08868443 0.21097283
0002d0 6c 65 1d 3f a0 d8 15 3c ea 40 cb 3d 60 d8 ad 3e
       0.6148288 0.009145886 0.09924491 0.33954144
0002e0 cb 6a 2a 3f ff 13 a8 3e d6 b9 09 3e 15 d3 91 be
       0.66569203 0.32827756 0.13449797 -0.28481355
0002f0 68 0a fe 3d 70 38 61 3e 8b ec fb bf 81 3a 6f be
       0.124043286 0.21994185 -1.9681562 -0.23362161
000300 16 4d c7 3e 58 a9 d6 3e 08 aa 90 be 5a 52 00 3f
       0.38926 0.41926074 -0.28254724 0.5012566
000310 71 4f d9 be b6 5e 8d 3e 7b be 89 bd 5c b2 5d 3f
       -0.4244342 0.2761132 -0.067257844 0.8660028
000320 f5 ad 57 3f d0 5c 04 3f bb 5d 6c be 92 f2 03 3f
       0.8424981 0.5170412 -0.2308263 0.5154201
000330 5b fb 3f 3f 70 a0 f1 3e b7 df a7 3e 44 ae 43 3f
       0.74992913 0.47192717 0.32787868 0.76437783
000340 38 0d b8 3e ab 2f 9a 3e 0e 25 6f 3e ca ce 1d bd
       0.35947585 0.30114493 0.23353979 -0.038527288
000350 79 c8 a4 3e ef 1f 35 3e fe 6a 2a be a5 63 a1 3e
       0.32184198 0.17687963 -0.16642377 0.31521335
000360 b3 90 1d 3e 86 79 8e bd 98 5d e7 be 8e 77 2f 3e
       0.1538723 -0.069567725 -0.45188594 0.1713545
000370 f1 eb b1 3c b0 e4 9e 3f d9 a9 cd bf d2 c7 0c be
       0.021718951 1.241354 -1.6067458 -0.137481
000380 33 71 6d be ce 8e d5 be 6e 76 01 bf b4 07 97 3f
       -0.23187713 -0.41710514 -0.50571334 1.1799226
000390 dd 52 5c 3d f1 76 0c 3f 59 03 8a bc 32 53 09 3e
       0.053789962 0.5486899 -0.0168473 0.13410643
0003a0 eb d6 3f 3d b3 70 18 bf 50 f2 8c 3e e0 94 63 3f
       0.04683582 -0.59546965 0.2752862 0.8889904
0003b0 b0 f4 39 3e df 07 0d be 42 2e 68 bd d8 91 8b 3e
       0.18159747 -0.13772534 -0.05668474 0.27259707
0003c0 ae 74 43 bd 52 ff 8e be a1 ae d2 3e 3e 0d 08 be
       -0.047718696 -0.2792917 0.41148856 -0.13286301
0003d0 4a 55 8e 3d 72 b9 55 3e 2f 10 43 3e 51 d3 0e bd
       0.06949861 0.20871523 0.19049142 -0.034869496
0003e0 0a 93 ff 3d cc 03 27 bf c4 29 0f bd b2 30 21 3e
       0.12479217 -0.6524017 -0.03495194 0.15741232
0003f0 d0 63 f6 bf cd eb 5f 3f 4c 2d b6 3e 2b a8 93 3d
       -1.924921 0.8746918 0.35581434 0.0720981

fc1.bias f4 [128]
000000 46 75 1e be e2 8c 6a 3d c4 73 64 bd a1 42 85 bd
       -0.15474424 0.057263263 -0.055774465 -0.06506849
000010 03 f6 9f bd d4 bb 8d 3c 81 88 55 bd 8b fa 6b be
       -0.07810595 0.017301477 -0.052132133 -0.23044793
000020 0b 94 bb bd 1b 2d cb bd 62 bd 5e 3d d1 13 83 be
       -0.09159096 -0.099207126 0.05437983 -0.25601056
000030 4d 46 61 be 5d 2f 7a bd d2 62 0a be 67 80 e6 3c
       -0.21999474 -0.061080325 -0.1351426 0.028137399
000040 71 f5 54 be c8 42 89 3d ba 39 14 3e a1 c4 d5 bd
       -0.20796753 0.06702191 0.14475146 -0.104378946
000050 96 f1 44 bd cb 90 08 be b2 51 e1 bd aa 3d 35 be
       -0.048081957 -0.13336484 -0.1100191 -0.17699304
000060 e2 9e 2d be cd cd 67 bd ae af b0 bd 3f 34 98 3d
       -0.1695514 -0.05659275 -0.08627258 0.0743184
000070 79 97 26 be 20 64 c0 bd 14 39 3a be f5 f2 8a bc
       -0.1626872 -0.09394097 -0.18185836 -0.016961554
000080 73 e0 1b bd 51 73 66 bd 43 aa 48 bc 71 31 89 be
       -0.03805585 -0.056262318 -0.012247625 -0.26795533
000090 93 82 be bd 54 a9 34 be 57 96 33 be 1f d2 37 be
       -0.09302249 -0.17642719 -0.17537819 -0.17951249
0000a0 c3 a5 05 be d3 06 7a 3e 61 c6 89 bd 96 87 bf bd
       -0.13051514 0.24416666 -0.06727291 -0.09352033
0000b0 08 2d 1f 3c 56 48 0d be ab 51 76 bd 50 c5 aa 3d
       0.009715326 -0.13797125 -0.06013648 0.083384156
0000c0 5f 38 ec bd 31 16 19 be d2 b5 0d bd 9f 52 65 3d
       -0.115341894 -0.14949872 -0.034597225 0.055986997
0000d0 bb 1e 36 bd ef 2f c4 b9 46 d7 62 be 97 13 a9 bd
       -0.0444629 -0.00037419747 -0.22152433 -0.082556896
0000e0 2a e1 b5 bd da 00 32 be 8f 1e 9b bd 6c 5d dc 3d
       -0.08880837 -0.17383137 -0.07574188 0.10760006
0000f0 5d 0c 30 be ad 13 93 bb 6d 5b 8e bd b4 8f 7d be
       -0.17192216 -0.0044884295 -0.06951032 -0.2476185
000100 27 df 09 3e 6c f4 06 be 46 af 57 be f3 54 4e bc
       0.13464032 -0.13179177 -0.21062955 -0.012593496
000110 aa 62 cd 3d 16 be b8 bd 39 0f 1a be e7 c0 2f be
       0.10028584 -0.09020631 -0.1504487 -0.1716343
000120 33 db fd bd b6 ed 75 3c cb 9d b3 3d 95 a5 26 3e
       -0.123953246 0.015010288 0.08770331 0.16274102
000130 04 6f 2b be 11 8a 5b bc f0 55 b2 bd 0b 05 0d be
       -0.16741568 -0.013399617 -0.087077975 -0.13771455
000140 2a d0 cb bd 7a e5 a5 3d 4e 2f d3 bd 9f 94 86 3e
       -0.099518135 0.0810041 -0.10311757 0.26285264
000150 ae 0f a7 3c 07 62 4e be f6 13 f3 3d d9 aa 93 be
       0.020393219 -0.20154582 0.118690416 -0.28841284
000160 b2 87 34 be 87 85 5b be 40 ce 35 be cf cf 51 be
       -0.17629889 -0.21437655 -0.1775446 -0.20489429
000170 98 db 06 3d c2 33 15 be 3e 51 a5 3d 61 2d 05 be
       0.032924265 -0.14570525 0.08072136 -0.13005592
000180 ec 92 f8 3c 77 c1 b1 bd 8a b7 14 3c ff 3b 18 3e
       0.030343495 -0.086794786 0.009076962 0.14866637
000190 4b 5c bc bd bb 6a 5c bc a1 91 0e be 22 ca 0d be
       -0.09197291 -0.013453181 -0.1392274 -0.13846639
0001a0 96 85 8c 3d cc 48 c7 bc dd 95 2f be 90 2c 38 be
       0.06861417 -0.024326704 -0.17147012 -0.17985749
0001b0 a0 56 b3 bb 07 02 8c 3d a1 b0 4a bd db ed 6e bd
       -0.005472973 0.06836324 -0.049484853 -0.058332305
0001c0 95 b2 21 3e 76 96 60 be 41 39 8b be ef bd c2 3d
       0.1579078 -0.21932396 -0.2719212 0.09508883
0001d0 a0 49 46 bd 37 f1 46 be 38 c1 0a be 29 43 73 bd
       -0.048410058 -0.19427954 -0.1355027 -0.05939022
0001e0 83 7b cb bd 01 65 6e bc c4 19 3b 3d a1 55 01 3e
       -0.09935667 -0.014550448 0.04567887 0.12630321
0001f0 10 bf 32 be 0a b2 0c be 83 ec 4c be b5 40 23 be
       -0.17455697 -0.13739792 -0.20012097 -0.15942653

fc2.weight f4 [128, 128]
000000 0d db 7f 3d b3 81 68 3d c6 ee b9 be d7 59 9c 3e
       0.062464762 0.056764316 -0.36314982 0.30537292
000010 18 0b bf bc ce f8 8e be f1 13 95 be 54 a7 bc bd
       -0.02332072 -0.27924198 -0.29116777 -0.09211603
000020 9a 3a 8a be 27 08 69 3f 3b c6 47 bf 4a 99 81 be
       -0.26997834 0.91028064 -0.7803685 -0.25312263
000030 b4 34 f8 bf f9 21 0f 3f 86 12 8a bf 8c 47 2e be
       -1.9391084 0.55911213 -1.0786903 -0.1701948
000040 84 ad 5e bb 09 61 b9 3e 57 d4 ea be 86 86 a9 be
       -0.0033977935 0.36206844 -0.45865127 -0.33110446
000050 09 97 7c 3d 43 3b 5e 3d 22 0c cc bc bd a8 62 3e
       0.061667476 0.054255735 -0.02490813 0.22134681
000060 c4 82 ba 3d 77 16 81 bd ee eb e6 bc 00 9d d9 3c
       0.09106973 -0.06303113 -0.028188672 0.026564121
000070 10 db 81 bd ff 6a 0e bd 3b c9 70 bd 90 77 e6 be
       -0.06340611 -0.03477001 -0.05878566 -0.45013094
000080 30 ab 9c 3e df 7f c3 3c b1 27 27 3c 58 a5 23 bc
       0.30599356 0.023864685 0.010202334 -0.0099881515
000090 b5 6d a4 3e 8e 94 e0 3c 51 c8 6b be 74 db c2 be
       0.3211495 0.027414586 -0.23025633 -0.38058054
0000a0 d9 b0 1e 3e 3e 6b 35 3e 02 37 f1 3e 30 e5 35 3d
       0.1549715 0.17716691 0.4711228 0.044408023
0000b0 0a 45 c9 3e ed 1a 32 3e c3 e4 e5 3d d7 b4 ae 3e
       0.39310485 0.17393084 0.112252735 0.34122345
0000c0 ea 73 54 bd 3e 5b f4 bf 3a ed ba 3e 9d 3b 28 3e
       -0.051868357 -1.9090345 0.36509115 0.1642899
0000d0 20 a0 7c 3b 9d 20 45 3e 8b 64 fc bd 73 6a 6e bb
       0.003854759 0.19250722 -0.123238645 -0.0036379367
0000e0 cc f9 35 3e ed 19 a3 3e 53 24 71 be dc da df 3d
       0.17771071 0.31855717 -0.23549013 0.10930416
0000f0 17 2d 39 bd a7 f9 bd 3e 4d 0b 68 3e 01 ab e9 bf
       -0.045209017 0.37104532 0.22660561 -1.8255311
000100 31 28 df 3d 6d 24 1b 3c 1a 09 b7 3c ec 20 41 3c
       0.10896338 0.009469134 0.022343207 0.011787634
000110 86 4a e2 3d 41 2f d5 bd b2 71 97 3d 2c 38 fa be
       0.110493705 -0.104094036 0.073947325 -0.4887098
000120 07 a1 45 be 2b c4 ea be 05 20 af 3e 91 38 67 3e
       -0.19299708 -0.4585279 0.34204116 0.22580172
000130 13 7f 52 bf 84 5d d1 3e 73 30 dd be e0 5a 3e 3c
       -0.8222515 0.4089166 -0.43201026 0.011618346
000140 6b 32 87 3e a6 6b 2a be 3a 0e 9f 3e 02 3b 97 bd
       0.26405653 -0.16642627 0.31065542 -0.07384302
000150 bd 70 25 3d 3b cc 7b 3d 79 e0 09 3e b3 e8 81 3c
       0.04039072 0.061474066 0.13464536 0.01585803
000160 bf c3 a3 bd 3f dd 05 3e 9f c2 09 bd 82 01 0f bd
       -0.0799632 0.1307268 -0.03363287 -0.034913547
000170 12 70 8c 3e 70 dd 84 bd d1 25 59 bd b2 e4 e2 be
       0.27429253 -0.06487548 -0.05301458 -0.44315106
000180 0b 7a 38 3d 60 2b 1b bf 4e 71 10 3d 34 63 19 be
       0.045038264 -0.6061306 0.035264306 -0.14979249
000190 c0 95 59 3b 2f a4 63 3e 51 ee 44 3e 72 80 72 be
       0.003320083 0.222306 0.19231535 -0.2368181
0001a0 23 0d 9a bc 86 7c c3 bf 46 20 dd 3c 18 aa 18 bd
       -0.018805092 -1.5272377 0.026992928 -0.03727159
0001b0 b4 59 aa 3e ff 05 80 bd 65 d1 05 be 79 95 7c bd
       0.33271563 -0.06251144 -0.13068159 -0.061665986
0001c0 b5 77 29 3f b0 18 92 bf e3 cd 9b 3d f2 98 3c be
       0.66198283 -1.1413784 0.07607629 -0.18417719
0001d0 fd 2d 90 3d a8 d1 aa 3d 01 61 0d 3f c5 b4 fc be
       0.070400216 0.0834077 0.5522614 -0.49356666
0001e0 6b 73 ec bc 1b 75 1d bd 22 73 b4 be 3f 44 24 3e
       -0.02886363 -0.03844176 -0.3524409 0.16041659
0001f0 6c 00 fe be 12 2a b5 3e 02 2d 8a be 68 7a b4 bd
       -0.49609697 0.3538366 -0.26987463 -0.0881241
000200 42 12 8c 3d 72 1c 98 bd cb 78 10 bf f2 75 0f 3f
       0.0683942 -0.074273005 -0.56434315 0.56039345
000210 16 5e ce bd 7e 77 91 3e ee 83 b8 3e 82 85 75 3e
       -0.10076539 0.28411478 0.36038154 0.2397671
000220 68 2e 0f be b9 96 6e 3e 67 13 b2 bf e7 ec d2 bd
       -0.13982546 0.23299684 -1.3912171 -0.10299092
000230 bf 2a 8c bf 31 3a a1 3e de 3d 10 be b5 4e 48 be
       -1.0950545 0.3148971 -0.140861 -0.19561274
000240 be a9 99 3d 78 76 84 3c bd 83 4e bf fd 47 f1 bc
       0.07503079 0.016169772 -0.80669767 -0.029453272
000250 4d 7a 98 be ec ca 9f bc 33 92 0c 3f b8 9a 0c be
       -0.29780808 -0.01950594 0.5491058 -0.13730896
000260 05 94 ad 3d 0e 72 ea 3c 73 ec 8b bd c6 6c 2b bf
       0.08475498 0.028618839 -0.068322085 -0.6696285
000270 2d 4d 0b 3e 3e e6 06 bc dd 53 d0 3d 1b 8e b7 3c
       0.13603659 -0.008233605 0.10172246 0.022406628
000280 34 17 09 3d 29 c9 76 be d2 14 0a 3e 0a f9 b0 bd
       0.033469394 -0.24100174 0.13484505 -0.086412504
000290 3f 5f a5 3d 2b 79 b0 3b 46 c5 c7 bd 7b b7 25 3e
       0.080748074 0.005385538 -0.09754424 0.16183273
0002a0 01 d2 29 bd 85 ff 0c 3e 57 89 90 3e 90 ea 86 3e
       -0.04146004 0.13769348 0.28229782 0.26350832
0002b0 d9 32 6c 3e fe 47 a3 bd d9 42 e2 3c bb 05 e6 bd
       0.23066272 -0.07972716 0.027619766 -0.11231562
0002c0 1e 79 4f be dc 7d 4e bf 5b 84 b7 3d 43 c6 8b 3e
       -0.20261046 -0.80660796 0.08960792 0.272997
0002d0 ea 65 81 bc 25 a9 c9 3e 95 68 71 be 31 0b af 3e
       -0.015795667 0.3938686 -0.23575051 0.34188226
0002e0 fd ba 27 be 71 d2 49 bf 76 cd af be d5 8d 4c bd
       -0.16379924 -0.78836733 -0.34336442 -0.04993995
0002f0 08 a7 de 3c e7 41 e8 3d 51 be 62 3d 3c 79 b2 bf
       0.027179256 0.11340695 0.05535728 -1.3943248
000300 1b 63 dc bc 5a b9 b6 be c7 bc 85 3d 4b 68 de be
       -0.026902726 -0.35688287 0.06530147 -0.43438944
000310 be 5e ae 3e 55 69 43 3d d0 27 10 be d5 88 8b bc
       0.34056658 0.047707874 -0.14077687 -0.01703302
000320 94 24 9b bd 3c bd b0 bf 1f 84 a2 3e e7 c3 55 3e
       -0.07575336 -1.380775 0.31741425 0.20875512
000330 9a 65 16 bf d3 ba 2e 3e 71 d0 6b 3e 44 2f a3 3c
       -0.5874878 0.17063455 0.23028733 0.019919999
000340 5a b6 71 bd a9 c6 9d 3e e3 f4 63 be 97 0a e3 bc
       -0.059011795 0.30815628 -0.22261386 -0.02771501
000350 c3 7b 1c 3e f9 65 92 3c dd e7 a1 3d 74 e9 1a be
       0.15281586 0.01787089 0.079055525 -0.15128118
000360 6e a0 b3 bd b4 7e e7 3d 91 61 2b 3e 33 39 99 bd
       -0.08770834 0.113034636 0.16736437 -0.07481613
000370 8f e0 4a 3e 3e 72 25 3d 48 af a5 3d 56 a2 96 be
       0.19812225 0.040392153 0.08090073 -0.29420727
000380 54 fc 95 3e 35 aa 1d be 2a fa 61 bd d0 c3 01 3f
       0.29294074 -0.1539696 -0.055170216 0.5068941
000390 c8 10 5f 3c 72 d3 b5 bc 60 2e 21 b8 b5 ee de bd
       0.013614841 -0.022195552 -3.842858e-05 -0.108853735
0003a0 dc 79 32 3d e5 d3 52 bf 6f 58 e8 3d 5d ad 03 3d
       0.043573245 -0.82354575 0.11344992 0.032147754
0003b0 d8 5a 35 bf 8b 3b ec bd 77 17 a2 bf 9c e7 3e 3d
       -0.7084174 -0.115347944 -1.2663411 0.0466076
0003c0 b0 cf eb 3e 00 8c d3 bf c4 fa 34 bd 37 68 83 3e
       0.4605689 -1.65271 -0.04418446 0.25665447
0003d0 8a 74 60 3d 76 06 c6 bc f9 97 11 3e 66 ed 6d 3d
       0.05479864 -0.024173003 0.14218129 0.05808773
0003e0 a1 fe b5 3c 22 b6 ea 3d 7e bb 4e be 4a 06 d0 3e
       0.022216143 0.1146052 -0.2018871 0.40629798
0003f0 6e a7 03 bf 9e 5a 86 bf 28 0d 86 be e2 5b 49 be
       -0.5142735 -1.0496404 -0.26181912 -0.19663957

fc2.bias f4 [128]
000000 b1 a4 a2 bd 87 82 62 bd 3f 0a 01 bd ad cd ce 3e
       -0.07941569 -0.05530026 -0.031503912 0.40391293
000010 85 7b 8c bd 6a 55 b4 be 37 c9 1c bc 6a ba 04 be
       -0.06859497 -0.35221416 -0.009569458 -0.12961736
000020 80 90 93 bd 10 d1 1c bd ac 13 4b be 20 03 26 be
       -0.072052956 -0.038285315 -0.19831723 -0.1621213
000030 d7 52 9b 3e 22 04 65 3f 68 f7 0f be 54 10 e0 bd
       0.3033664 0.8945943 -0.14059222 -0.10940614
000040 a0 78 10 3e ca b2 52 3f 3a a4 3b be 6a e2 d3 bd
       0.14108515 0.8230406 -0.18324366 -0.103459194
000050 a2 9a 1c 3f eb 79 f6 bd 83 4e b2 bd 9f d3 06 be
       0.6117345 -0.12034973 -0.08706381 -0.13166665
000060 f1 2a e4 3e 4e c5 31 bd 8a ba 36 bc 9b 0f ba 3e
       0.44564012 -0.043401055 -0.011152873 0.3634003
000070 c6 36 b3 3d 07 a4 87 bd b3 cb 0d 3e b8 22 15 3f
       0.087506816 -0.066230826 0.13847236 0.582561
000080 c8 bc 45 bd c5 46 72 3e 36 dc cd 3c bb 41 d9 bd
       -0.04827574 0.23659809 0.025129419 -0.1060824
000090 26 fa 56 be 58 14 a0 bd 22 4b 8d 3e 6e 81 7d bd
       -0.20993862 -0.0781638 0.27596384 -0.061891012
0000a0 d1 51 77 bd ab c7 04 3f d3 57 fd 3c 2c fa 91 bc
       -0.06038076 0.5186717 0.030925667 -0.017819487
0000b0 95 16 0d be bd a4 49 bc 7f 36 f4 3e a7 c1 36 3e
       -0.13778146 -0.012307343 0.47697827 0.1784731
0000c0 f0 eb 17 3f 98 7f 88 bd 90 65 3a bd ac 78 38 bd
       0.5934439 -0.066649616 -0.045507014 -0.045036957
0000d0 59 42 25 be 45 39 84 be e4 91 f3 3e 3b d3 46 bd
       -0.16138591 -0.25824943 0.47572243 -0.04854129
0000e0 c3 b2 79 3e 54 9a 45 be a1 bc c0 bd 7d 2d a1 bd
       0.24384598 -0.19297153 -0.09410978 -0.07870004
0000f0 57 1d 8d bd 77 49 6c be 5d 1f 8b 3e b9 ca 11 3f
       -0.06890362 -0.230749 0.27172366 0.56949955
000100 25 ab e1 bd fb 35 83 3d ac 73 64 be 78 f7 a8 bd
       -0.11018971 0.0640678 -0.2230975 -0.08250326
000110 a1 c2 19 be 02 b7 aa 3d 8b 2c f2 bd 8b e7 24 bc
       -0.15015651 0.08335687 -0.11824902 -0.01006497
000120 74 05 a8 bd f4 e8 84 be 05 35 2f bd f4 68 b8 bc
       -0.08204165 -0.2595898 -0.042775173 -0.022510983
000130 96 a0 ef bd ba 08 f4 bd 93 3c b8 bd b6 f3 e2 3d
       -0.11700551 -0.11915727 -0.089959286 0.110816404
000140 6f 78 0e 3e e9 22 1e be e9 18 a5 3e bb b9 3d bd
       0.1391313 -0.15443005 0.32245567 -0.046319705
000150 1d 59 08 3f 1a 5c 98 3c d1 ef 3f 3e b7 e0 cf 3e
       0.53260976 0.018598605 0.18743826 0.4060113
000160 a4 32 e0 bc 3e 24 70 bc 7a b2 05 bc ad 6b d8 3e
       -0.027367897 -0.014657078 -0.008160228 0.4226965
000170 43 eb af 3c 1f c5 eb bd fa 87 f9 bd f1 9f 07 3f
       0.021474486 -0.11512207 -0.121841386 0.52978426
000180 8b b8 49 3e 5c 48 95 bc 5f fd e0 bd ab b4 29 bb
       0.19699304 -0.01822298 -0.10985827 -0.002589504
000190 5b b4 91 3c f3 16 6c bd ca f4 b4 3e 2c 0e a0 3d
       0.017786196 -0.057639074 0.3534301 0.07815203
0001a0 fd df 63 3e 16 fd b0 bd 92 4b 1e 3e 43 9b 57 3e
       0.22253413 -0.08642022 0.15458515 0.21055321
0001b0 50 87 dc 3e 16 b8 22 be a3 02 35 3e 47 ec 37 bd
       0.43071985 -0.15890536 0.17676787 -0.044903066
0001c0 d5 76 1a be 2c 5a 98 be cd 95 b6 3c 8d 27 e7 3e
       -0.15084393 -0.29756296 0.022288227 0.45147362
0001d0 2c 64 92 be 5a 66 83 bd 8b 72 bc 3d 23 9e 11 be
       -0.2859205 -0.064160064 0.09201535 -0.1422048
0001e0 a8 d1 04 3f 3d f9 9e bd 49 15 e2 3b 25 23 da bc
       0.5188241 -0.07762382 0.00689951 -0.026628086
0001f0 eb 4c 29 3f ab 01 ae bd f8 07 ff bd 1f 17 df bd
       0.6613299 -0.08496412 -0.12452692 -0.10893082
