checkpoints/dqn_episode_900.pth (torch, 343593 bytes, 24 tensors)

fc1.weight f4 [128, 31]
00000000: bc90 c7bd f295 99bd d88f e8bc a24c b9bd
00000010: 1ff4 9f3c 4d3f 2fbd 653a 63be 94da 933d
00000020: 3292 12bd 7caa e43d 7b1d 6ebe 9d85 1dbe
00000030: cb32 273e 1b79 ce3d abbe bc3d b508 ca3d
00000040: 9814 6dbd d85e c9bd 74ab 2abc 8708 53be
00000050: 35cd 94bb 9545 5c3d fc82 9dbd 2697 823d
00000060: 0578 a8bc a3d4 a43d f96c a93d a680 8a3d
00000070: 2ae2 b83c ebc9 893c 228c 98bd a95b 19be
00000080: 96ed 44be 7547 c6bd a04b 4abe a5f0 9dbb
00000090: 924d 1abd 51b9 d8bd 03fb a93d 2236 833b
000000a0: 40d2 c53b c5ff 8d3d 77d5 38be 937d 463d
000000b0: 13d6 a93d 33d0 5f3d 9112 4dbd a6a9 cd3d
000000c0: 221b 163e 5b51 f63b e901 9e3d a912 f5bd
000000d0: 6542 a63d 0130 d93d d495 82bd dc4f 373d
000000e0: a90c d2bc 3842 ad3b 5f38 5bbd cdde 27bc
000000f0: 278b 1e3e 65bb 2abe 60d8 aabe b084 903f
00000100: 56d7 0b3e 0636 05be 0d33 e4bf 4f63 f3bf
00000110: c4eb e23f 21f7 a23f da8f febf 019d fc3f
00000120: 88a4 03bf 066b 553e 3126 c93e 751e 44bf
00000130: 5d87 fc3e c92b dd3e 8a9f 193e 2dfb 46bf
00000140: e21f 873f 70c2 a4be 4ea3 3d3e 4690 6cbe
00000150: c0e5 2f3f ecbe c3bd 63ff dc3e 819a 92be
00000160: 51d0 b2bd 32ac 05be 83c7 48bf 4971 053f
00000170: c16b 9b3e c938 773d 92a4 42bd 2cbd 023d
00000180: 1427 95bd eda1 14be 5ce5 04be 5f99 013a
00000190: 2575 85be 70cb 873e 8fe5 d13e 7e9e 023e
000001a0: 0025 85bd 41e7 9bbe 33e7 443e 2514 233d
000001b0: 83dc 013e 23d8 e53d f88c 8b3d 4275 43bd
000001c0: 2d1d 633d 6ef4 6340 948c cb3e ef42 c8c0
000001d0: e9f4 7a3e 9d77 0d40 ae66 1a3f c3e9 7fbf
000001e0: ca9f f53d b9fb a83f 3dcb 9e3d 44a8 48be
000001f0: 73d5 80be 12f8 37be b454 863d 2dbf e13c
00000200: 3cfc f3bd 03a4 17be 9478 c9bd d849 9fbc
00000210: c797 23be e26c 8b3e f5e2 b33d 3f93 2abe
00000220: 2edf 3abe 8d28 a3bd 0a42 663d 4c72 c73d
00000230: a4a1 4c3e a8bd 453e 9cd4 df3d 80ca 07be
00000240: 68cb 553e 1ba7 e9bc 81e9 1b3e eb47 dbbb
00000250: f46c 14bd a58a 3a3e 58d3 0abe 2469 2b3d
00000260: 75f6 86bd e3cd 50bd 4d5f d6bc a3c1 4dbf
00000270: 3967 aebf 101c 043e 19ca 42bf f4d4 df3f
00000280: 0d0f 3c3f bb78 46bf 8b21 3abf 5642 8cbf
00000290: 649b 833f 9e7b c63f 2ca8 f8be 7409 c7be
000002a0: 006a a1bd a262 5bbe 9568 81bd 9335 913e
000002b0: 8031 1d3f 7b54 bf3c afab 2ebf c30c aa3c
000002c0: 8f94 0440 0e71 b93f 8827 f5be 43e7 963d
000002d0: c2de ca3f f339 1d3e c94c eabe cbe8 cd3d
000002e0: 9752 8d3f e848 ce3e 952a 383d a7aa 07bf
000002f0: 680a fe3d 008e 243e 0e0d dcbf 4a97 85be
00000300: 8ed0 153f b555 f03e 2408 34bf c0ca c03f
00000310: 207d ba3d 1324 4e3e 2796 b2be 5952 883f
00000320: 8af7 8a3f 4977 083f 7a01 fd3c 09b3 813f
00000330: 42a1 c23e 3557 cf3e 8cc7 d6bb 2e05 233e
00000340: 8458 2ebf 33eb ad3e 2a8c e03e 745c 0c3f
00000350: 1636 f93b e3ee 093f 1335 57be cc14 503f
00000360: c444 813f e8a5 afbe 1e66 cc3c 8e77 2f3e
00000370: 0caf 7fbe 274a 2040 77a3 0ec0 710c dabe
00000380: 8251 fabe fc57 1e3f b88f f3bf e7ba 0940
00000390: 9a87 7ebe 00e9 893f 3b72 6cbf 6bfd ef3c
000003a0: fdfe 41be f7ba 493e 6b6a 6bbf 41c8 dc3f
000003b0: 31da 263e ac86 2b3e 0777 88be f0e4 233e
000003c0: 2372 65bd 5a63 8bbe 62fc a23f 2653 363e
000003d0: f57f cfbd a303 563e 03a1 3c3e 226d 01bf
000003e0: daed 5c3e 86df 07c0 c429 0fbd 3c77 c53e
000003f0: 3b33 71c0 006e 2e3f 67fa 303f d409 f03e
-0.09744403 -0.07499303 -0.028388903 -0.0904782 0.019525586 -0.042784978 -0.22190244 0.07219425
-0.035783954 0.1116533 -0.23253433 -0.15383 0.1632797 0.10081693 0.092160545 0.09864942
-0.057880968 -0.09832543 -0.010416854 -0.20608722 -0.004541064 0.053777296 -0.07690999 0.063764855
-0.020565042 0.0804837 0.08272738 0.06762819 0.02256878 0.016819915 -0.07448603 -0.14976372
-0.19231257 -0.09681598 -0.19755411 -0.004819947 -0.037671633 -0.10582221 0.0829983 0.004004256
0.0060370266 0.0693355 -0.1805018 0.0484596 0.082927845 0.054641914 -0.050066534 0.100421235
0.14658788 0.0075170225 0.07715208 -0.1196645 0.081181325 0.10604859 -0.06376234 0.044753894
-0.025640802 0.005287435 -0.053520557 -0.010245991 0.1548277 -0.16673048 -0.33368206 1.1290493
0.13656363 -0.1300889 -1.782808 -1.9014682 1.77282 1.2731668 -1.988765 1.9735414
-0.5142293 0.20841607 0.3928695 -0.76608974 0.49322024 0.43197468 0.15002266 -0.77727014
1.0556605 -0.32179594 0.18519327 -0.23101911 0.68709946 -0.095579 0.43163595 -0.28633502
-0.087311395 -0.13053969 -0.7842943 0.52125984 0.30355647 0.06035689 -0.047520228 0.03191869
-0.07282844 -0.14514895 -0.12978119 0.00049438135 -0.26065937 0.26522398 0.40995452 0.12755772
-0.06501198 -0.3044987 0.1922882 0.039814133 0.12681775 0.112228654 0.06813997 -0.047719248
0.055447746 3.5617938 0.3975569 -6.2581706 0.24507488 2.2104256 0.60312927 -0.9996607
0.11993368 1.320182 0.077536084 -0.19595438 -0.2516285 -0.17965725 0.065591246 0.02755698
-0.11913344 -0.1480866 -0.098374516 -0.019444391 -0.15975867 0.27231508 0.08783523 -0.16657732
-0.18249199 -0.07966719 0.056215324 0.09738597 0.19983536 0.1931063 0.10929224 -0.13260841
0.20878375 -0.028522065 0.15225793 -0.006691923 -0.03623672 0.18216951 -0.13557184 0.041848317
-0.06589977 -0.0509776 -0.02616849 -0.8037359 -1.3625251 0.1290133 -0.76089627 1.7486863
0.73460466 -0.7752797 -0.7270743 -1.0957744 1.0281796 1.5506475 -0.48565805 -0.388744
-0.07881546 -0.21424344 -0.063187756 0.28361186 0.61403656 0.023355713 -0.6823072 0.020758038
2.0715673 1.4487627 -0.47881722 0.073683284 1.584923 0.15354137 -0.45761707 0.10054167
1.104083 0.40289998 0.044962484 -0.5299477 0.124043286 0.16069794 -1.7191484 -0.26091987
0.58521354 0.4694039 -0.7032492 1.5061874 0.09105897 0.20130949 -0.34880182 1.065013
1.0856793 0.53307015 0.030884493 1.0132762 0.38013655 0.4049622 -0.0065545496 0.15919945
-0.68103814 0.33968505 0.43856937 0.5482857 0.0076053245 0.5388014 -0.2101634 0.81281734
1.0099111 -0.34306264 0.024951037 0.1713545 -0.24969119 2.504526 -2.228727 -0.42587617
-0.4889031 0.61853004 -1.9028234 2.1520326 -0.24856415 1.0774231 -0.923618 0.029295644
-0.18944927 0.19700228 -0.91959256 1.7248613 0.16294171 0.16750592 -0.2665331 0.16005301
-0.056017052 -0.27224237 1.2733271 0.17805156 -0.10131828 0.20899825 0.18420796 -0.5055715
0.21575108 -2.1230178 -0.03495194 0.3856753 -3.7687519 0.68136597 0.69132084 0.46882498

fc1.bias f4 [128]
00000000: 4675 1ebe e28c 6a3d bde0 93be c6a0 89bd
00000010: 03f6 9fbd ebd9 0cbf 4512 11be 2602 01bf
00000020: d58d 25ba 3ead 8fbe cecc ec3c 066c 96be
00000030: 16bc 7fbe ef1f 3cbe ecf9 79be 5578 72be
00000040: 71f5 54be 6bb5 843c 57a9 e53c 2587 3abe
00000050: 749a cfbe baa3 16be 7f4b 81be 0ace 0fbe
00000060: e29e 2dbe 5806 9abd d74b 40be 2310 51bd
00000070: 54b9 afbe 2064 c0bd f6fc a0be 254f f9bd
00000080: 99d7 5dbe 0f89 dcbd 53bc 04bf 1b33 26bf
00000090: 4ee1 a3bd 54a9 34be 4913 a3be ef6b 46bf
000000a0: d7fc 5dbd c417 e93d 27db 29be dc56 72be
000000b0: e6e2 b23d 8391 69be 55cb d9bc 9bb9 d43d
000000c0: fff7 debe 06d0 27be 71c2 353d 96e9 c53e
000000d0: 6dc6 cbbd b59b 78be 646c f9be 5d71 ffbd
000000e0: ce4d 32be 44cc 92be bcb1 1dbe ab33 1dbe
000000f0: 5d0c 30be 5848 15be 3e4e c7be f78d 9cbe
00000100: 1369 95bc 527f 44be cc8a bfbe 33ac 83be
00000110: a405 a6bc 3184 e3bd 1145 8fbe 5546 8bbe
00000120: c789 52be 538c 74bc 7806 93bc 69bb ab3e
00000130: 4156 43be 3d05 3dbe 869f 8ebe 9ec3 1abe
00000140: 7080 3fbe 2fbc 8dbd a738 17be 441a 9c3d
00000150: 7056 2cbe bea5 6dbe d3c8 c33e e48c ffbe
00000160: e816 4bbe ec38 2ebf 5c9d 24bf 78bd a8be
00000170: 2195 47bd c233 15be 3e51 a53d 259f a4bd
00000180: b3cd 2abd 2407 42be 26bd 9bbd 963f 0c3e
00000190: 4b5c bcbd 9f9b 18be 9f4c a4be 0040 35be
000001a0: 9685 8c3d 9c5a 583d f116 93be 902c 38be
000001b0: 6a9f 7fbe 630c eb3c b719 a4bd dbed 6ebd
000001c0: a2f4 7d3d db2e 83be 4139 8bbe 635a bc3c
000001d0: a049 46bd 494b 68be dc05 91be a266 8fbd
000001e0: ed2e c4bd 0d21 59be 2d6b 9a3d 89d6 6dbe
000001f0: b312 a1be caf2 adbe 2068 983c 5c85 29bf
-0.15474424 0.057263263 -0.288824 -0.06720118 -0.07810595 -0.55020016 -0.14167126 -0.50393903
-0.0006315385 -0.2806186 0.028906252 -0.2937929 -0.24974093 -0.18371557 -0.24411744 -0.23678716
-0.20796753 0.016199788 0.02803485 -0.18215616 -0.40547526 -0.14710894 -0.2525291 -0.14043441
-0.1695514 -0.07520741 -0.1877893 -0.05104078 -0.34321082 -0.09394097 -0.31442994 -0.12173299
-0.21664275 -0.10768329 -0.5184986 -0.6492173 -0.08001958 -0.17642719 -0.3185065 -0.77508444
-0.054196205 0.11381486 -0.16587506 -0.23665947 0.08734684 -0.22809415 -0.026586214 0.10386964
-0.4354858 -0.16387948 0.044374887 0.38654774 -0.09949956 -0.24278148 -0.48715508 -0.12472794
-0.17412493 -0.28671467 -0.15399832 -0.15351741 -0.17192216 -0.14578378 -0.38926882 -0.3057706
-0.01823858 -0.19189194 -0.3741058 -0.25717315 -0.020266362 -0.11109198 -0.2798238 -0.27202097
-0.2056037 -0.014926034 -0.01794742 0.3354142 -0.19075872 -0.1845903 -0.27856082 -0.15113685
-0.18701339 -0.06920659 -0.14767705 0.07622197 -0.16829848 -0.23207757 0.38239154 -0.4991218
-0.19832957 -0.68055606 -0.6430261 -0.32957053 -0.048726205 -0.14570525 0.08072136 -0.08038167
-0.041700076 -0.18948036 -0.076044366 0.13696131 -0.09197291 -0.14903115 -0.32089707 -0.17700195
0.06861417 0.052820787 -0.2872844 -0.17985749 -0.24963155 0.02869243 -0.08012717 -0.058332305
0.06200088 -0.25621685 -0.2719212 0.022992318 -0.048410058 -0.22684969 -0.28324783 -0.070019975
-0.09579263 -0.21204014 0.075399734 -0.2322637 -0.3145958 -0.33974296 0.018604338 -0.66219115

fc2.weight f4 [128, 128]
00000000: 0ddb 7f3d b381 683d ac15 a2bf 7355 bebf
00000010: 180b bfbc 5683 453e 7822 34be e0de 99bf
00000020: 39ea 4ebf 7515 6b3d 2da3 a1bf 4a99 81be
00000030: 55d9 11c0 1c84 393f e01d d4bf ff7b 9bbf
00000040: 84ad 5ebb 0bf4 5f3e 5913 92bf 5370 85be
00000050: 8fe2 713f 433b 5e3d 6ecc b2be 9bcf 1bbc
00000060: c482 ba3d 7716 81bd 4d02 073f 19bf c73e
00000070: f0c0 2abf ff6a 0ebd bf2b 3a3d ac5b 90bf
00000080: b198 233e 7fdf 6ebf 94bc c7be 8e65 97bc
00000090: afbe 883e 8e94 e03c 2449 2e3f eb53 1e3f
000000a0: f477 8fbe 778f 98be c3c5 b0be a64d af3e
000000b0: 6cf0 bf3e df80 833f f1ee a33e 7ac4 1740
000000c0: 1a6f 153f 37e3 7bc0 26d4 463e 5173 823e
000000d0: 20a0 7c3b 361f cc3f 4aaa 1fbf 47df c1bc
000000e0: 0e75 bebe 3d5a cf3d d0d6 163e 5a78 9e3e
000000f0: 172d 39bd a95d 0b3f ea27 7c3e f2ff c9bf
00000100: e82e 463e dd38 2f3c 6ed0 e2be 885b 74bf
00000110: 7860 d43e 412f d5bd 1b80 e83e 2f1e 9cbf
00000120: 2325 27be 2ff6 1abf 6de1 44bf 1451 a73d
00000130: dddb ebbf e57d 5b3e 70c4 1fbf 0877 86ba
00000140: 094d e13e 52d9 d3bb 5d50 d5bc b5f6 8a3e
00000150: 02f5 d5be 5a8c 223d 5bf8 883e fba5 9b3f
00000160: 1cf9 6ebd 0afd cfbe 2410 84bf 163d 52bf
00000170: 8221 aa3e 70dd 84bd d125 59bd 0d3d 54bf
00000180: 09c1 c2be 53ea 593e bc9c e2be e52c 42be
00000190: c095 593b e107 173f 1923 c5bd d61a 7dbf
000001a0: 230d 9abc b81e ecbf 035c 6ebe 18aa 18bd
000001b0: 7333 f03d ae48 2ac0 6a3a 22bf 7995 7cbd
000001c0: e540 cfbe b2f9 9cbf e3cd 9b3d ce4d a8bc
000001d0: fd2d 903d 46fb b1be 5e21 0e3f 24da f5bf
000001e0: 397b 273f a3b4 973e 7c90 b43e 5431 19be
000001f0: ce8c 7ebe ad30 aabc 1281 81bf 8f32 9fbe
00000200: 4212 8c3d 721c 98bd 033b c3bf cca8 ac3f
00000210: 165e cebd fa50 36bf 3ba6 f63e 2cf2 e83f
00000220: 44b6 92be 2a2b a1be df6a aebf e7ec d2bd
00000230: 6c79 01c0 cdd8 933e 3476 5a3e a7b7 823f
00000240: bea9 993d d6ec 763c 20e1 2c3e fa14 4b3e
00000250: 5e2a 69bf ecca 9fbc b52a 293f 4d3c aebd
00000260: 0594 ad3d 0e72 ea3c c71e 65bd f20c a3bf
00000270: da5e 26bf 3ee6 06bc 7073 c23e 5cd4 13c0
00000280: 2ba0 4c3f 39a7 7abf fbf9 8dbf 5bfe b93e
00000290: 7f7f ac3e 2b79 b03b 13d9 583f fbc3 8ebf
000002a0: 4103 b0be 5f6b e43e 02d9 41be 0830 f9bd
000002b0: c8d2 973e 49e1 073f 03a6 883c 1235 63bf
000002c0: 739b 23bd 5f03 99bf 398e 123f d8fe 2b3f
000002d0: d673 23ba f937 eabe aac0 67be 87d7 bcbc
000002e0: ae5c 14bf 5273 eabe 645a a33d 4e05 b0be
000002f0: 08a7 de3c 1c1b bfbd 2a7b bdbf 28b5 8fbf
00000300: 27da 3e3e a900 b6be 51ad a2bf 78be 77bf
00000310: 5ae9 473e 5569 433d 8dac 333f 2668 65bf
00000320: 658d 3cbd 3990 c5bf e448 523e 2523 8c3d
00000330: 9d8e 093f f1fc 9f3e 8d56 bfbd 45c1 e83b
00000340: 38b4 88bf fac4 a03f c7f9 fcbe 3c17 c13e
00000350: c3fd 873e 60df fa3a 1348 03bf c6f2 60bf
00000360: 2769 70bd a82a 84be 83f2 76bf c4bd 86bf
00000370: 7f13 4e3e 3e72 253d 48af a53d 854f 843e
00000380: 0482 a03e b3b9 943d 0f04 60be c251 503e
00000390: c810 5f3c 7f86 cd3f f654 44be 04f5 0ebf
000003a0: dc79 323d b69b 3dbf a6b6 833f 5dad 033d
000003b0: 5522 3b3d 8de9 993f 9d1d 9cbf 9ce7 3e3d
000003c0: 31b1 363f 2973 c8bf c4fa 34bd cf40 633d
000003d0: 8a74 603d 8712 1abf a745 fc3e 4123 a13e
000003e0: a60e 38bf d0bb 9b3e eb69 6c3f c26d 00be
000003f0: 9671 f2bf 8d08 2dbf f7ae ef3e 1962 0bbf
0.062464762 0.056764316 -1.2662864 -1.4869827 -0.02332072 0.19288382 -0.17591274 -1.2021141
-0.80826145 0.05739351 -1.2627922 -0.25312263 -2.27889 0.7246721 -1.6571617 -1.2147216
-0.0033977935 0.21870439 -1.1412154 -0.2606226 0.94486326 0.054255735 -0.34921592 -0.009509946
0.09106973 -0.06303113 0.52737886 0.39012983 -0.6670065 -0.03477001 0.045451876 -1.1277976
0.15976216 -0.9330978 -0.3901106 -0.018481042 0.2670798 0.027414586 0.68080354 0.618468
-0.28021204 -0.29796955 -0.3452588 0.3423893 0.37488115 1.0273703 0.32018235 2.371367
0.5837265 -3.935743 0.19416866 0.25478604 0.003854759 1.5947025 -0.62369215 -0.023666037
-0.3719868 0.101246335 0.14730382 0.30951196 -0.045209017 0.5443979 0.24624601 -1.5781233
0.19353831 0.01069471 -0.44299644 -0.95452166 0.4147985 -0.104094036 0.45410237 -1.2196711
-0.1632276 -0.60531896 -0.7690647 0.08169761 -1.8426472 0.21434744 -0.62409115 -0.0010258863
0.44004086 -0.0064651156 -0.026039297 0.27141348 -0.4178849 0.03968463 0.2675198 1.2160028
-0.058343038 -0.4062274 -1.0317426 -0.8212446 0.3322869 -0.06487548 -0.05301458 -0.82905656
-0.380379 0.21280794 -0.44260204 -0.18962438 0.003320083 0.589964 -0.09625835 -0.98869073
-0.018805092 -1.8446875 -0.23277287 -0.03727159 0.11728563 -2.660686 -0.6337038 -0.061665986
-0.40479198 -1.2263701 0.07607629 -0.020544913 0.070400216 -0.3476202 0.55519664 -1.9207196
0.654224 0.29630002 0.35266483 -0.14960223 -0.248584 -0.020775164 -1.0117514 -0.3109326
0.0683942 -0.074273005 -1.5252384 1.3489013 -0.10076539 -0.7121731 0.481737 1.8198905
-0.28654683 -0.31478244 -1.3626364 -0.10299092 -2.023036 0.28876343 0.21334153 1.0212296
0.07503079 0.0150711145 0.16882753 0.1983222 -0.9108027 -0.01950594 0.6608079 -0.08507595
0.08475498 0.028618839 -0.055937555 -1.2738326 -0.6498848 -0.008233605 0.37978697 -2.3098364
0.79931897 -0.9791141 -1.1091913 0.3632687 0.33691022 0.005385538 0.8470623 -1.1153558
-0.34377483 0.44613168 -0.18930438 -0.12167364 0.29653 0.5307813 0.016680723 -0.88752854
-0.03994317 -1.1954154 0.57248265 0.67185736 -0.00062352174 -0.4574583 -0.2263209 -0.02305199
-0.5795392 -0.45791107 0.07976225 -0.34379047 0.027179256 -0.093313426 -1.4803212 -1.122716
0.18637906 -0.3554738 -1.2709142 -0.9677501 0.1952261 0.047707874 0.70185167 -0.8961204
-0.04603328 -1.5434638 0.20535618 0.06842641 0.53733236 0.31247666 -0.0934268 0.0071031176
-1.0679998 1.2560112 -0.49409315 0.3771304 0.26560792 0.0019140057 -0.5128185 -0.8787044
-0.05869403 -0.25813794 -0.96463794 -1.0526662 0.20124625 0.040392153 0.08090073 0.2584192
0.31349194 0.07261982 -0.21876548 0.20343688 0.013614841 1.605667 -0.19173035 -0.55842614
0.043573245 -0.7406572 1.0290115 0.032147754 0.04568704 1.2024399 -1.2196537 0.0466076
0.7136412 -1.5660144 -0.04418446 0.05548173 0.05479864 -0.6018452 0.4927189 0.3147221
-0.7189735 0.30416727 0.9234912 -0.1254187 -1.8940914 -0.6759117 0.46813175 -0.5444656

fc2.bias f4 [128]
00000000: 7a03 4a3c 84ce c1bd 3f0a 01bd f490 e73e
00000010: 5c57 96bd 66d5 73be a049 27bd 6aba 04be
00000020: a329 ac3d 6328 8fbd aa7d f33c 1f95 cdbe
00000030: af06 193f 947f c73f ac4a 1e3e 2536 2bbe
00000040: 211a 963e 1912 a53f 6cab 92bd 6ae2 d3bd
00000050: a94f ca3f eb79 f6bd ef25 6fbf 5f3a 54be
00000060: 7d39 173f d7a3 99bd b599 383f c4d4 203f
00000070: 6980 16be 5a22 c6bd a91c 0e3f 7159 943f
00000080: 9c1c 393f 138c 463f 36dc cd3c e28e 0cbf
00000090: c96c 78be 4911 e1bd d69f 933f c518 7bbc
000000a0: d72b 6bbe 7325 333f a937 603d 76f9 cb3e
000000b0: 190b b23d 0a1e 7bbd 6cfe 9e3f 7f4a 3b3f
000000c0: c246 9e3f 9f97 9bbe 9065 3abd 70a9 8dbd
000000d0: 7bde 1a3e 738a 4cbe da10 e63e cbe2 c9bc
000000e0: 6b8d 953e 796c 5fbc f2b0 bbbe 7d2d a1bd
000000f0: 6a92 b7be 8ff4 84be b7c1 163f 5d4d a73f
00000100: b596 0fbe 93b8 033e 213e 9abe 78f7 a8bd
00000110: 5594 30be 2b0e 843e 1905 18be 2db2 2abd
00000120: 7ae7 f1bd c9d5 33bf 0a1d b6bd 70e0 b13e
00000130: 3e50 18be f30a 58be 933c b8bd 802d 753d
00000140: 6c32 fa3e 7aae 2dbf ba3b 883f 41de 113f
00000150: 469f 573e 9a00 2fbe 7d95 313f 651e c73d
00000160: 50fb 6a3e 6c35 7d3e b440 453d 420a 353f
00000170: f9ad 51be a697 ab3e 0710 1dbe 8eca 933f
00000180: 63fd 703f 5c48 95bc c5a3 39be 5612 46bd
00000190: b051 c2b9 0d32 053f 9e73 313f 70f1 623e
000001a0: 0c2f 6b3f 4298 f1bd e3b6 b13e 9eb1 433f
000001b0: 5ce2 003f 5ce0 b33d d83d ba3e 1fed 3dbf
000001c0: 4374 3c3d 306b ba3d cd95 b63c deeb 1e3f
000001d0: 4faf 0abf 7f8f 0c3e 2b98 e23e 239e 11be
000001e0: 036e 233f ee1a 4ebd d2b9 27bc e1a0 6ebd
000001f0: d420 6b3f 7f35 21bf 0338 19be 1f17 dfbd
0.01232993 -0.09463218 -0.031503912 0.45227778 -0.07340881 -0.23811874 -0.0408417 -0.12961736
0.08406379 -0.06990125 0.029723007 -0.40152833 0.59775823 1.5585809 0.15458173 -0.16719873
0.2931681 1.2896148 -0.071616024 -0.103459194 1.580556 -0.12034973 -0.9341726 -0.20725392
0.59072095 -0.07501953 0.7210954 0.62824655 -0.14697422 -0.09674521 0.5551248 1.1589795
0.7230928 0.77557486 0.025129419 -0.5490552 -0.24260248 -0.10989625 1.1533153 -0.01532573
-0.22965942 0.6997902 0.05474058 0.3983876 0.08693523 -0.061307944 1.2421393 0.73160547
1.2365344 -0.30389115 -0.045507014 -0.06917083 0.15123932 -0.19974689 0.44934732 -0.024644276
0.29209456 -0.013636702 -0.36658436 -0.07870004 -0.35853893 -0.25967833 0.58889335 1.3070484
-0.14022334 0.12863378 -0.30125526 -0.08250326 -0.17244084 0.2579206 -0.14845695 -0.041673828
-0.11811729 -0.70248085 -0.088922575 0.34741545 -0.1487436 -0.21097927 -0.089959286 0.059857845
0.48866594 -0.67844355 1.0643227 0.5697976 0.21056852 -0.17090073 0.69368726 0.09722594
0.2294743 0.2472741 0.04815741 0.7071878 -0.20476522 0.33514136 -0.15338145 1.154619
0.9413664 -0.01822298 -0.1812888 -0.04835733 -0.00037063425 0.52029496 0.6931704 0.22162414
0.9186866 -0.11796619 0.34709844 0.764429 0.50345397 0.087830275 0.36375308 -0.74189943
0.046009313 0.09102476 0.022288227 0.62078655 -0.5417375 0.13726614 0.4425672 -0.1422048
0.6383974 -0.05031865 -0.010237174 -0.058258895 0.91846967 -0.62972254 -0.14962773 -0.10893082

fc3.weight f4 [2, 128]
00000000: 6b93 703f 5d8a 433f 95db bfbc 51da b9bf
00000010: b6dc 3a40 2495 48bf 5877 98bd 142b 873d
00000020: 69c4 51bf af7c afbc 9f24 2ec0 44ae 693f
00000030: 2650 973e 919f f7bf cfd3 8b3f 8f20 aabd
00000040: c914 6e3f 30fa 2ac0 aa40 473f 3ddd 153d
00000050: 231c 28bf f304 6cbb f036 c13f ed71 b83f
00000060: 9ae3 57c0 3c94 4b3c 09cf 28bf 4cd7 97bf
00000070: 9630 4fbf 8e22 ce3c 7f30 353f 055d 7bbf
00000080: 452e 413f 062d b63e 1503 98bc 495c 873f
00000090: 58a5 2140 6e4d 063c b533 f83e 3008 b73e
000000a0: 7390 b53f c92d 47c0 c319 14c0 dad8 233f
000000b0: e666 bc3f d1f6 ecba 4cd3 86bf f137 293f
000000c0: 47e5 dbbf 1f46 2dbf b104 c13c 0943 3cbd
000000d0: a266 5abf 34c7 b03f 382e 84bf 6356 1240
000000e0: 2bfa 053f 6f8f 8e3f a3f6 59c0 d832 faba
000000f0: 107b cf3d 8414 de3c 71bd 983e f457 f83e
00000100: fe48 fbbc 39a4 c73f b501 aebf ccae 94bc
00000110: 091e f93c 28ca 873f db22 82bc 0834 81bb
00000120: e0e3 e9bc a954 3dbf 5f09 683d c536 363f
00000130: c7ac 363d 6eec 70bf d9ed 80bc a8d6 b1bf
00000140: 668a 173f 3041 dc3e e723 0b3f 400f 913f
00000150: 95d1 1840 b803 d93f 8999 563f 6805 5dc0
00000160: 962e 3a3f 1cd8 773f 7478 3e3f fa54 9ec0
00000170: 83de b23f 9047 0640 10fc 86bc 5c08 16c0
00000180: 06f7 253f e1cd 3a3c 4120 ba3c 429d 78bc
00000190: 0f1b 9c3f 7d11 613f 0d47 08c0 751c 773f
000001a0: 007d 9c3f 8958 db3c d77e 95bf adf0 ea3e
000001b0: 9962 37c0 1a5a 04bf ffb8 233f d1a2 9b3e
000001c0: ccdc b73f 18b4 4740 09e7 02bc 7149 56bf
000001d0: 4881 65bf e815 6140 aec7 bc3e 4864 bdbc
000001e0: 5860 30bf 6c76 ca3f b9e0 92bb 53c9 d2bc
000001f0: a6e0 f7bf 5af0 c43f cfbb 3a3c 7e20 233c
00000200: ca26 573f fc30 ee3e eb8c e0bc 53b4 8ebf
00000210: 6ede 3440 4cac aabf 8ca7 193c 1e3b 153c
00000220: 3414 0cbf 4810 d53d d0c8 fbbf dbd9 233f
00000230: a285 2e3f a080 97bf 5781 713f f586 6f3c
00000240: b45d 623f 976c 4ac0 6523 983f c881 3f3d
00000250: 7892 dabf 12c8 243d a0a0 c53f b013 26c0
00000260: 92e2 f3bf 68ef 153b 8a67 5abf 1d72 8ebf
00000270: b270 90bf 8375 9f3a 1ee0 aa3e 6d94 a8bf
00000280: a6c4 363f daeb 863e 569f 843d d54c 41be
00000290: 6ab2 18c0 fb78 bf3d 4620 d63e 813a cd3f
000002a0: 401b 9c3f 6bf8 c8bf e9a3 ebbc 94c7 bd3f
000002b0: fbdb 533f 17c5 aebb baf2 c4bf 8759 783f
000002c0: 4e7d c2bf 6ae6 29bf bf85 6dbb 0cb9 2f3d
000002d0: 9c77 e1bd 5bee e23e efdb 99c0 fdee eb3f
000002e0: f689 353f a4d2 e63f 4436 2f40 b4af 22bb
000002f0: 0bea 613f d6c8 4b3c 75f1 8d3f 6d27 2d3f
00000300: 037e f63c 77dc 9e3f b1dc 9ebf a8f7 863b
00000310: 96db d2bd 6eec 803f 798e 093d dd4a 113d
00000320: 9907 5dbc 8c4d 3cbf 2eae 7d3d 29a8 293f
00000330: 6210 403c ac94 883f 2b51 273d 2bcf 5740
00000340: c995 4e3f e4d0 283f c240 153f b34f 753f
00000350: 67f9 14c0 1398 14c0 541f 593f f105 9dbb
00000360: 9954 b03e 8a4f 623f 65df 953f 72a4 d9bf
00000370: 7927 af3f 84f4 3f40 68a3 693c 5440 98bf
00000380: c313 903e e209 893c 6dd1 ca3d 1242 ef3d
00000390: ff4e 0540 1a20 5d3f 2c08 0ac0 076d ba3f
000003a0: 8007 b33f 1dec 50bb cb87 13bf b2b2 0c3f
000003b0: 9df7 1fc0 9115 783f 6abc b03e 0407 00bf
000003c0: f75e c63f bc02 0140 4362 17bd fc83 2bbf
000003d0: 4619 1bbf d3b4 d0bf 7022 253e 4ec4 183d
000003e0: 12e2 09c0 6be2 d63f df96 383d e4fa 57bc
000003f0: 8bd2 e4bf b8e4 22c0 f4c5 60bd e726 c7bc
0.9397494 0.76383 -0.023420135 -1.451975 2.9197211 -0.7835257 -0.07444638 0.066000134
-0.81940323 -0.021421758 -2.7209852 0.91281533 0.29553336 -1.9345571 1.0924014 -0.08306991
0.93000466 -2.6715202 0.77833045 0.036587942 -0.65667933 -0.0036013692 1.509489 1.4409767
-3.3732667 0.012425479 -0.6594091 -1.1862578 -0.8093351 0.025162961 0.70777124 -0.9818881
0.75461227 0.35581225 -0.018556157 1.0575038 2.5257168 0.008197172 0.4847695 0.35748434
1.4184707 -3.1121695 -2.3140724 0.64002764 1.4718902 -0.0018078928 -1.0533233 0.66100985
-1.7179345 -0.6768512 0.023561807 -0.045962367 -0.85312855 1.3810792 -1.0326605 2.2865226
0.5233485 1.1137522 -3.4056785 -0.0019088639 0.10130894 0.027109392 0.29832032 0.48504603
-0.030674454 1.5596992 -1.3594271 -0.018149756 0.03040983 1.0608568 -0.015885761 -0.00394297
-0.028551042 -0.73957306 0.056649562 0.7117732 0.044598367 -0.94110763 -0.015738415 -1.3893633
0.59195554 0.43018484 0.5435166 1.1332779 2.3877919 1.695426 0.83828026 -3.453455
0.72727334 0.9681413 0.74402547 -4.947873 1.3974155 2.0981178 -0.016477615 -2.3442602
0.6483005 0.011401624 0.022720458 -0.015174212 1.2195758 0.8791731 -2.1293366 0.96527797
1.2225647 0.026775615 -1.1679333 0.45886746 -2.865393 -0.51699984 0.63954157 0.30397657
1.4364257 3.120367 -0.007989653 -0.8370581 -0.8965039 3.516962 0.36871094 -0.023119107
-0.6889701 1.581739 -0.0044823554 -0.025730764 -1.9365432 1.538585 0.011397316 0.009956477
0.8404356 0.46521747 -0.027410945 -1.114878 2.826076 -1.3333831 0.009378325 0.009108333
-0.5471833 0.10403496 -1.9670658 0.64004296 0.6817266 -1.1836128 0.9433798 0.014619579
0.8842423 -3.1628778 1.1885802 0.04675463 -1.7075949 0.040229864 1.5439644 -2.5949516
-1.9053519 0.0022878293 -0.8531424 -1.1128575 -1.1284392 0.0012165759 0.33374113 -1.3170296
0.7139381 0.26351815 0.064757034 -0.18876965 -2.3858895 0.09349247 0.41821498 1.6033479
1.2195816 -1.5700811 -0.028764682 1.4826531 0.8275754 -0.0053335535 -1.5386574 0.9701161
-1.519449 -0.6636721 -0.003624305 0.042901084 -0.11009142 0.44322476 -4.8080974 1.8432308
0.70913637 1.8033032 2.737687 -0.0024823966 0.88247746 0.01243802 1.1089312 0.67638284
0.030089384 1.241103 -1.24111 0.0041188784 -0.10295789 1.0072153 0.03358314 0.035471786
-0.013490581 -0.7355583 0.06193369 0.6627222 0.011722656 1.0670371 0.040848892 3.3720195
0.80697304 0.6594374 0.5830194 0.95824736 -2.3277223 -2.3217819 0.8481343 -0.004791968
0.34439543 0.88402617 1.17088 -1.700331 1.3683921 2.999299 0.0142601505 -1.1894631
0.28140077 0.016728345 0.09903226 0.11682524 2.0829465 0.8637711 -2.1567488 1.4564523
1.3986664 -0.0031879016 -0.5762908 0.5496017 -2.499488 0.9690791 0.3451875 -0.50010705
1.5497731 2.015792 -0.036958944 -0.6699827 -0.6058544 -1.6305183 0.16126418 0.037296586
-2.1544232 1.6787847 0.045065757 -0.013182376 -1.7876753 -2.54521 -0.054876283 -0.024310542

fc3.bias f4 [2]
00000000: 06b2 0a3f 0872 e03e
0.5417789 0.43837

fc1.weight f4 [128, 31]
00000000: bc90 c7bd f295 99bd d88f e8bc a24c b9bd
00000010: 1ff4 9f3c 4d3f 2fbd 653a 63be 94da 933d
00000020: 3292 12bd 7caa e43d 7b1d 6ebe 9d85 1dbe
00000030: cb32 273e 1b79 ce3d abbe bc3d b508 ca3d
00000040: 9814 6dbd d85e c9bd 74ab 2abc 8708 53be
00000050: 35cd 94bb 9545 5c3d fc82 9dbd 2697 823d
00000060: 0578 a8bc a3d4 a43d f96c a93d a680 8a3d
00000070: 2ae2 b83c ebc9 893c 228c 98bd a95b 19be
00000080: 96ed 44be 7547 c6bd a04b 4abe a5f0 9dbb
00000090: 924d 1abd 51b9 d8bd 03fb a93d 2236 833b
000000a0: 40d2 c53b c5ff 8d3d 77d5 38be 937d 463d
000000b0: 13d6 a93d 33d0 5f3d 9112 4dbd a6a9 cd3d
000000c0: 221b 163e 5b51 f63b e901 9e3d a912 f5bd
000000d0: 6542 a63d 0130 d93d d495 82bd dc4f 373d
000000e0: a90c d2bc 3842 ad3b 5f38 5bbd cdde 27bc
000000f0: 278b 1e3e 65bb 2abe c460 9dbe 15a3 8e3f
00000100: 56d7 0b3e a29e d7bd 3d06 dabf ada6 e3bf
00000110: c89b e23f 5638 a53f 6a0a 00c0 a686 f73f
00000120: d543 11bf 975a 843e 3ca6 f23e f100 33bf
00000130: 18f7 073f 4e20 fa3e 4c8a 8b3e e0c8 2ebf
00000140: 074f 8d3f 7126 89be c936 583e 4626 5abe
00000150: 01e3 3e3f bb5e fbbc 6130 e43e 5d48 3dbe
00000160: 427c 89bd 3930 bdbd e8c8 52bf e4b1 083f
00000170: 3218 a23e 993c 333d 2a70 1bbc 2cbd 023d
00000180: 7719 abbd 0b8c f4bd d654 1dbe 53dc 693c
00000190: 7749 80be c61e c93d 2f78 d63e ad6a 133e
000001a0: e086 cabd b77c a4be 3b91 423e 9bca 203d
000001b0: 7d5e fc3d 1f50 b23d 426d ab3d a2f6 4dbd
000001c0: 1121 1f3d 12f9 6140 a90a a23e f016 c8c0
000001d0: 05f6 693e 7814 0e40 46e1 423f 2c4d 72bf
000001e0: bda1 d33d 82e1 a63f f962 0ebc 24d7 3fbe
000001f0: 73d5 80be 12f8 37be b454 863d 2dbf e13c
00000200: 3cfc f3bd 03a4 17be 9478 c9bd d849 9fbc
00000210: c797 23be e26c 8b3e f5e2 b33d 3f93 2abe
00000220: 2edf 3abe 8d28 a3bd 0a42 663d 4c72 c73d
00000230: a4a1 4c3e a8bd 453e 9cd4 df3d 80ca 07be
00000240: 68cb 553e 1ba7 e9bc 81e9 1b3e eb47 dbbb
00000250: f46c 14bd a58a 3a3e 58d3 0abe 2469 2b3d
00000260: 75f6 86bd e3cd 50bd 4d5f d6bc a32b 4bbf
00000270: 2b45 abbf 101c 043e 1934 40bf febd da3f
00000280: 4b45 5d3f d9e2 43bf 958b 37bf 4363 84bf
00000290: 5e00 a03f c564 c13f 4b33 e9be 3721 8dbe
000002a0: 36d6 8dbd a04e 49be 8cea 0abd 6740 b33e
000002b0: e303 2c3f ed5c 383d af15 2cbf 46e4 413e
000002c0: 1d24 0040 ede9 bb3f c7fb efbe 6197 7c3e
000002d0: ddd9 be3f d31d 3b3e 0821 e5be 1c72 833e
000002e0: b036 733f 280e d13e d3fe 373d 670d ebbe
000002f0: 680a fe3d e482 243e 2339 e8bf 0db7 f7be
00000300: cecd 153f 3f50 f03e 3c83 3fbf a476 9b3f
00000310: 3c05 a0bc c0b0 4c3e c7a5 43be 991c 863f
00000320: 6a1b 873f 5c62 063f 8a42 32be b540 193f
00000330: 33b4 f53e d851 cf3e 6a3b 213b da11 973e
00000340: 2e96 25bf d6e5 ad3e 2168 c93e fc37 2d3f
00000350: f041 1e3d bb25 0b3f e86f 85be c271 743f
00000360: 629a 873f 72e5 a7be 5f20 303d 8e77 2f3e
00000370: db2d 70be 5812 2040 a69a 0fc0 ed4b d2be
00000380: 2a91 f2be b79a f53e 6e18 f7bf 0d83 0940
00000390: ee14 77be c5a6 883f 6f69 6cbf bea0 783c
000003a0: 2462 4bbe 13e7 243e 9cfc 72bf c406 db3f
000003b0: 8b14 2f3e f319 373e a564 95be d5bf 233e
000003c0: 635c 4abd 42cb 88be 6e19 9e3f 978e 233e
000003d0: 111e c4bd 8dfe 723e ceca a13d 5560 f9be
000003e0: 5ac7 463e e8ef 04c0 c429 0fbd 43cb b73e
000003f0: 7c5a 6dc0 d788 363f cce4 2c3f 35b4 e33e
-0.09744403 -0.07499303 -0.028388903 -0.0904782 0.019525586 -0.042784978 -0.22190244 0.07219425
-0.035783954 0.1116533 -0.23253433 -0.15383 0.1632797 0.10081693 0.092160545 0.09864942
-0.057880968 -0.09832543 -0.010416854 -0.20608722 -0.004541064 0.053777296 -0.07690999 0.063764855
-0.020565042 0.0804837 0.08272738 0.06762819 0.02256878 0.016819915 -0.07448603 -0.14976372
-0.19231257 -0.09681598 -0.19755411 -0.004819947 -0.037671633 -0.10582221 0.0829983 0.004004256
0.0060370266 0.0693355 -0.1805018 0.0484596 0.082927845 0.054641914 -0.050066534 0.100421235
0.14658788 0.0075170225 0.07715208 -0.1196645 0.081181325 0.10604859 -0.06376234 0.044753894
-0.025640802 0.005287435 -0.053520557 -0.010245991 0.1548277 -0.16673048 -0.3073789 1.1143519
0.13656363 -0.10528304 -1.7033154 -1.778524 1.7703791 1.2907817 -2.0006356 1.9337966
-0.5674413 0.25850365 0.47392452 -0.6992331 0.5311141 0.48852772 0.2725395 -0.6827526
1.1039742 -0.2678714 0.21114649 -0.21303663 0.7456513 -0.03068482 0.4456816 -0.18484636
-0.067131534 -0.09237713 -0.8233781 0.5339644 0.31659085 0.043758962 -0.009487191 0.03191869
-0.083544664 -0.119407736 -0.15364394 0.014273721 -0.2505605 0.09820323 0.41888568 0.14396162
-0.098890066 -0.321264 0.19000714 0.03925572 0.1232271 0.08706688 0.08370449 -0.050284036
0.038849894 3.530827 0.31648758 -6.2528 0.22847755 2.2199993 0.7612499 -0.94649005
0.103335835 1.303757 -0.008690589 -0.18734413 -0.2516285 -0.17965725 0.065591246 0.02755698
-0.11913344 -0.1480866 -0.098374516 -0.019444391 -0.15975867 0.27231508 0.08783523 -0.16657732
-0.18249199 -0.07966719 0.056215324 0.09738597 0.19983536 0.1931063 0.10929224 -0.13260841
0.20878375 -0.028522065 0.15225793 -0.006691923 -0.03623672 0.18216951 -0.13557184 0.041848317
-0.06589977 -0.0509776 -0.02616849 -0.7936346 -1.3380483 0.1290133 -0.75079495 1.7089231
0.8643386 -0.7651802 -0.7169736 -1.0342792 1.2500112 1.5108877 -0.45546946 -0.27564403
-0.06925623 -0.196589 -0.033915088 0.35010073 0.6719343 0.045010496 -0.67220587 0.18934736
2.0022042 1.4680763 -0.46871778 0.24667121 1.4910237 0.18273096 -0.44751763 0.25672996
0.9500532 0.40831113 0.044920754 -0.45908663 0.124043286 0.16065556 -1.8142437 -0.48381844
0.5851716 0.46936223 -0.7480962 1.2145581 -0.019533746 0.199893 -0.19106208 1.0477477
1.0555241 0.52493834 -0.17408195 0.5986436 0.47989044 0.4049213 0.0024602064 0.29505807
-0.6468228 0.33964413 0.39337257 0.6766355 0.0386371 0.5435445 -0.2606194 0.9548608
1.0593989 -0.3279224 0.04299962 0.1713545 -0.23454992 2.5011196 -2.243814 -0.41073552
-0.47376376 0.479696 -1.930433 2.1486237 -0.24129078 1.0675894 -0.9234838 0.015175043
-0.19861656 0.16103773 -0.949167 1.711144 0.1709768 0.17880993 -0.29178348 0.15991147
-0.049404513 -0.26717573 1.235151 0.15972362 -0.09576047 0.23729916 0.0790001 -0.48706308
0.19411984 -2.0771427 -0.03495194 0.35897264 -3.7086477 0.7130255 0.67536616 0.44473425

fc1.bias f4 [128]
00000000: 4675 1ebe e28c 6a3d 2369 86be f79e abbd
00000010: 03f6 9fbd eb43 0abf 591d 11be 3044 fabe
00000020: b55e b6bc 3a22 95be fe24 8b3c 066c 96be
00000030: bf84 78be ea0f 4bbe 494d 89be e74d 71be
00000040: 71f5 54be 6004 d53c 5c32 aa3c b81d 2dbe
00000050: 6876 d2be baa3 16be f91b 75be a110 21be
00000060: e29e 2dbe 5806 9abd f9c6 44be 1580 b4bd
00000070: fecb b0be 2064 c0bd fd5f a5be 046b c8bd
00000080: 6771 81be 96f1 cdbd aeb8 00bf ffc6 2cbf
00000090: 2d5a 95bd 54a9 34be ac50 a0be 35b1 3cbf
000000a0: 4a3a 6bbd 88e4 fc3d 264a 35be f82f 83be
000000b0: df4e 823d 3bab 69be 762f 72bc bdd9 cd3d
000000c0: e9c3 f7be 9850 23be 92f0 f73c 710c c93e
000000d0: 6dc6 cbbd a910 82be c91d 00bf 597b 0ebe
000000e0: 59d5 3cbe 4973 7bbe 12de 16be 940e 0abe
000000f0: 5d0c 30be afb5 14be 8750 cfbe 3417 9abe
00000100: 30f0 52bd 527f 44be 4794 c0be 2629 65be
00000110: ef5a 5f3b 3184 e3bd a130 8bbe ab6a 8cbe
00000120: c789 52be 36f7 98bb e52e 623c 5e39 ad3e
00000130: 969b 46be 781f 31be 955d 90be 9ec3 1abe
00000140: 300b 3bbe 5323 53bd 6dc9 23be 8fa8 9e3d
00000150: ee9c 17be bea5 6dbe f427 b63e 26d3 00bf
00000160: e816 4bbe 2566 2abf 5c9d 24bf 71c5 a8be
00000170: 4012 54bd c233 15be 3e51 a53d acb7 70bd
00000180: 5e11 55bd edee 43be d25b 89bd ed19 f63d
00000190: 4b5c bcbd d77a f8bd 7a1f a0be 7983 48be
000001a0: 9685 8c3d cc06 013d 714d 7bbe 902c 38be
000001b0: 9bc5 69be 75dc 3c3d ec42 6dbd dbed 6ebd
000001c0: e915 b93d 834f 80be 4139 8bbe 6095 02bd
000001d0: a049 46bd 86b7 57be 785f 90be 3d67 c9bd
000001e0: f3a3 39bd 749b 5ebe 6edf c03d d874 6bbe
000001f0: f68a 99be 3ea3 bdbe 3281 a13b 5c85 29bf
-0.15474424 0.057263263 -0.26252088 -0.083799295 -0.07810595 -0.54009885 -0.14171351 -0.48880148
-0.022261957 -0.29127675 0.016985413 -0.2937929 -0.24269389 -0.1983029 -0.26816776 -0.23564874
-0.20796753 0.026003063 0.020775966 -0.16905868 -0.41105962 -0.14710894 -0.23936452 -0.15729
-0.1695514 -0.07520741 -0.19216527 -0.08813492 -0.34530634 -0.09394097 -0.32299796 -0.097860366
-0.25281832 -0.100558445 -0.502818 -0.67491144 -0.0729259 -0.17642719 -0.31311548 -0.73707896
-0.057428636 0.123482764 -0.17704067 -0.25622535 0.063627 -0.22819225 -0.014781823 0.10051296
-0.48391655 -0.15948713 0.03026608 0.39267305 -0.09949956 -0.25403336 -0.5004545 -0.13914241
-0.1844076 -0.24555697 -0.1473315 -0.13482124 -0.17192216 -0.14522432 -0.40491125 -0.30095828
-0.051498592 -0.19189194 -0.37613127 -0.22378978 0.00340813 -0.11109198 -0.27185538 -0.2742513
-0.2056037 -0.0046681417 0.013805126 0.3383283 -0.19395289 -0.1729716 -0.28196397 -0.15113685
-0.18265986 -0.05154736 -0.15994807 0.07746994 -0.14805958 -0.23207757 0.35577357 -0.50322187
-0.19832957 -0.6656211 -0.6430261 -0.32963136 -0.051775217 -0.14570525 0.08072136 -0.058768913
-0.052018516 -0.19134112 -0.067069665 0.12016664 -0.09197291 -0.12132805 -0.31274015 -0.19581403
0.06861417 0.031500623 -0.2454126 -0.17985749 -0.22829287 0.04610868 -0.05792515 -0.058332305
0.09037382 -0.25060663 -0.2719212 -0.031880736 -0.048410058 -0.21066102 -0.28197837 -0.09834144
-0.04532237 -0.21738988 0.09417616 -0.22993791 -0.2998883 -0.37038606 0.0049287314 -0.66219115

fc2.weight f4 [128, 128]
00000000: 0ddb 7f3d b381 683d 5602 b4bf 0492 abbf
00000010: 180b bfbc 5683 453e 3f26 86be 63c6 a8bf
00000020: 2aff 34bf 2a11 963d e800 c0bf 4a99 81be
00000030: 7cef 11c0 0e43 3c3f 25eb bcbf 78c8 7ebf
00000040: 84ad 5ebb 0f38 003e 2556 94bf 24f6 8dbe
00000050: 5b69 623f 433b 5e3d aa02 e4bd cd6a 72bb
00000060: c482 ba3d 7716 81bd d7ec f53e 19bf c73e
00000070: a00d c7be ff6a 0ebd 284f 4b3d d9ac 74bf
00000080: c350 0c3e d522 53bf 8f6a d5be f0f4 bfbc
00000090: 31d2 8d3e 8e94 e03c b2f0 093f 83eb 013f
000000a0: 68c3 a6be 4bc4 a0be 0f0c b9be f09f 733e
000000b0: 1ee4 b63e df80 833f b11b 933e d638 0640
000000c0: 04ea 043f f71a 68c0 8ba1 413e 4202 8a3e
000000d0: 20a0 7c3b 91fd cc3f 8e23 1fbf fd82 ad3c
000000e0: 6b0d 92be 5d89 44be b2b3 783d 5a78 9e3e
000000f0: 172d 39bd e508 0d3f ea27 7c3e f2ff c9bf
00000100: 2b37 793e dd38 2f3c dcf8 c4be 023c 56bf
00000110: b75f 5b3e 412f d5bd 83f0 f93e 6659 9dbf
00000120: 2325 27be a699 4ebf 21c3 33bf 21b8 823c
00000130: dddb ebbf 8bef 7f3e 4151 1dbf 0877 86ba
00000140: 4257 be3e 89ad 253e 87bd 40bd 8749 823e
00000150: 0d7f bdbe 5a8c 223d 3987 4e3e 37fc a13f
00000160: 1cf9 6ebd 4c84 f6be 2410 84bf d150 31bf
00000170: 4b09 ac3e 70dd 84bd d125 59bd ad37 49bf
00000180: b953 fbbe 9f81 bf3d 80f1 7bbe a55b 70be
00000190: c095 593b f508 023f a6f0 94bc 8b33 75bf
000001a0: 230d 9abc 075e f6bf d503 bf3b 18aa 18bd
000001b0: e290 313e 071c 36c0 28b6 31bf 7995 7cbd
000001c0: bab1 fcbe b322 b7bf e3cd 9b3d cbf2 3abc
000001d0: fd2d 903d 3c79 8cbe f140 123f 50aa e0bf
000001e0: 38fa 0b3f 1eb3 cd3e bd2a b53d 5431 19be
000001f0: dcd7 b7be db05 35bd 8c48 a2bf 8f32 9fbe
00000200: 4212 8c3d 721c 98bd 7fe7 c4bf 6ab0 a93f
00000210: 165e cebd fa50 36bf ea73 033f e575 ea3f
00000220: a426 8abe 6a5e 8abe 6547 a9bf e7ec d2bd
00000230: adca 00c0 723e 963e 1c95 0c3e ab3c 6e3f
00000240: bea9 993d e953 55bb f3df 62bd f34b 653e
00000250: b1e9 7bbf ecca 9fbc f36e 3b3f 13b2 d3bd
00000260: 0594 ad3d 0e72 ea3c 06b6 30be 5126 b1bf
00000270: 70c7 16bf 3ee6 06bc fdca c63e aeb4 0bc0
00000280: e694 393f bbf4 70bf 4021 97bf 7b00 d03e
00000290: e999 a03e 2b79 b03b 5866 5c3f 2c23 a2bf
000002a0: 7424 a0be d300 ea3e 9609 25be 149f 5dbd
000002b0: 378b 7b3e 20ac 0b3f 1a31 c7ba 2984 1bbf
000002c0: 8266 11bc 5dd6 9abf e028 183f 04a8 2a3f
000002d0: d673 23ba 60a2 a7be 4795 a1be 6a21 26bd
000002e0: 2265 24bf 6384 05bf 323c 3cbd 51b1 01bf
000002f0: 08a7 de3c 28d6 a4bd e09e c5bf 30c6 94bf
00000300: 8e74 7a3e a900 b6be ff96 8bbf 1018 79bf
00000310: 93a5 1d3e 5569 433d 38e3 253f 8033 61bf
00000320: 658d 3cbd cfa9 c9bf e28c 433e b3f5 053d
00000330: 548a e63e 4d8a e23e 164d cabd 45c1 e83b
00000340: 8f80 83bf 5039 a43f e952 fdbe dc3c bf3e
00000350: f4a8 6a3e 60df fa3a c7ca 15bf 71db 88bf
00000360: 2769 70bd 32c0 9dbe 83f2 76bf c9f4 7dbf
00000370: ffca 653e 3e72 253d 48af a53d e699 6e3e
00000380: 02dc b03e f7f4 e53d cb05 6dbe 6836 8e3e
00000390: c810 5f3c c28b e13f 0122 9cbd e765 fdbe
000003a0: dc79 323d 881a 2ebf 9752 803f 5dad 033d
000003b0: 8e93 0bbd 1e9f 993f 0419 99bf 9ce7 3e3d
000003c0: 27a9 2a3f 87e8 c3bf c4fa 34bd 4c38 0b3e
000003d0: 8a74 603d 8818 1fbf 838c 023f bb9b 9b3e
000003e0: 1795 22bf 95dd a03e 8b73 803f bb79 54be
000003f0: 9f8b f1bf 7c01 52bf 4655 f43e 1962 0bbf
0.062464762 0.056764316 -1.4063213 -1.3403935 -0.02332072 0.19288382 -0.26201054 -1.3185543
-0.7070185 0.073274925 -1.5000277 -0.25312263 -2.280242 0.7353982 -1.475926 -0.9952464
-0.0033977935 0.12521385 -1.1588789 -0.27726853 0.8844201 0.054255735 -0.11133321 -0.0036989928
0.09106973 -0.06303113 0.48032257 0.39012983 -0.38877583 -0.03477001 0.049636036 -0.95576245
0.13702683 -0.82475024 -0.4168286 -0.023432225 0.27699426 0.027414586 0.53882897 0.5074999
-0.32570958 -0.3139976 -0.36142012 0.2379148 0.35720915 1.0273703 0.28732064 2.097219
0.5191958 -3.6266458 0.1890928 0.26954848 0.003854759 1.6014882 -0.6216363 0.021180624
-0.28525862 -0.19193025 0.060718246 0.30951196 -0.045209017 0.55091697 0.24624601 -1.5781233
0.24337451 0.01069471 -0.38471115 -0.83685315 0.21423231 -0.104094036 0.48816308 -1.2292907
-0.1632276 -0.807032 -0.7021962 0.01595694 -1.8426472 0.24993722 -0.6145211 -0.0010258863
0.37175947 0.1617948 -0.047055747 0.25446722 -0.37010995 0.03968463 0.20168771 1.2655095
-0.058343038 -0.4814781 -1.0317426 -0.6926394 0.3360084 -0.06487548 -0.05301458 -0.7860058
-0.49087313 0.09350895 -0.24603844 -0.2347246 0.003320083 0.5079492 -0.018181156 -0.95781773
-0.018805092 -1.9247445 0.0058293142 -0.03727159 0.17340425 -2.8454607 -0.69418573 -0.061665986
-0.49354345 -1.4307464 0.07607629 -0.011410425 0.070400216 -0.27436244 0.5713034 -1.7551975
0.5467868 0.40175718 0.08846042 -0.14960223 -0.35906875 -0.044195037 -1.267839 -0.3109326
0.0683942 -0.074273005 -1.5383147 1.3256962 -0.10076539 -0.7121731 0.51348746 1.8317229
-0.26982605 -0.27025157 -1.3224913 -0.10299092 -2.0123703 0.29344517 0.13728756 0.9306132
0.07503079 -0.0032551235 -0.055389356 0.22392254 -0.9840346 -0.01950594 0.7321617 -0.10336699
0.08475498 0.028618839 -0.17256936 -1.3839818 -0.5889807 -0.008233605 0.38826743 -2.1829028
0.72492826 -0.9412343 -1.1807022 0.40625367 0.31367424 0.005385538 0.86093664 -1.2666984
-0.31277812 0.45703754 -0.16116938 -0.054106787 0.24564825 0.54559517 -0.0015197129 -0.60748535
-0.008874537 -1.2096668 0.5943737 0.6666262 -0.00062352174 -0.3274107 -0.31559202 -0.04055921
-0.64216816 -0.5215513 -0.045955844 -0.5066119 0.027179256 -0.080486596 -1.543911 -1.1622982
0.24458525 -0.3554738 -1.0905455 -0.9730234 0.15395193 0.047707874 0.64799833 -0.8796921
-0.04603328 -1.5754946 0.19096711 0.03270502 0.4502741 0.4424614 -0.09877984 0.0071031176
-1.0273608 1.282999 -0.49477318 0.3735112 0.22916013 0.0019140057 -0.5851254 -1.0691968
-0.05869403 -0.30810696 -0.96463794 -0.9920164 0.22440718 0.040392153 0.08090073 0.23300895
0.34542853 0.11228364 -0.23146741 0.27775884 0.013614841 1.7620776 -0.07623673 -0.49491808
0.043573245 -0.68009233 1.0025204 0.032147754 -0.034076266 1.2001684 -1.1960759 0.0466076
0.66664356 -1.5305337 -0.04418446 0.13595694 0.05479864 -0.62146807 0.50995654 0.3039225
-0.63508743 0.31419054 1.0035261 -0.20749561 -1.8870734 -0.82033515 0.47721308 -0.5444656

fc2.bias f4 [128]
00000000: eef1 6bbc 8a37 05be 3f0a 01bd dfe3 cb3e
00000010: cca4 cebd fb52 24be a049 27bd 6aba 04be
00000020: a07c b63d 6328 8fbd 7410 363c 4d9a c1be
00000030: 09ce 143f 4812 cb3f 3c75 113e 2536 2bbe
00000040: 088a 9c3e 302a a33f 0f53 58bd 6ae2 d3bd
00000050: 2e2e bd3f eb79 f6bd 0403 71bf 79ed 3fbe
00000060: 1504 1c3f d7a3 99bd 9299 433f c888 1b3f
00000070: ef65 12be 5a22 c6bd 14f3 093f fb07 933f
00000080: 2dd5 2c3f b1d1 3f3f 36dc cd3c e28e 0cbf
00000090: c96c 78be 4911 e1bd a8ef 8e3f 21d9 fbbb
000000a0: f071 60be 7325 333f 6795 823d 1e19 d03e
000000b0: f5eb 693d 0a1e 7bbd 233d 9f3f e125 3f3f
000000c0: 3c8c a03f 0424 9fbe 9065 3abd 70a9 8dbd
000000d0: 4256 363e 738a 4cbe b7d0 073f cbe2 c9bc
000000e0: 42ff ac3e 34cb 2ebc 04e6 cabe 7d2d a1bd
000000f0: 5d2d acbe 8ff4 84be b2af 0d3f 3349 a73f
00000100: b596 0fbe b1a4 c93d e884 a2be 78f7 a8bd
00000110: 5594 30be 4f6b 833e 1905 18be 2db2 2abd
00000120: 7ae7 f1bd a396 35bf 0a1d b6bd ff62 a23e
00000130: 3e50 18be c23f eabd 933c b8bd 2070 b43d
00000140: 5184 003f 7aae 2dbf f9fe 853f ca93 0e3f
00000150: 3ff9 fe3d 57b8 08be e4da 273f 6d1e c73d
00000160: 8eae 6f3e 3edb 8d3e efd8 ab3d 107e 3c3f
00000170: 9466 55be 9f65 9d3e 0710 1dbe 734d 973f
00000180: cb20 663f 5c48 95bc c5a3 39be 5612 46bd
00000190: b051 c2b9 1d53 013f f891 333f 6ab6 613e
000001a0: 04ff 683f 4298 f1bd 3cf4 c13e 0642 473f
000001b0: 6adb fd3e f510 293e 98ea b23e 2dbb 38bf
000001c0: bbb3 833c 6806 063e cd95 b63c c443 263f
000001d0: 67f3 0ebf 9ed5 b63d 7d61 df3e 239e 11be
000001e0: 6435 243f 1416 92bd d2b9 27bc e1a0 6ebd
000001f0: 099b 703f 0daa 1dbf 0338 19be 1f17 dfbd
-0.014400942 -0.13009468 -0.031503912 0.3982229 -0.10090026 -0.1604728 -0.0408417 -0.12961736
0.08910489 -0.06990125 0.011112321 -0.37813035 0.58126885 1.5864954 0.14204878 -0.16719873
0.3057406 1.274725 -0.052813586 -0.103459194 1.4779718 -0.12034973 -0.94145226 -0.18742932
0.6094373 -0.07501953 0.76406205 0.60755587 -0.14296697 -0.09674521 0.5388653 1.148681
0.6751278 0.7492934 0.025129419 -0.5490552 -0.24260248 -0.10989625 1.1166887 -0.007685796
-0.21918464 0.6997902 0.063761525 0.40644163 0.05710979 -0.061307944 1.2440532 0.74667174
1.2542796 -0.31082165 -0.045507014 -0.06917083 0.17806342 -0.19974689 0.5305285 -0.024644276
0.33788496 -0.010668565 -0.39628613 -0.07870004 -0.3362836 -0.25967833 0.55346215 1.3069214
-0.14022334 0.098458655 -0.31742024 -0.08250326 -0.17244084 0.25667807 -0.14845695 -0.041673828
-0.11811729 -0.7093298 -0.088922575 0.31716153 -0.1487436 -0.11437942 -0.089959286 0.08810449
0.502019 -0.67844355 1.0468436 0.5569426 0.12449884 -0.1335157 0.65568376 0.097226
0.23406431 0.2770633 0.08390986 0.73629856 -0.20839912 0.30741593 -0.15338145 1.1820511
0.8989379 -0.01822298 -0.1812888 -0.04835733 -0.00037063425 0.50517446 0.70144606 0.22042242
0.9101412 -0.11796619 0.3788165 0.7783512 0.49581462 0.16510375 0.34944606 -0.7216061
0.016076913 0.13088381 0.022288227 0.6494715 -0.5584015 0.08927463 0.43629065 -0.1422048
0.6414397 -0.07133117 -0.010237174 -0.058258895 0.93986565 -0.615876 -0.14962773 -0.10893082

fc3.weight f4 [2, 128]
00000000: bc5d 703f 9c2a 493f 95db bfbc c449 adbf
00000010: 71f4 3740 d654 36bf 5877 98bd 142b 873d
00000020: 7db1 60bf af7c afbc afab 24c0 c8db 5d3f
00000030: cae4 8c3e a909 d8bf 5189 873f 8f20 aabd
00000040: a944 723f 6c0c 23c0 b5b2 313f 3ddd 153d
00000050: b982 53bf f304 6cbb bf03 b93f 9ac1 bc3f
00000060: c179 57c0 3c94 4b3c 9233 6fbf 1575 9bbf
00000070: 9930 51bf 8e22 ce3c a58e 1a3f dfa8 85bf
00000080: 7e3c 473f ffd9 b43e 1503 98bc 495c 873f
00000090: 58a5 2140 6e4d 063c 727b 023f 8755 8e3d
000000a0: 1f2f b73f c92d 47c0 8c3b 09c0 65ac 1f3f
000000b0: 2d8a b23f d1f6 ecba 6714 97bf c64b 0f3f
000000c0: 05d3 d0bf 20ed 31bf b104 c13c 0943 3cbd
000000d0: 116c 58bf 34c7 b03f 2929 7dbf 6356 1240
000000e0: d7e1 003f 4009 873f 335b 60c0 d832 faba
000000f0: 515d 36bd 8414 de3c a359 9d3e e56d 043f
00000100: fe48 fbbc 5c08 cc3f 8459 a8bf ccae 94bc
00000110: 091e f93c c6d1 8d3f db22 82bc 0834 81bb
00000120: e0e3 e9bc 7c56 36bf 5f09 683d f06f 2d3f
00000130: c7ac 363d fd80 53bf d9ed 80bc 2996 bbbf
00000140: 750a 193f 3041 dc3e 6f0d 0f3f 479a 933f
00000150: c83f 1f40 deee da3f 6bc6 403f 6805 5dc0
00000160: b403 343f 8297 733f 9b66 403f 77fa 9fc0
00000170: 6d5c b03f bd8c 0c40 10fc 86bc c7c0 1bc0
00000180: 8325 203f e1cd 3a3c 4120 ba3c 429d 78bc
00000190: 0f1b 9c3f 8af8 573f a902 06c0 c8f6 543f
000001a0: 30d5 973f 8958 db3c 2ca8 a1bf c44f fc3e
000001b0: 7f11 3ec0 a31d 63bf 558a 293f 0b59 aa3e
000001c0: 28b4 ba3f 4446 3840 09e7 02bc 446c 50bf
000001d0: f89e 6ebf 5bea 5940 ac99 a73e 4864 bdbc
000001e0: c67a 0bbf 12a1 ea3f b9e0 92bb 53c9 d2bc
000001f0: 1c00 ffbf c3f9 dd3f cfbb 3a3c 7e20 233c
00000200: d38f 573f 0796 da3e eb8c e0bc 369e a3bf
00000210: 2cac 2a40 1bd8 9fbf 8ca7 193c 1e3b 153c
00000220: ae1e 01bf 4810 d53d 8fc8 f4bf 4191 1d3f
00000230: b80f 403f 1e1a a3bf 54de 5f3f f586 6f3c
00000240: c972 4c3f c509 62c0 d14e 943f c881 3f3d
00000250: 76e8 d5bf 12c8 243d b3dc d63f 4570 23c0
00000260: 1686 febf 68ef 153b 4ced 4bbf ec81 91bf
00000270: ee3c 7cbf 8375 9f3a 7ede c73e c305 aabf
00000280: 414a 2e3f 35f1 883e 569f 843d d54c 41be
00000290: 6ab2 18c0 fb78 bf3d 1d84 cb3e 89a6 d53f
000002a0: 0c28 a13f 6bf8 c8bf 45bf 0d3d e46c bc3f
000002b0: e50d 663f 17c5 aebb db1e c1bf d568 7f3f
000002c0: 6c88 ccbf b75e 2bbf bf85 6dbb 0cb9 2f3d
000002d0: 6406 a9bd 5bee e23e 780d 9cc0 fdee eb3f
000002e0: c320 293f 1734 e23f 570c 3740 b4af 22bb
000002f0: b27e 803f d6c8 4b3c b0a0 8d3f 4a8e 2c3f
00000300: 037e f63c 8128 9c3f 2b29 a9bf a8f7 863b
00000310: 96db d2bd dbbc 873f 798e 093d dd4a 113d
00000320: 9907 5dbc 3bea 40bf 2eae 7d3d 84df 223f
00000330: 6210 403c 0d85 7b3f 2b51 273d 2bcf 5740
00000340: d7e1 4f3f e4d0 283f d7ae 153f 9ef3 883f
00000350: a7ca 00c0 c476 11c0 323e 513f 4a05 9dbb
00000360: 9659 a43e fd33 623f 0c2c 7e3f 4ecc debf
00000370: ccfd ac3f 48bc 2e40 68a3 693c 73ae 94bf
00000380: 4df2 a53e e209 893c 6dd1 ca3d 1242 ef3d
00000390: ff4e 0540 504f 673f fdb9 0dc0 5dec b33f
000003a0: 0fb5 a33f 1dec 50bb 2563 07bf 3df6 123f
000003b0: e9e1 1dc0 93ab 483f 5e03 bf3e 1d95 fcbe
000003c0: 8395 c73f 6b64 0e40 4362 17bd c333 2ebf
000003d0: 89e0 11bf 947a dbbf 91b8 343e 4ec4 183d
000003e0: a8e4 08c0 f950 d83f df96 383d e4fa 57bc
000003f0: 2253 e8bf 868d 22c0 f4c5 60bd e726 c7bc
0.9389303 0.7858064 -0.023420135 -1.3538136 2.8742945 -0.712232 -0.07444638 0.066000134
-0.87770826 -0.021421758 -2.5729787 0.86663485 0.27518302 -1.6877948 1.0588781 -0.08306991
0.9463602 -2.5476332 0.6941331 0.036587942 -0.8262134 -0.0036013692 1.4454268 1.4746583
-3.3668063 0.012425479 -0.93438065 -1.2145106 -0.8171478 0.025162961 0.6037391 -1.044216
0.7782668 0.35322568 -0.018556157 1.0575038 2.5257168 0.008197172 0.5096961 0.06949907
1.4311255 -3.1121695 -2.1442595 0.6237243 1.3948418 -0.0018078928 -1.1803101 0.55974996
-1.6314398 -0.6950245 0.023561807 -0.045962367 -0.84539896 1.3810792 -0.9889093 2.2865226
0.50344604 1.0549698 -3.5055664 -0.0019088639 -0.044522587 0.027109392 0.3073245 0.51730186
-0.030674454 1.5940051 -1.3152318 -0.018149756 0.03040983 1.1079643 -0.015885761 -0.00394297
-0.028551042 -0.71225715 0.056649562 0.6774893 0.044598367 -0.82618695 -0.015738415 -1.46552
0.5978158 0.43018484 0.55879873 1.1531457 2.488268 1.7104146 0.7530276 -3.453455
0.7031815 0.9515306 0.75156564 -4.9993243 1.3778206 2.19609 -0.016477615 -2.4336412
0.6255724 0.011401624 0.022720458 -0.015174212 1.2195758 0.84363616 -2.0939124 0.8318906
1.1861935 0.026775615 -1.2629447 0.49279606 -2.9698179 -0.887171 0.662267 0.3327106
1.4586229 2.8792887 -0.007989653 -0.814152 -0.9321132 3.404929 0.3273443 -0.023119107
-0.5448421 1.8330405 -0.0044823554 -0.025730764 -1.9921908 1.7341846 0.011397316 0.009956477
0.84203833 0.42692587 -0.027410945 -1.2782657 2.6667585 -1.2487825 0.009378325 0.009108333
-0.5043744 0.10403496 -1.9123706 0.61549765 0.75023985 -1.2742345 0.8744862 0.014619579
0.7986265 -3.5318463 1.1586553 0.04675463 -1.6711566 0.040229864 1.6786102 -2.5537274
-1.988467 0.0022878293 -0.7965896 -1.1367774 -0.9853047 0.0012165759 0.39036936 -1.3283008
0.6808205 0.26746526 0.064757034 -0.18876965 -2.3858895 0.09349247 0.39749232 1.6691447
1.2590346 -1.5700811 0.034606237 1.4720731 0.8986495 -0.0053335535 -1.5087541 0.99769336
-1.5979133 -0.669414 -0.003624305 0.042901084 -0.08253172 0.44322476 -4.876644 1.8432308
0.66065615 1.7672147 2.8601282 -0.0024823966 1.0038664 0.01243802 1.1064663 0.67404616
0.030089384 1.2199861 -1.3215688 0.0041188784 -0.10295789 1.0604509 0.03358314 0.035471786
-0.013490581 -0.7535741 0.06193369 0.6362231 0.011722656 0.98249894 0.040848892 3.3720195
0.8120398 0.6594374 0.5846991 1.0699346 -2.012369 -2.2728739 0.8173553 -0.0047918903
0.320996 0.8836058 0.9928596 -1.7406099 1.3514953 2.7302418 0.0142601505 -1.1615738
0.32411423 0.016728345 0.09903226 0.11682524 2.0829465 0.90355396 -2.2144768 1.4056507
1.278963 -0.0031879016 -0.5288566 0.5740698 -2.4669135 0.783868 0.37307256 -0.49332514
1.5592502 2.224879 -0.036958944 -0.6804773 -0.5698324 -1.7146783 0.17648531 0.037296586
-2.138956 1.6899711 0.045065757 -0.013182376 -1.815037 -2.539888 -0.054876283 -0.024310542

fc3.bias f4 [2]
00000000: 08e9 083f b8a4 d63e
0.5348058 0.41922545
