checkpoints/dqn_episode_500.pth (torch, 343593 bytes, 24 tensors)

fc1.weight f4 [128, 31]
-0.09744403 -0.07499303 -0.028388903 -0.0904782 0.019525586 -0.042784978 -0.22190244 0.07219425
-0.035783954 0.1116533 -0.23253433 -0.15383 0.1632797 0.10081693 0.092160545 0.09864942
-0.057880968 -0.09832543 -0.010416854 -0.20608722 -0.004541064 0.053777296 -0.07690999 0.063764855
-0.020565042 0.0804837 0.08272738 0.06762819 0.02256878 0.016819915 -0.07448603 -0.14976372
-0.19231257 -0.09681598 -0.19755411 -0.004819947 -0.037671633 -0.10582221 0.0829983 0.004004256
0.0060370266 0.0693355 -0.1805018 0.0484596 0.082927845 0.054641914 -0.050066534 0.100421235
0.14658788 0.0075170225 0.07715208 -0.1196645 0.081181325 0.10604859 -0.06376234 0.044753894
-0.025640802 0.005287435 -0.053520557 -0.010245991 0.1548277 -0.16673048 -0.20315555 0.57580715
0.13656363 -0.097621 -0.3936359 -1.4465024 0.71426284 0.5125396 -0.7592986 1.963134
-0.47915438 0.09811833 0.51379806 -0.7551746 0.024122393 -0.015925467 0.08932275 -0.36452797
0.7690379 -0.108789414 0.44211727 -0.17348503 0.49967766 -0.02891897 0.5515871 -0.39390004
-0.2180268 -0.013487857 -0.1676254 0.48706347 0.40305975 0.03610581 0.23573561 0.03191869
-0.10336038 -0.03801164 0.13026573 0.114971556 -0.15854153 0.06287944 0.23255673 0.21678261
-0.45424065 -0.20247991 0.18538637 -0.0083870385 0.06804017 0.0019824745 0.026257798 -0.0038361158
0.02014999 2.7700822 1.9272932 -3.6138453 0.20978059 2.159024 0.5244527 -0.6820085
0.07903332 1.3433316 -0.25851378 -0.20277931 -0.2516285 -0.17965725 0.065591246 0.02755698
-0.11913344 -0.1480866 -0.098374516 -0.019444391 -0.15975867 0.27231508 0.08783523 -0.16657732
-0.18249199 -0.07966719 0.056215324 0.09738597 0.19983536 0.1931063 0.10929224 -0.13260841
0.20878375 -0.028522065 0.15225793 -0.006691923 -0.03623672 0.18216951 -0.13557184 0.041848317
-0.06589977 -0.0509776 -0.02616849 -0.32263696 -0.08980194 0.1290133 -0.27979946 1.7790977
1.5690002 -0.29420248 -0.245991 -0.91753066 2.0473967 1.7095495 -0.005451159 0.082139745
-0.0732207 -0.109931186 0.121432 0.39825636 0.6252555 0.15114036 -0.20121534 0.14386797
0.7065371 0.6316945 0.0022755673 0.2820252 0.6793403 -0.13841228 0.018709227 0.3414855
1.1127622 0.410651 0.21342391 -0.30220073 0.124043286 0.31122524 -2.2127879 -0.18064936
0.68172795 0.56727767 -0.19415592 0.39438316 -0.5455914 0.36817998 0.18350783 0.8504752
1.1300676 0.671264 -0.3461241 0.6168569 1.0638136 0.550862 0.26488516 0.6580125
0.4686771 0.4425028 0.4519696 -0.12515962 0.5939077 0.42981094 0.042523257 0.50758123
0.6380153 -0.16437402 -0.22467026 0.1713545 -0.07308744 1.9315199 -1.6942188 -0.23228645
-0.32668337 -0.13929415 -1.481749 1.8700814 -0.06844004 0.6636814 -0.28660128 0.12574048
-0.0549836 -0.30638415 -0.50520575 1.3646003 0.225791 0.027083399 -0.14534183 0.2056528
-0.028947638 -0.419838 1.2626569 -0.05101235 0.006645741 0.31273213 0.08813669 -0.2329733
0.138294 -1.191196 -0.03495194 0.17091344 -2.6824486 0.6925485 0.36931723 0.085602075
00000000: bc90 c7bd f295 99bd d88f e8bc a24c b9bd
00000010: 1ff4 9f3c 4d3f 2fbd 653a 63be 94da 933d
00000020: 3292 12bd 7caa e43d 7b1d 6ebe 9d85 1dbe
00000030: cb32 273e 1b79 ce3d abbe bc3d b508 ca3d
00000040: 9814 6dbd d85e c9bd 74ab 2abc 8708 53be
00000050: 35cd 94bb 9545 5c3d fc82 9dbd 2697 823d
00000060: 0578 a8bc a3d4 a43d f96c a93d a680 8a3d
00000070: 2ae2 b83c ebc9 893c 228c 98bd a95b 19be
00000080: 96ed 44be 7547 c6bd a04b 4abe a5f0 9dbb
00000090: 924d 1abd 51b9 d8bd 03fb a93d 2236 833b
000000a0: 40d2 c53b c5ff 8d3d 77d5 38be 937d 463d
000000b0: 13d6 a93d 33d0 5f3d 9112 4dbd a6a9 cd3d
000000c0: 221b 163e 5b51 f63b e901 9e3d a912 f5bd
000000d0: 6542 a63d 0130 d93d d495 82bd dc4f 373d
000000e0: a90c d2bc 3842 ad3b 5f38 5bbd cdde 27bc
000000f0: 278b 1e3e 65bb 2abe 0208 50be 1968 133f
00000100: 56d7 0b3e 85ed c7bd a58a c9be fe26 b9bf
00000110: eed9 363f cc35 033f 6561 42bf fa47 fb3f
00000120: b953 f5be 43f2 c83d 4588 033f 1f53 41bf
00000130: 539c c53c 2076 82bc d9ee b63d 69a3 babe
00000140: abdf 443f fccc debd 325d e23e 0fa6 31be
00000150: c0d5 ff3e 7ae7 ecbc d034 0d3f 44ad c9be
00000160: 6b42 5fbe 2cfc 5cbc fea5 2bbe 6260 f93e
00000170: d95d ce3e b0e3 133d ad64 713e 2cbd 023d
00000180: 9bae d3bd 18b2 1bbd 6164 053e 3576 eb3d
00000190: b658 22be f0c6 803d 5a23 6e3e 43fc 5d3e
000001a0: 3b92 e8be e556 4fbe edd5 3d3e ca69 09bc
000001b0: a558 8b3d 67ec 013b 981a d73c 5867 7bbb
000001c0: 9811 a53c 0749 3140 8bb1 f63f 3e49 67c0
000001d0: b9d0 563e 732d 0a40 8842 063f 1c98 2ebf
000001e0: 39dc a13d 4af2 ab3f eb5b 84be 61a5 4fbe
000001f0: 73d5 80be 12f8 37be b454 863d 2dbf e13c
00000200: 3cfc f3bd 03a4 17be 9478 c9bd d849 9fbc
00000210: c797 23be e26c 8b3e f5e2 b33d 3f93 2abe
00000220: 2edf 3abe 8d28 a3bd 0a42 663d 4c72 c73d
00000230: a4a1 4c3e a8bd 453e 9cd4 df3d 80ca 07be
00000240: 68cb 553e 1ba7 e9bc 81e9 1b3e eb47 dbbb
00000250: f46c 14bd a58a 3a3e 58d3 0abe 2469 2b3d
00000260: 75f6 86bd e3cd 50bd 4d5f d6bc ac30 a5be
00000270: 14ea b7bd 101c 043e e041 8fbe 79b9 e33f
00000280: 00d5 c83f b5a1 96be 11e5 7bbe 4ae3 6abf
00000290: 8c08 0340 85d2 da3f a39f b2bb e238 a83d
000002a0: bcf4 95bd 9a23 e1bd 57b1 f83d 42e8 cb3e
000002b0: bf10 203f 8ac4 1a3e 650b 4ebe 2052 133e
000002c0: 9edf 343f bbb6 213f af21 153b 9b65 903e
000002d0: 3fe9 2d3f f3bb 0dbe 1844 993c 30d7 ae3e
000002e0: fe6e 8e3f d940 d23e cc8b 5a3e 0eba 9abe
000002f0: 680a fe3d ea58 9f3e 519e 0dc0 25fc 38be
00000300: b985 2e3f 1c39 113f cfd0 46be 97ec c93e
00000310: e1ab 0bbf 1682 bc3e 7ae9 3b3e beb8 593f
00000320: 0ea6 903f f5d7 2b3f 2e37 b1be 55ea 1d3f
00000330: 0b2b 883f 4b05 0d3f 079f 873e 8273 283f
00000340: 72f6 ef3e ba8f e23e 8f68 e73e d829 00be
00000350: 560a 183f 2e10 dc3e de2c 2e3d d8f0 013f
00000360: f854 233f aa51 28be f60f 66be 8e77 2f3e
00000370: deae 95bd 0b3c f73f 29dc d8bf 80dc 6dbe
00000380: 0b43 a7be 20a3 0ebe f4a9 bdbf d45e ef3f
00000390: 4b2a 8cbd 06e7 293f 67bd 92be 1dc2 003e
000003a0: 7c36 61bd 62de 9cbe 2a55 01bf 39ab ae3f
000003b0: c235 673e 01de dd3c 7dd4 14be a696 523e
000003c0: 9923 edbc 02f5 d6be be9e a13f 53f2 50bd
000003d0: 84c4 d93b 6d1e a03e 0281 b43d 8e90 6ebe
000003e0: f19c 0d3e 1c79 98bf c429 0fbd ef03 2f3e
000003f0: 3dad 2bc0 dc4a 313f 2617 bd3e 2450 af3d

fc1.bias f4 [128]
-0.15474424 0.057263263 -0.15819111 -0.0914557 -0.07810595 -0.06910649 0.026791764 -0.3252545
-0.07808715 -0.20985495 0.03389317 -0.2937929 -0.2378148 -0.06732133 -0.27843276 -0.11778067
-0.20796753 0.095337205 0.10978505 -0.08546719 -0.22370675 -0.13336484 -0.15097475 -0.15043968
-0.1695514 -0.07520741 -0.08627258 -0.013905833 -0.20403512 -0.09394097 -0.2639433 -0.060481995
-0.14760378 -0.052607555 -0.20288801 -0.44322357 -0.10040328 -0.17642719 -0.23939465 -0.4791406
-0.22543477 0.20250763 -0.19370499 -0.18948853 0.039817277 -0.18348026 0.02771665 0.16417645
-0.18947443 -0.13418385 -0.13433191 0.14572655 -0.0444629 -0.012904842 -0.20906283 -0.093909964
-0.1288028 -0.112653084 -0.083653964 -0.034075323 -0.17192216 -0.060170155 -0.07952476 -0.28099972
0.07253521 -0.19189194 -0.21062955 -0.03506962 0.040840544 -0.11109198 -0.16506183 -0.23888193
-0.16146748 0.0022855538 -0.010800498 0.25727162 -0.16634181 0.04024555 -0.18040931 -0.15113685
-0.17710108 0.04528339 -0.19903032 0.20095798 -0.012962524 -0.20154582 0.13565439 -0.40807968
-0.19832957 -0.29439884 -0.2657203 -0.38135698 0.022211388 -0.14570525 0.08072136 -0.16782103
-0.009635544 -0.021948576 0.009076962 0.12294767 -0.09197291 0.002589991 -0.21431185 -0.2315369
0.06861417 -0.07315443 -0.3336318 -0.17985749 -0.1330967 0.12646194 -0.018257912 -0.058332305
0.14904323 -0.19635782 -0.2719212 0.08917143 -0.048410058 -0.38900578 -0.17347574 -0.14566344
-0.16115807 -0.058696616 -0.083842434 0.099479094 -0.14292155 -0.25062758 -0.17819078 -0.4859136
00000000: 4675 1ebe e28c 6a3d dafc 21be 204d bbbd
00000010: 03f6 9fbd b487 8dbd 677a db3c c287 a6be
00000020: 28ec 9fbd 37e4 56be 91d3 0a3d 066c 96be
00000030: b985 73be c4df 89bd bd8e 8ebe fe36 f1bd
00000040: 71f5 54be 2740 c33d fcd6 e03d 6c09 afbd
00000050: 6213 65be cb90 08be 2099 1abe dc0c 1abe
00000060: e29e 2dbe 5806 9abd aeaf b0bd 4ad5 63bc
00000070: 95ee 50be 2064 c0bd 9423 87be f8bb 77bd
00000080: 7225 17be 057b 57bd e0c1 4fbe 33ee e2be
00000090: 3ca0 cdbd 54a9 34be df23 75be eb51 f5be
000000a0: 5fd8 66be 295e 4f3e 9a5a 46be 4809 42be
000000b0: 7117 233d 40e2 3bbe 070e e33c df1d 283e
000000c0: 9605 42be 7e67 09be 4e8e 09be 5739 153e
000000d0: bb1e 36bd d56e 53bc 9114 56be de53 c0bd
000000e0: e2e4 03be a9b6 e6bd c552 abbd 9192 0bbd
000000f0: 5d0c 30be fb74 76bd e1dd a2bd 32df 8fbe
00000100: 578d 943d 527f 44be 46af 57be 29a5 0fbd
00000110: 6a48 273d 3184 e3bd f805 29be 779d 74be
00000120: bb57 25be 3bc9 153b 92f4 30bc 1bb9 833e
00000130: 8255 2abe 85d8 243d 38bd 38be 9ec3 1abe
00000140: fc59 35be 137b 393d 9bce 4bbe eec7 4d3e
00000150: c460 54bc 0762 4ebe fce8 0a3e d2ef d0be
00000160: e816 4bbe 72bb 96be 7e0c 88be 3941 c3be
00000170: a8f4 b53c c233 15be 3e51 a53d 47d9 2bbe
00000180: 67de 1dbc 80cd b3bc 8ab7 143c fdcb fb3d
00000190: 4b5c bcbd d7bc 293b 9174 5bbe 0218 6dbe
000001a0: 9685 8c3d fdd1 95bd cad1 aabe 902c 38be
000001b0: 804a 08be 3d7f 013e 9e91 95bc dbed 6ebd
000001c0: ca9e 183e 0612 49be 4139 8bbe 839f b63d
000001d0: a049 46bd c42b c7be a0a3 31be cc28 15be
000001e0: 9f06 25be dd6b 70bd 95b5 abbd b2bb cb3d
000001f0: 075a 12be 4252 80be a577 36be abc9 f8be

fc2.weight f4 [128, 128]
0.062464762 0.056764316 -1.064708 0.51321167 -0.02332072 -0.554532 -0.31489554 -0.119443454
-0.4981614 0.75859 -1.5920242 -0.25312263 -2.1296935 0.60062146 -0.6117409 -0.051574714
-0.0033977935 0.27067128 -0.013159367 -0.20732123 0.29547334 0.054255735 0.1174916 0.22775793
0.09106973 -0.06303113 -0.028188672 0.6209312 0.21706407 -0.03477001 -0.49201268 -0.83280873
0.28018364 -0.21986505 0.34083214 0.15890838 0.2917938 0.027414586 0.07501499 0.34346753
0.028678214 0.097828194 0.12741631 -0.13891545 0.27445713 0.32226184 0.31286862 0.585852
-0.02582334 -2.3617303 0.7291602 0.20898147 0.003854759 0.4152646 -0.22873789 0.2022933
-0.015311758 0.46867537 -0.17488138 0.6035002 -0.045209017 0.38893133 0.019179078 -1.6152217
0.29762402 0.01069471 0.022343207 -0.28040355 -0.1418658 -0.104094036 0.3942506 -0.5647965
-0.19299708 -1.1408632 0.22812869 0.07063407 -0.52750754 0.67411214 -0.53644603 -0.0010258863
0.4409218 -1.0023267 0.32213792 -0.006240006 -0.32602867 0.061474066 0.13081138 0.29878193
-0.058343038 0.10982442 0.01871589 0.23157169 0.5332431 -0.06487548 -0.05301458 -0.4424662
-0.24298471 -0.70259404 0.035264306 0.20261435 0.003320083 0.64693904 0.20260993 -0.4349517
-0.018805092 -0.63941467 -0.31635964 -0.03727159 0.61054695 -0.34166473 0.2698322 -0.061665986
0.62986594 -1.5247169 0.07607629 -0.07548828 0.070400216 -0.29942712 0.4961848 -0.8155718
0.71159494 0.3003378 0.31702015 0.62782174 -0.2732471 0.28512526 -0.8064043 -0.22341217
0.0683942 -0.074273005 -1.3208067 0.55912465 -0.10076539 0.06765709 0.45989674 0.8707669
-0.0052999766 -0.850896 -0.98831314 -0.10299092 -1.3590536 0.4644214 -0.3757835 0.5487525
0.07503079 0.14925602 -0.6137964 0.109377064 -0.34185225 -0.01950594 1.2596278 -0.011488555
0.08475498 0.028618839 -0.068322085 -1.2053809 0.049735427 -0.008233605 0.0861094 -0.5108549
0.2778755 -0.3542619 -0.3979236 -0.07818468 0.2543036 0.005385538 0.3147324 0.5376254
-0.055422563 0.2166851 -0.20628284 -0.08060046 0.32502034 0.03561177 0.15748401 -0.38587573
-0.51615685 -1.236254 0.4479388 0.62388605 -0.015795667 0.3246453 -0.21784964 0.36799115
-0.4449836 -0.8024459 0.14576125 -0.9425842 0.027179256 -0.04736703 -0.98847115 -1.5500528
0.40467575 -0.3554738 0.06530147 -0.019540684 0.2543085 0.047707874 0.32507297 -0.27109987
-0.07575336 -1.628111 0.46156144 0.2968068 0.94362056 0.35937837 -0.26946047 0.0071031176
-0.12684502 0.71459484 -0.25621364 0.1442247 0.3892164 0.01787089 -0.22614838 -0.5908607
-0.05869403 -0.06534422 0.34255007 0.15366031 0.47613755 0.040392153 0.08090073 0.038902298
0.2554903 -0.16292576 -0.055170216 0.87906265 0.013614841 0.29417363 -0.0642413 -0.1851263
0.043573245 -0.77803844 0.71089137 0.032147754 -0.6027889 0.092755824 -1.3983729 0.0466076
0.44188997 -2.1189928 -0.04418446 0.2695165 0.05479864 -0.7961971 0.09854767 0.716036
0.20552029 0.56207454 -0.053516254 0.43895188 -1.2901831 -1.2726101 0.29208696 -0.5441146
00000000: 0ddb 7f3d b381 683d 5a48 88bf d761 033f
00000010: 180b bfbc cff5 0dbf fd39 a1be c59e f4bd
00000020: 030f ffbe f432 423f 73c7 cbbf 4a99 81be
00000030: e64c 08c0 54c2 193f 0d9b 1cbf 0240 53bd
00000040: 84ad 5ebb 6d95 8a3e 639a 57bc 044c 54be
00000050: 4848 973e 433b 5e3d 709f f03d 6039 693e
00000060: c482 ba3d 7716 81bd eeeb e6bc 59f5 1e3f
00000070: 0b46 5e3e ff6a 0ebd 16e9 fbbe f432 55bf
00000080: 3b74 8f3e 4e24 61be 8d81 ae3e e1b8 223e
00000090: ff65 953e 8e94 e03c 76a1 993d fada af3e
000000a0: 93ee ea3c 265a c83d 6c79 023e da3f 0ebe
000000b0: a585 8c3e 81ff a43e 5130 a03e 66fa 153f
000000c0: 788b d3bc 9726 17c0 3eaa 3a3f 3dff 553e
000000d0: 20a0 7c3b 909d d43e 443a 6abe fa25 4f3e
000000e0: 2bde 7abc 38f6 ef3e 1b14 33be fd7e 1a3f
000000f0: 172d 39bd 0222 c73e 711d 9d3c 96bf cebf
00000100: 2d62 983e dd38 2f3c 1a09 b73c 0e91 8fbe
00000110: 4545 11be 412f d5bd 37db c93e 8196 10bf
00000120: 07a1 45be ce07 92bf 919a 693e 98a8 903d
00000130: bc0a 07bf 9d92 2c3f 8754 09bf 0877 86ba
00000140: 81c0 e13e 3e4c 80bf 43ef a43e f778 ccbb
00000150: 3bed a6be 3bcc 7b3d 6bf3 053e f2f9 983e
00000160: 1cf9 6ebd a0eb e03d 1152 993c 2121 6d3e
00000170: 9f82 083f 70dd 84bd d125 59bd ee8a e2be
00000180: fcd0 78be 34dd 33bf 4e71 103d 237a 4f3e
00000190: c095 593b cc9d 253f fa78 4f3e fdb1 debe
000001a0: 230d 9abc aeb0 23bf e4f9 a1be 18aa 18bd
000001b0: ce4c 1c3f aeee aebe 7227 8a3e 7995 7cbd
000001c0: e53e 213f ec29 c3bf e3cd 9b3d 9999 9abd
000001d0: fd2d 903d 834e 99be ef0b fe3e 50c9 50bf
000001e0: 162b 363f e0c5 993e 7750 a23e edb8 203f
000001f0: 0be7 8bbe f0fb 913e 8370 4ebf 29c6 64be
00000200: 4212 8c3d 721c 98bd 3210 a9bf cb22 0f3f
00000210: 165e cebd cd8f 8a3d 9677 eb3e 94ea 5e3f
00000220: 6dab adbb 52d4 59bf 1702 7dbf e7ec d2bd
00000230: 78f5 adbf a4c8 ed3e b266 c0be 0b7b 0c3f
00000240: bea9 993d 92d6 183e c321 1dbf 1501 e03d
00000250: 4207 afbe ecca 9fbc 7c3b a13f 7e3a 3cbc
00000260: 0594 ad3d 0e72 ea3c 73ec 8bbd ec49 9abf
00000270: 60b7 4b3d 3ee6 06bc 205a b03d 63c7 02bf
00000280: b345 8e3e d161 b5be a4bc cbbe 4a1f a0bd
00000290: 1534 823e 2b79 b03b 9b24 a13e d1a1 093f
000002a0: c502 63bd b3e2 5d3e cf3b 53be db11 a5bd
000002b0: 1169 a63e a6dd 113d 7d43 213e 8191 c5be
000002c0: db22 04bf 923d 9ebf 3c58 e53e ffb6 1f3f
000002d0: ea65 81bc e937 a63e fa13 5fbe 5669 bc3e
000002e0: e4d4 e3be 186d 4dbf 7042 153e 334d 71bf
000002f0: 08a7 de3c ee03 42bd 720c 7dbf 2168 c6bf
00000300: a931 cf3e a900 b6be c7bc 853d c913 a0bc
00000310: b934 823e 5569 433d f76f a63e 9acd 8abe
00000320: 9424 9bbd f165 d0bf c851 ec3e 10f7 973e
00000330: 1e91 713f 7100 b83e b9f6 89be 45c1 e83b
00000340: a9e3 01be b0ef 363f 6f2e 83be a4af 133e
00000350: 5f47 c73e f965 923c 7193 67be a642 17bf
00000360: 2769 70bd 31d3 85bd b962 af3e 2159 1d3e
00000370: 4dc8 f33e 3e72 253d 48af a53d 0458 1f3d
00000380: a0cf 823e 03d6 26be 2afa 61bd 400a 613f
00000390: c810 5f3c ed9d 963e f190 83bd c091 3dbe
000003a0: dc79 323d 872d 47bf fafc 353f 5dad 033d
000003b0: 6050 1abf c4f6 bd3d e2fd b2bf 9ce7 3e3d
000003c0: 673f e23e 949d 07c0 c4fa 34bd 11fe 893e
000003d0: 8a74 603d 93d3 4bbf 5cd3 c93d 234e 373f
000003e0: e973 523e 1ee4 0f3f dc33 5bbd 4dbe e03e
000003f0: b824 a5bf e3e4 a2bf 6c8c 953e 184b 0bbf

fc2.bias f4 [128]
-0.2371463 -0.10561823 -0.031503912 0.35636446 -0.1751449 -0.4888369 -0.009569458 -0.12961736
-0.1585138 -0.038285315 -0.26062196 -0.18950683 0.6019499 1.3418276 0.011769206 -0.10940614
0.17198561 0.95109105 -0.177301 -0.103459194 0.87243795 -0.12034973 -0.12795308 -0.08329338
0.55966526 -0.043401055 0.31138635 0.5878505 -0.0045960676 -0.066230826 0.280218 1.1357318
0.34047684 0.48653716 0.025129419 -0.22752824 0.25887033 -0.0781638 0.5838653 -0.061891012
-0.18637455 0.6146094 -0.117683284 0.022844069 -0.17766696 -0.012307343 0.7577818 0.14202933
0.97107893 -0.11336318 -0.045507014 -0.05580807 -0.14745516 -0.25204593 0.55158246 0.0013569586
0.44824067 -0.19297153 -0.38110238 -0.07870004 0.20338474 -0.230749 0.23012607 0.87992024
-0.14022334 0.06583423 -0.36853844 -0.08250326 -0.15015651 0.083013885 -0.11824902 -0.01006497
-0.11811729 -0.27092996 -0.042775173 0.086947754 -0.11700551 -0.1368696 -0.089959286 0.1645873
0.19651848 -0.38053793 0.5461273 0.1878646 0.5844397 -0.0534849 0.37138727 0.12891282
-0.13463663 -0.17372644 -0.014877987 0.62184006 -0.1871194 -0.03416734 -0.121841386 1.0473881
0.3878666 -0.01822298 -0.10985827 -0.033912618 0.009116441 0.026957786 0.4149059 -0.085708134
0.49924338 -0.08642022 0.2610454 0.647264 0.36998895 -0.20006318 0.3914153 -0.09570976
0.11268789 0.040510952 0.022288227 0.54191774 -0.47683918 -0.17896865 0.30390397 -0.1422048
0.48093358 -0.012837543 0.00689951 -0.058258895 0.67425907 -0.07424882 -0.12452692 -0.10893082
00000000: 7bd6 72be 5f4e d8bd 3f0a 01bd 6775 b63e
00000010: 2f59 33be d548 fabe 37c9 1cbc 6aba 04be
00000020: 7151 22be 10d1 1cbd 3e70 85be 140e 42be
00000030: 6319 1a3f 02c1 ab3f a1d3 403c 5410 e0bd
00000040: ff1c 303e b47a 733f 658e 35be 6ae2 d3bd
00000050: 1858 5f3f eb79 f6bd 2206 03be b895 aabd
00000060: 3946 0f3f 4ec5 31bd 086e 9f3e 5f7d 163f
00000070: 9c9a 96bb 07a4 87bd bc78 8f3e a95f 913f
00000080: fb52 ae3e 661b f93e 36dc cd3c 2afd 68be
00000090: a78a 843e 5814 a0bd 3278 153f 6e81 7dbd
000000a0: f8d8 3ebe 0b57 1d3f ef03 f1bd 7c23 bb3c
000000b0: 54ee 35be bda4 49bc fdfd 413f 2370 113e
000000c0: a198 783f f42a e8bd 9065 3abd 0197 64bd
000000d0: 7cfe 16be 2a0c 81be 8234 0d3f fadb b13a
000000e0: cd7f e53e 549a 45be da1f c3be 7d2d a1bd
000000f0: 1744 503e 7749 6cbe 2ba6 6b3e 7442 613f
00000100: b596 0fbe 19d4 863d 12b1 bcbe 78f7 a8bd
00000110: a1c2 19be 2f03 aa3d 8b2c f2bd 8be7 24bc
00000120: 7ae7 f1bd 55b7 8abe 0535 2fbd aa11 b23d
00000130: 96a0 efbd 8b27 0cbe 933c b8bd 9389 283e
00000140: 243c 493e ded5 c2be 00cf 0b3f 945f 403e
00000150: d79d 153f fc12 5bbd 7926 be3e b901 043e
00000160: 2fde 09be 58e5 31be cdc2 73bc e930 1f3f
00000170: 3a9c 3fbe 0df3 0bbd fa87 f9bd d010 863f
00000180: 7396 c63e 5c48 95bc 5ffd e0bd f5e7 0abd
00000190: 205d 153c 93d6 dc3c 8c6e d43e bf87 afbd
000001a0: d49c ff3e 16fd b0bd bea7 853e 18b3 253f
000001b0: 316f bd3e 5ddd 4cbe 9667 c83e 7b03 c4bd
000001c0: e9c8 e63d d0ee 253d cd95 b63c 1fbb 0a3f
000001d0: 4424 f4be 8f43 37be 4d99 9b3e 239e 11be
000001e0: ed3c f63e 8f54 52bc 4915 e23b e1a0 6ebd
000001f0: 3e9c 2c3f c40f 98bd f807 ffbd 1f17 dfbd

fc3.weight f4 [2, 128]
0.5529528 0.8050163 -0.023420135 -1.6940562 0.74239194 -0.29010773 -0.07444638 0.066000134
0.19942918 -0.021421758 -1.9306096 0.05211234 0.35708073 -2.5955021 1.1307708 -0.0548763
1.1474267 -3.8216736 -0.09977436 0.036587942 -1.9447321 -0.0036013692 1.2460246 0.8407458
-5.359133 0.012425479 -2.1480436 -1.7013732 -0.11763373 -0.005742585 0.6045879 -1.4740224
0.48752922 0.36944208 -0.018556157 0.93881184 0.9336144 0.008197172 0.5192912 -0.0003657035
1.5307168 -3.3988008 -0.47972247 0.4958551 1.4142411 0.020730456 -0.8928706 0.6110993
-2.0217066 -0.5378524 0.023561807 -0.018774988 -0.8638338 1.4522617 -0.3976999 1.8835503
0.3888367 0.60389334 -1.594633 -0.0019088639 0.003739593 -0.0023440705 0.23332655 0.60873777
-0.030674454 0.22662431 -1.1035349 -0.018149756 0.024494857 0.86995256 0.011847286 -0.00394297
-0.028551042 -1.0209647 0.03350948 0.72808105 0.044598367 0.004216494 -0.015738415 -1.6564261
0.31732723 0.6998798 0.4247887 1.353876 0.8186824 2.5755222 0.6040643 -3.453455
0.80353206 0.83209765 1.011467 -4.2243414 1.6148143 1.8658302 -0.016477615 -3.8354933
0.5493607 0.011401624 0.029922435 0.016325735 1.800725 0.9800914 -3.7071319 0.4091601
0.5425552 0.026775615 -0.65393865 0.6133415 -2.6853468 -0.5204287 0.6426333 0.18899402
-0.006939694 2.5862339 -0.007989653 -0.7534159 -1.0199183 2.7697718 0.33318204 -0.023119107
-1.0892411 0.78534454 -0.007480639 -0.025730764 -2.1232917 0.59021276 0.04314941 0.009956477
0.84887004 0.34819627 -0.027410945 -1.8072664 1.2209275 -0.6925358 0.038204815 0.009108333
-0.31784165 0.13460489 -1.2869798 0.000850906 0.40335876 -2.3265474 0.72345126 -0.021101547
1.6380944 -3.3629465 0.3876737 0.04675463 -0.9445236 0.040229864 1.5149642 -1.9386419
-0.7285648 -0.029252494 -1.0961945 -1.5953435 -0.5393529 0.0012165759 0.3622492 -1.2982261
0.74613833 0.3602317 0.064757034 -0.5339204 -2.7683866 0.12520742 0.40380633 -0.00042087503
0.9558886 -1.4126601 -0.23469703 1.3511769 1.0928808 -0.033017084 -1.5921432 0.2761574
-2.7358 -0.55987304 -0.003624305 0.07420929 -0.31952193 0.12693073 -3.3182507 1.5589148
0.41228408 0.6437693 1.1490103 -0.0024823966 0.26270834 0.01243802 0.80182004 0.5491797
0.030089384 0.61521566 -0.78308785 0.0041188784 -0.11707501 0.8186801 0.03358314 0.06420305
-0.013490581 -0.85388917 0.007809247 0.62335885 0.04305168 0.03218277 0.040848892 3.182253
0.507216 0.6937367 0.6990963 0.82749325 -2.4943721 -2.6429646 0.71915567 0.026967527
0.6286844 0.51329476 0.98287725 -1.3240163 0.95882106 -1.6669362 0.042137243 -1.9705474
0.35315362 0.016728345 0.03340161 0.10848389 2.1167989 0.94269747 -2.955029 0.3596626
0.8894879 -0.032110497 -0.90945756 0.6945036 -3.4303575 0.19434829 0.6724103 -0.36157668
1.0747014 2.4427972 -0.036958944 -0.44055766 -0.84198356 -1.2892873 0.19440253 0.037296586
-2.7607636 0.5469237 0.034796882 -0.013182376 -1.698478 -0.12346655 -0.06204299 -0.024310542
00000000: 518e 0d3f 8c15 4e3f 95db bfbc d5d6 d8bf
00000010: 660d 3e3f 0089 94be 5877 98bd 142b 873d
00000020: 2a37 4c3e af7c afbc 371e f7bf c073 553d
00000030: 49d3 b63e b51c 26c0 19bd 903f f9c5 60bd
00000040: e1de 923f 4d96 74c0 8056 ccbd 3ddd 153d
00000050: fbec f8bf f304 6cbb bc7d 9f3f 1e3b 573f
00000060: 047e abc0 3c94 4b3c 8c79 09c0 99c6 d9bf
00000070: f4e9 f0bd 4b2c bcbb 46c6 1a3f c4ac bcbf
00000080: 6e9d f93e 8327 bd3e 1503 98bc f955 703f
00000090: 5a01 6f3f 6e4d 063c 45f0 043f e5bb bfb9
000000a0: 87ee c33f f485 59c0 2f9e f5be b8e0 fd3e
000000b0: da05 b53f ebd2 a93c 2b93 64bf 0171 1c3f
000000c0: a463 01c0 b2b0 09bf b104 c13c 01ce 99bc
000000d0: 3624 5dbf b6e3 b93f 529f cbbe 2d18 f13f
000000e0: 9b15 c73e c198 1a3f ef1c ccbf d832 faba
000000f0: f613 753b fa9e 19bb 28ed 6e3e 3dd6 1b3f
00000100: fe48 fbbc 3410 683e a240 8dbf ccae 94bc
00000110: 70a9 c83c 36b5 5e3f 1e1b 423c 0834 81bb
00000120: e0e3 e9bc f9ae 82bf 3d41 093d 8563 3a3f
00000130: c7ac 363d 842a 8a3b d9ed 80bc c505 d4bf
00000140: b778 a23e 532b 333f e87d d93e cf4b ad3f
00000150: 2b95 513f 5bd5 2440 f5a3 1a3f 6805 5dc0
00000160: 47b4 4d3f 5a04 553f c077 813f ce2d 87c0
00000170: 3cb2 ce3f 86d3 ee3f 10fc 86bc b978 75c0
00000180: e7a2 0c3f e1cd 3a3c e51f f53c 8cbd 853c
00000190: 287e e63f 45e7 7a3f a641 6dc0 6f7d d13e
000001a0: e6e4 0a3f 8958 db3c 8668 27bf f303 1d3f
000001b0: b9dc 2bc0 d13a 05bf 9e83 243f a687 413e
000001c0: 5f66 e3bb db84 2540 09e7 02bc dddf 40bf
000001d0: af8c 82bf f143 3140 d696 aa3e 4864 bdbc
000001e0: 416c 8bbf 570c 493f 2620 f5bb 53c9 d2bc
000001f0: 03e4 07c0 2f18 173f 70bd 303d 7e20 233c
00000200: 8c4f 593f c846 b23e eb8c e0bc 8154 e7bf
00000210: 5a47 9c3f 074a 31bf a77c 1c3d 1e3b 153c
00000220: 24bc a2be ddd5 093e c1bb a4bf 560f 5f3a
00000230: 0a85 ce3e 27e6 14c0 1a34 393f 27dd acbc
00000240: 14ad d13f 843a 57c0 2b7d c63e c881 3f3d
00000250: 4ccc 71bf 12c8 243d 59ea c13f 6b25 f8bf
00000260: 3983 3abf eda2 efbc 1a50 8cbf 3734 ccbf
00000270: 0813 0abf 8375 9f3a ba78 b93e 462c a6bf
00000280: ec02 3f3f 4a70 b83e 569f 843d 02af 08bf
00000290: 3f2d 31c0 6036 003e b4bf ce3e e4a8 dcb9
000002a0: 1eb5 743f 0cd2 b4bf 6b54 70be 5df3 ac3f
000002b0: 85e3 8b3f ec3c 07bd 59cb cbbf 8164 8d3e
000002c0: 5917 2fc0 d753 0fbf bf85 6dbb 0afb 973d
000002d0: 6198 a3be 21fa 013e 385e 54c0 858a c73f
000002e0: e616 d33e 11ce 243f c512 933f b4af 22bb
000002f0: b581 863e d6c8 4b3c 1444 4d3f 0a97 0c3f
00000300: 037e f63c c67e 1d3f 7278 48bf a8f7 863b
00000310: 06c5 efbd 0595 513f 798e 093d e47c 833d
00000320: 9907 5dbc 7b98 5abf b6e4 ff3b 7294 1f3f
00000330: f556 303d 15d2 033d 2b51 273d 08aa 4b40
00000340: e8d8 013f ba98 313f faf7 323f 99d6 533f
00000350: cba3 1fc0 5526 29c0 961a 383f 01eb dc3c
00000360: 76f1 203f 4967 033f d89d 7b3f 5e79 a9bf
00000370: 4c75 753f 2a5e d5bf 1a98 2c3d e63a fcbf
00000380: 8dd0 b43e e209 893c 20d0 083d cd2c de3d
00000390: a279 0740 9f54 713f 321f 3dc0 b225 b83e
000003a0: 7bb5 633f 4c86 03bd 36d2 68bf fdca 313f
000003b0: fa8a 5bc0 3d03 473e 1523 2c3f 9420 b9be
000003c0: d18f 893f ca56 1c40 4362 17bd c690 e1be
000003d0: 3c8c 57bf 5e07 a5bf 7511 473e 4ec4 183d
000003e0: 5ab0 30c0 3103 0c3f 2d87 0e3d e4fa 57bc
000003f0: ba67 d9bf 08dc fcbd ca20 7ebd e726 c7bc

fc3.bias f4 [2]
0.31269374 0.28823388
00000000: 6519 a03e 6493 933e

fc1.weight f4 [128, 31]
-0.09744403 -0.07499303 -0.028388903 -0.0904782 0.019525586 -0.042784978 -0.22190244 0.07219425
-0.035783954 0.1116533 -0.23253433 -0.15383 0.1632797 0.10081693 0.092160545 0.09864942
-0.057880968 -0.09832543 -0.010416854 -0.20608722 -0.004541064 0.053777296 -0.07690999 0.063764855
-0.020565042 0.0804837 0.08272738 0.06762819 0.02256878 0.016819915 -0.07448603 -0.14976372
-0.19231257 -0.09681598 -0.19755411 -0.004819947 -0.037671633 -0.10582221 0.0829983 0.004004256
0.0060370266 0.0693355 -0.1805018 0.0484596 0.082927845 0.054641914 -0.050066534 0.100421235
0.14658788 0.0075170225 0.07715208 -0.1196645 0.081181325 0.10604859 -0.06376234 0.044753894
-0.025640802 0.005287435 -0.053520557 -0.010245991 0.1548277 -0.16673048 -0.2154601 0.56704265
0.13656363 -0.11146499 -0.3740964 -1.3960086 0.69633067 0.4962895 -0.66244113 1.7451941
-0.5398835 0.07947117 0.49546668 -0.7864831 0.018615907 -0.025279362 0.10317501 -0.42088357
0.7593341 -0.12573987 0.4124606 -0.19613367 0.4765381 -0.04735803 0.5354585 -0.42822853
-0.25565833 -0.031910665 -0.13015352 0.41732892 0.41195354 0.028541699 0.21229044 0.03191869
-0.10251061 -0.00057705556 0.12354293 0.13215315 -0.14221965 0.07980152 0.22975497 0.24691491
-0.51061946 -0.20332977 0.16920435 -0.022699237 0.05027242 -0.024880685 0.006516262 0.010528976
0.012585814 2.7868469 2.0738137 -3.5317788 0.20221649 2.194643 0.710085 -0.6177156
0.07146921 1.3217108 -0.24214749 -0.2057201 -0.2516285 -0.17965725 0.065591246 0.02755698
-0.11913344 -0.1480866 -0.098374516 -0.019444391 -0.15975867 0.27231508 0.08783523 -0.16657732
-0.18249199 -0.07966719 0.056215324 0.09738597 0.19983536 0.1931063 0.10929224 -0.13260841
0.20878375 -0.028522065 0.15225793 -0.006691923 -0.03623672 0.18216951 -0.13557184 0.041848317
-0.06589977 -0.0509776 -0.02616849 -0.29795313 -0.0660246 0.1290133 -0.25511563 1.8330493
1.5533565 -0.26951933 -0.22130711 -0.86744183 2.1140647 1.7635007 0.024123222 0.10204939
-0.05880833 -0.10212116 0.13899283 0.41893423 0.6700251 0.1526202 -0.1765312 0.12572496
0.70106035 0.61604595 0.026959607 0.2753635 0.6881035 -0.13847998 0.041475534 0.33185434
1.1555012 0.4224531 0.2376683 -0.24993175 0.124043286 0.3354548 -2.245724 -0.17504236
0.70566624 0.5914393 -0.16032445 0.37164026 -0.49418226 0.3992279 0.1914378 0.9046461
1.1996825 0.7238028 -0.32377753 0.5488167 1.0467213 0.57510644 0.26400116 0.6612174
0.4873604 0.4629837 0.43978322 -0.15358865 0.61138225 0.43384138 0.010035618 0.39160877
0.5913476 -0.16298097 -0.2787201 0.1713545 -0.07169405 1.9439225 -1.6570386 -0.23089331
-0.32528925 -0.16513474 -1.4710243 1.8824838 -0.063856564 0.67515206 -0.25804895 0.1265491
-0.05344728 -0.27383456 -0.50547284 1.3717682 0.2251293 0.06772411 -0.076482855 0.1704771
-0.0295521 -0.31662264 1.233999 -0.061288934 0.022037556 0.45425564 0.1409452 -0.20379968
0.14194009 -1.1397195 -0.03495194 0.17455953 -2.7783315 0.6686559 0.3729639 0.08924842
00000000: bc90 c7bd f295 99bd d88f e8bc a24c b9bd
00000010: 1ff4 9f3c 4d3f 2fbd 653a 63be 94da 933d
00000020: 3292 12bd 7caa e43d 7b1d 6ebe 9d85 1dbe
00000030: cb32 273e 1b79 ce3d abbe bc3d b508 ca3d
00000040: 9814 6dbd d85e c9bd 74ab 2abc 8708 53be
00000050: 35cd 94bb 9545 5c3d fc82 9dbd 2697 823d
00000060: 0578 a8bc a3d4 a43d f96c a93d a680 8a3d
00000070: 2ae2 b83c ebc9 893c 228c 98bd a95b 19be
00000080: 96ed 44be 7547 c6bd a04b 4abe a5f0 9dbb
00000090: 924d 1abd 51b9 d8bd 03fb a93d 2236 833b
000000a0: 40d2 c53b c5ff 8d3d 77d5 38be 937d 463d
000000b0: 13d6 a93d 33d0 5f3d 9112 4dbd a6a9 cd3d
000000c0: 221b 163e 5b51 f63b e901 9e3d a912 f5bd
000000d0: 6542 a63d 0130 d93d d495 82bd dc4f 373d
000000e0: a90c d2bc 3842 ad3b 5f38 5bbd cdde 27bc
000000f0: 278b 1e3e 65bb 2abe 93a1 5cbe b529 113f
00000100: 56d7 0b3e c247 e4bd 9089 bfbe 69b0 b2bf
00000110: ba42 323f a819 fe3e be95 29bf 8562 df3f
00000120: ce35 0abf c8c1 a23d cfad fd3e f556 49bf
00000130: 6380 983c aa16 cfbc 6b4d d33d 0d7e d7be
00000140: b863 423f f4c1 00be 092e d33e 44d7 48be
00000150: cdfc f33e 7efa 41bd cf13 093f c540 dbbe
00000160: a6e5 82be c2b4 02bd f746 05be 23ac d53e
00000170: 93eb d23e 48d0 e93c aa62 593e 2cbd 023d
00000180: 15f1 d1bd 8b45 17ba 1304 fd3d 2853 073e
00000190: 07a2 11be fb6e a33d e344 6b3e 43d7 7c3e
000001a0: f5b7 02bf ae35 50be e843 2d3e c0f3 b9bc
000001b0: 74ea 4d3d 94d2 cbbc 5e86 d53b ba81 2c3c
000001c0: bb34 4e3c b35b 3240 5db9 0440 aa08 62c0
000001d0: d711 4f3e 0875 0c40 21c8 353f 9c22 1ebf
000001e0: 735e 923d d22d a93f 83f5 77be 4aa8 52be
000001f0: 73d5 80be 12f8 37be b454 863d 2dbf e13c
00000200: 3cfc f3bd 03a4 17be 9478 c9bd d849 9fbc
00000210: c797 23be e26c 8b3e f5e2 b33d 3f93 2abe
00000220: 2edf 3abe 8d28 a3bd 0a42 663d 4c72 c73d
00000230: a4a1 4c3e a8bd 453e 9cd4 df3d 80ca 07be
00000240: 68cb 553e 1ba7 e9bc 81e9 1b3e eb47 dbbb
00000250: f46c 14bd a58a 3a3e 58d3 0abe 2469 2b3d
00000260: 75f6 86bd e3cd 50bd 4d5f d6bc 508d 98be
00000270: e837 87bd 101c 043e 849e 82be 5ca1 ea3f
00000280: 63d4 c63f 70fe 89be 559e 62be ab10 5ebf
00000290: d64c 0740 64ba e13f 109e c53c 45ff d03d
000002a0: 01e1 70bd e624 d1bd 2354 0e3e 8c7e d63e
000002b0: c486 2b3f 7848 1c3e 98c4 34be 0bbe 003e
000002c0: b178 333f 30b5 1d3f 65da dc3c 72fc 8c3e
000002d0: 8d27 303f b2cd 0dbe 40e2 293d d0e8 a93e
000002e0: 77e7 933f c64b d83e 525f 733e 1cee 7fbe
000002f0: 680a fe3d bbc0 ab3e f1b9 0fc0 4e3e 33be
00000300: 8ba6 343f 9168 173f 182c 24be a247 be3e
00000310: 7505 fdbe 9967 cc3e 4508 443e e396 673f
00000320: 328f 993f 244b 393f 2bc6 a5be 407f 0c3f
00000330: f7fa 853f 2d3a 133f 292b 873e 8b45 293f
00000340: 4d87 f93e 330c ed3e 442b e13e 5846 1dbe
00000350: 8c83 1c3f 7520 de3e 6f6c 243c f280 c83e
00000360: 8e62 173f 7ce4 26be 67b4 8ebe 8e77 2f3e
00000370: 55d4 92bd 74d2 f83f d719 d4bf 4c6f 6cbe
00000380: 508c a6be 1519 29be 864a bcbf 3bf5 f03f
00000390: 3bc7 82bd c4d6 2c3f fe1e 84be 1696 013e
000003a0: 89eb 5abd 0b34 8cbe ab66 01bf 1a96 af3f
000003b0: 4c88 663e f0b2 8a3d 0ba3 9cbd 8d91 2e3e
000003c0: 3f17 f2bc 5d1c a2be aef3 9d3f 1b0a 7bbd
000003d0: 1b88 b43c 3294 e83e f053 103e ddb0 50be
000003e0: be58 113e 54e2 91bf c429 0fbd bcbf 323e
000003f0: 2fd0 31c0 082d 2b3f 20f5 be3e e0c7 b63d

fc1.bias f4 [128]
-0.15474424 0.057263263 -0.17049566 -0.099019766 -0.07810595 -0.044422556 0.051036116 -0.32386082
-0.074440755 -0.20453991 0.03355307 -0.2937929 -0.23609899 -0.07139531 -0.25327376 -0.12789598
-0.20796753 0.099905156 0.107592955 -0.07514043 -0.22885776 -0.13336484 -0.13821971 -0.15452151
-0.1695514 -0.07520741 -0.08627258 -0.015571249 -0.20260333 -0.09394097 -0.2714624 -0.071839996
-0.13743956 -0.05901251 -0.18483812 -0.44423243 -0.08942884 -0.17642719 -0.22871438 -0.46560717
-0.22575605 0.20729218 -0.18022004 -0.20261179 0.050264984 -0.18412547 0.0067466935 0.17746447
-0.17814152 -0.13308193 -0.12985083 0.15080376 -0.0444629 -0.03461117 -0.21885607 -0.10450939
-0.14615986 -0.103284076 -0.07494522 -0.01989048 -0.17192216 -0.050252963 -0.06340485 -0.28163433
0.075633824 -0.19189194 -0.21062955 -0.029674603 0.021231793 -0.11109198 -0.13582784 -0.2392638
-0.16146748 0.013619316 -0.015688684 0.25290692 -0.15695146 0.043741222 -0.19680147 -0.15113685
-0.17929922 0.046839688 -0.20237982 0.21599242 -0.0150092775 -0.20154582 0.117713846 -0.4115559
-0.19832957 -0.28732967 -0.26606593 -0.3666023 0.012394984 -0.14570525 0.08072136 -0.15907621
-0.014811516 -0.0044962857 0.009076962 0.1459163 -0.09197291 0.023865579 -0.20565395 -0.21054684
0.06861417 -0.07214763 -0.33541462 -0.17985749 -0.13669933 0.12813683 -0.02557712 -0.058332305
0.14278169 -0.19014283 -0.2719212 0.09749837 -0.048410058 -0.39971527 -0.17270865 -0.1420988
-0.1352692 -0.045159504 -0.08669969 0.1118905 -0.14698233 -0.24173151 -0.1475282 -0.44631356
00000000: 4675 1ebe e28c 6a3d 6a96 2ebe e0ca cabd
00000010: 03f6 9fbd 6df4 35bd 3f0b 513d 16d1 a5be
00000020: 6574 98bd e972 51be f26e 093d 066c 96be
00000030: efc3 71be b437 92bd 19ad 81be 2af7 02be
00000040: 71f5 54be 139b cc3d b259 dc3d 3ae3 99bd
00000050: b059 6abe cb90 08be 7889 0dbe e33a 1ebe
00000060: e29e 2dbe 5806 9abd aeaf b0bd 8d1e 7fbc
00000070: 3f77 4fbe 2064 c0bd 1ffd 8abe d920 93bd
00000080: f5bc 0cbe 1ab7 71bd 3446 3dbe 6f72 e3be
00000090: 7826 b7bd 54a9 34be 1a34 6abe 1064 eebe
000000a0: 982c 67be 6744 543e 9a8b 38be 7779 4fbe
000000b0: a8e2 4d3d 638b 3cbe 5e13 dd3b 3fb9 353e
000000c0: bb6a 36be a146 08be 9ef7 04be 4d6c 1a3e
000000d0: bb1e 36bd 71c4 0dbd ce1b 60be 0509 d6bd
000000e0: eeaa 15be 9a86 d3bd e17c 99bd 5cf1 a2bc
000000f0: 5d0c 30be 0dd6 4dbd 67da 81bd 6032 90be
00000100: e8e5 9a3d 527f 44be 46af 57be 2718 f3bc
00000110: 4cee ad3c 3184 e3bd 7416 0bbe 9201 75be
00000120: bb57 25be 8d23 5f3c 8e85 80bc 047d 813e
00000130: e2b7 20be ff29 333d 5386 49be 9ec3 1abe
00000140: 379a 37be f9da 3f3d a83c 4fbe 1e2d 5d3e
00000150: 79e9 75bc 0762 4ebe f513 f13d 74b7 d2be
00000160: e816 4bbe e01c 93be cb39 88be 4cb3 bbbe
00000170: 5514 4b3c c233 15be 3e51 a53d e0e4 22be
00000180: 00ac 72bc 9455 93bb 8ab7 143c 156b 153e
00000190: 4b5c bcbd bf81 c33c f396 52be 9799 57be
000001a0: 9685 8c3d 23c2 93bd 77bb abbe 902c 38be
000001b0: e9fa 0bbe 4d36 033e 1c87 d1bc dbed 6ebd
000001c0: 5d35 123e cdb4 42be 4139 8bbe 3aad c73d
000001d0: a049 46bd 7ba7 ccbe 89da 30be 5982 11be
000001e0: 0284 0abe 2cf9 38bd 9b8f b1bd d926 e53d
000001f0: 8982 16be 7788 77be a211 17be 3683 e4be

fc2.weight f4 [128, 128]
0.062464762 0.056764316 -1.0173718 0.5359658 -0.02332072 -0.57134646 -0.33602747 -0.10321621
-0.47887063 0.83074546 -1.5834388 -0.25312263 -2.0726159 0.5789403 -0.6895313 -0.082862966
-0.0033977935 0.27516627 -0.09812624 -0.24243064 0.2870098 0.054255735 0.19151138 0.25975668
0.09106973 -0.06303113 -0.028188672 0.66143036 0.20539103 -0.03477001 -0.4745473 -0.7972013
0.26424485 -0.18816261 0.28762323 0.20739865 0.29464012 0.027414586 0.012071353 0.30389598
0.051090322 0.089655444 0.10511362 -0.147945 0.2517764 0.3663803 0.33058044 0.5754224
-0.0097744195 -2.3255439 0.8191728 0.26661962 0.003854759 0.32332882 -0.21326643 0.19806837
0.024876602 0.5127777 -0.18622677 0.61078084 -0.045209017 0.36570942 0.057795256 -1.5981953
0.2812712 0.01069471 0.022343207 -0.23863651 -0.12928358 -0.104094036 0.39864922 -0.566508
-0.19299708 -1.126976 0.19337931 0.07620253 -0.50593734 0.61395013 -0.52159023 -0.0010258863
0.5135372 -0.83888704 0.36504078 -0.009657686 -0.2911949 0.061474066 0.16042854 0.27155054
-0.058343038 0.08420797 0.045852758 0.23623596 0.53257066 -0.06487548 -0.05301458 -0.41787472
-0.23191345 -0.68668413 0.035264306 0.22899145 0.003320083 0.6275223 0.18586175 -0.45975602
-0.018805092 -0.58519304 -0.32171875 -0.03727159 0.62300646 -0.35884508 0.34669003 -0.061665986
0.6409274 -1.612414 0.07607629 -0.08493963 0.070400216 -0.21425743 0.47848463 -0.826736
0.59313107 0.2833553 0.5044006 0.6780771 -0.20512599 0.2698184 -0.7068762 -0.2090833
0.0683942 -0.074273005 -1.2312641 0.4743965 -0.10076539 0.11866058 0.43838894 0.8921258
0.0056878347 -0.83177876 -0.98856235 -0.10299092 -1.3918647 0.4355227 -0.5240549 0.5454062
0.07503079 0.11970902 -0.5934506 0.061203115 -0.3628913 -0.01950594 1.2683616 0.051310264
0.08475498 0.028618839 -0.068322085 -1.229355 0.0435929 -0.008233605 0.07107962 -0.48714274
0.2982271 -0.2713799 -0.29746783 -0.07914485 0.22567463 0.005385538 0.31296003 0.5574498
-0.021765761 0.17166133 -0.22038107 -0.032744173 0.30557227 0.034645215 0.21300398 -0.43661347
-0.5004145 -1.1777937 0.54403824 0.63178945 -0.015795667 0.21694691 -0.23331262 0.35756925
-0.34501332 -0.79089904 0.061149873 -0.78572565 0.027179256 -0.0602865 -1.0388464 -1.621476
0.37384006 -0.3554738 0.06530147 0.04791826 0.18353009 0.047707874 0.2934029 -0.28496003
-0.07575336 -1.6805085 0.37155038 0.28082848 1.027546 0.30377814 -0.26244676 0.0071031176
-0.11965933 0.77809817 -0.18482895 0.14581186 0.3904419 0.01787089 -0.20531584 -0.5614978
-0.05869403 -0.061873063 0.38717487 0.15316723 0.4321985 0.040392153 0.08090073 0.04164093
0.26277718 -0.08467627 -0.055170216 0.8460822 0.013614841 0.2720768 -0.027596943 -0.21749167
0.043573245 -0.7480939 0.7036383 0.032147754 -0.5532478 0.094073705 -1.3662038 0.0466076
0.43915457 -2.1725907 -0.04418446 0.2374556 0.05479864 -0.7845543 0.09891488 0.6779443
0.05529637 0.5428403 -0.014223704 0.39878735 -1.2275968 -1.3549073 0.30957428 -0.4973203
00000000: 0ddb 7f3d b381 683d 3d39 82bf 0e35 093f
00000010: 180b bfbc c343 12bf cb0b acbe 0563 d3bd
00000020: 882e f5be bcab 543f 1fae cabf 4a99 81be
00000030: bda5 04c0 6e35 143f 2085 30bf 0fb4 a9bd
00000040: 84ad 5ebb 98e2 8c3e 69f6 c8bd bd3f 78be
00000050: f3f2 923e 433b 5e3d 8f1b 443e d4fe 843e
00000060: c482 ba3d 7716 81bd eeeb e6bc 8053 293f
00000070: 0752 523e ff6a 0ebd ddf7 f2be 6215 4cbf
00000080: 1a4b 873e b3ad 40be 5a43 933e 5060 543e
00000090: 12db 963e 8e94 e03c edc6 453c 4198 9b3e
000000a0: 1644 513d 469d b73d cf45 d73d e57e 17be
000000b0: d6e8 803e 3396 bb3e d741 a93e e24e 133f
000000c0: e324 20bc b6d5 14c0 4fb5 513f 5e82 883e
000000d0: 20a0 7c3b 5b8b a53e 8462 5abe 6fd2 4a3e
000000e0: 04ca cb3c 6645 033f 3bb2 3ebe 225c 1c3f
000000f0: 172d 39bd 443e bb3e b8ba 6c3d aa91 ccbf
00000100: c702 903e dd38 2f3c 1a09 b73c 215d 74be
00000110: ea62 04be 412f d5bd c01b cc3e ab06 11bf
00000120: 07a1 45be c040 90bf 3a05 463e 1210 9c3d
00000130: 1c85 01bf d62b 1d3f f086 05bf 0877 86ba
00000140: 2d77 033f 4dc1 56bf a0e6 ba3e 453b 1ebc
00000150: 7f17 95be 3bcc 7b3d 6147 243e ac08 8b3e
00000160: 1cf9 6ebd 3a75 ac3d 1ad0 3b3d d7e7 713e
00000170: 8d56 083f 70dd 84bd d125 59bd adf3 d5be
00000180: b87a 6dbe 88ca 2fbf 4e71 103d bc7c 6a3e
00000190: c095 593b 4da5 203f 8b52 3e3e 2465 ebbe
000001a0: 230d 9abc 36cf 15bf 52b8 a4be 18aa 18bd
000001b0: 5a7d 1f3f 8bba b7be 5b81 b13e 7995 7cbd
000001c0: d113 243f 9563 cebf e3cd 9b3d d4f4 adbd
000001d0: fd2d 903d 4d66 5bbe f0fb f43e f8a4 53bf
000001e0: 70d7 173f f213 913e 6620 013f 7696 2d3f
000001f0: 8c0c 52be a325 8a3e d7f5 34bf ef19 56be
00000200: 4212 8c3d 721c 98bd 109a 9dbf 19e4 f23e
00000210: 165e cebd 5104 f33d 8474 e03e 5b62 643f
00000220: 0461 ba3b 74ef 54bf 6c12 7dbf e7ec d2bd
00000230: 9f28 b2bf d5fc de3e 7628 06bf be9f 0b3f
00000240: bea9 993d 012a f53d 61ec 17bf 1eb0 7a3d
00000250: e3cc b9be ecca 9fbc ac59 a23f b62a 523d
00000260: 0594 ad3d 0e72 ea3c 73ec 8bbd 815b 9dbf
00000270: 788e 323d 3ee6 06bc 3192 913d c66a f9be
00000280: 39b1 983e 4ef2 8abe b44d 98be b216 a2bd
00000290: 4017 673e 2b79 b03b 4c3c a03e 08b5 0e3f
000002a0: 1c4e b2bc fdc7 2f3e 93ab 61be c11e 06bd
000002b0: f873 9c3e 24e8 0d3d b71d 5a3e cd8b dfbe
000002c0: 2a1b 00bf f2c1 96bf 1746 0b3f f4bc 213f
000002d0: ea65 81bc 5527 5e3e 81e9 6ebe 5113 b73e
000002e0: 96a5 b0be 5c78 4abf 4a78 7a3d 5125 49bf
000002f0: 08a7 de3c faee 76bd ebf8 84bf 878c cfbf
00000300: f767 bf3e a900 b6be c7bc 853d f045 443d
00000310: 50ef 3b3e 5569 433d e838 963e 48e6 91be
00000320: 9424 9bbd e71a d7bf da3b be3e c0c8 8f3e
00000330: a186 833f cf88 9b3e 6c5f 86be 45c1 e83b
00000340: f30f f5bd 7131 473f cd43 3dbe b44f 153e
00000350: 00e8 c73e f965 923c 513e 52be 52be 0fbf
00000360: 2769 70bd 9c6e 7dbd c93b c63e dfd7 1c3e
00000370: 1f49 dd3e 3e72 253d 48af a53d ae8f 2a3d
00000380: bb8a 863e c16a adbd 2afa 61bd d898 583f
00000390: c810 5f3c a64d 8b3e fc12 e2bc 23b6 5ebe
000003a0: dc79 323d 1583 3fbf a421 343f 5dad 033d
000003b0: a6a1 0dbf b7a9 c03d c4df aebf 9ce7 3e3d
000003c0: ded8 e03e ba0b 0bc0 c4fa 34bd 9027 733e
000003d0: 8a74 603d 8dd8 48bf e293 ca3d c28d 2d3f
000003e0: 727e 623d 95f7 0a3f 8a0a 69bc db2d cc3e
000003f0: e421 9dbf 9a6d adbf 8580 9e3e c4a0 febe

fc2.bias f4 [128]
-0.24074978 -0.10839954 -0.031503912 0.355417 -0.2065876 -0.48748925 -0.009569458 -0.12961736
-0.14455846 -0.038285315 -0.23579293 -0.18950683 0.5888823 1.3613425 0.0109429015 -0.10940614
0.15425204 0.95848596 -0.17150526 -0.103459194 0.81814253 -0.12034973 -0.103858165 -0.03253733
0.6369809 -0.043401055 0.30703214 0.5930026 -0.058746275 -0.066230826 0.2525781 1.0930287
0.3072715 0.46519893 0.025129419 -0.21661313 0.253824 -0.0781638 0.5700123 -0.061891012
-0.18453869 0.64196646 -0.14039946 0.003768978 -0.19441225 -0.012307343 0.7654309 0.11727261
0.9743436 -0.09127928 -0.045507014 -0.05580807 -0.14400615 -0.25204593 0.5458217 0.008159908
0.44449663 -0.19297153 -0.3355355 -0.07870004 0.20174772 -0.230749 0.21688168 0.85466564
-0.14022334 0.071109384 -0.39997655 -0.08250326 -0.15015651 0.06932079 -0.11824902 -0.01006497
-0.11811729 -0.2633711 -0.042775173 0.08831134 -0.11700551 -0.1368696 -0.089959286 0.16194583
0.20048653 -0.3642748 0.5221167 0.19304667 0.5487869 -0.027325578 0.365706 0.12891282
-0.09872761 -0.1806507 -0.017489694 0.4996218 -0.17438892 -0.024525924 -0.121841386 1.0299225
0.38300404 -0.01822298 -0.10985827 -0.033912618 0.0050606 0.038632855 0.3902534 -0.07391378
0.5081531 -0.08642022 0.25537047 0.62854886 0.38199815 -0.20006318 0.38994816 -0.10420002
0.115169466 0.038251262 0.022288227 0.5476863 -0.4598872 -0.20945448 0.312536 -0.1422048
0.49614847 2.1228901e-05 0.00689951 -0.058258895 0.6522445 -0.05064881 -0.12452692 -0.10893082
00000000: 1c87 76be 9400 debd 3f0a 01bd 38f9 b53e
00000010: b38b 53be 3198 f9be 37c9 1cbc 6aba 04be
00000020: 2207 14be 10d1 1cbd b473 71be 140e 42be
00000030: fec0 163f 7940 ae3f db49 333c 5410 e0bd
00000040: 3ff4 1d3e 565f 753f 139f 2fbe 6ae2 d3bd
00000050: ca71 513f eb79 f6bd 97b3 d4bd dd45 05bd
00000060: 2e11 233f 4ec5 31bd 5133 9d3e 05cf 173f
00000070: ef9f 70bd 07a4 87bd eb51 813e 5de8 8b3f
00000080: b152 9d3e 8e2e ee3e 36dc cd3c d5cf 5dbe
00000090: 38f5 813e 5814 a0bd 53ec 113f 6e81 7dbd
000000a0: b6f7 3cbe ea57 243f e0c4 0fbe f500 773b
000000b0: 0114 47be bda4 49bc 48f3 433f 9f2c f03d
000000c0: 956e 793f a2f0 babd 9065 3abd 0197 64bd
000000d0: 5976 13be 2a0c 81be f9ba 0b3f 22b1 053c
000000e0: 1095 e33e 549a 45be 4fcb abbe 7d2d a1bd
000000f0: f496 4e3e 7749 6cbe 3b16 5e3e 5ecb 5a3f
00000100: b596 0fbe cca1 913d bac9 ccbe 78f7 a8bd
00000110: a1c2 19be 0ff8 8d3d 8b2c f2bd 8be7 24bc
00000120: 7ae7 f1bd 94d8 86be 0535 2fbd 93dc b43d
00000130: 96a0 efbd 8b27 0cbe 933c b8bd 21d5 253e
00000140: 574c 4d3e 3a82 babe 71a9 053f 07ae 453e
00000150: 4c7d 0c3f e4d9 dfbc d13d bb3e b901 043e
00000160: b431 cabd 7ffc 38be 8c46 8fbc 6ece ff3e
00000170: 0293 32be 97ea c8bc fa87 f9bd 80d4 833f
00000180: 1b19 c43e 5c48 95bc 5ffd e0bd f5e7 0abd
00000190: 64d3 a53b 7c3d 1e3d 4bcf c73e 1c60 97bd
000001a0: 5216 023f 16fd b0bd ebbf 823e 94e8 203f
000001b0: 4395 c33e 5ddd 4cbe 49a7 c73e d266 d5bd
000001c0: f8dd eb3d 5bad 1c3d cd95 b63c 2b35 0c3f
000001d0: 5676 ebbe 3c7b 56be b804 a03e 239e 11be
000001e0: 2c07 fe3e b814 b237 4915 e23b e1a0 6ebd
000001f0: 7ff9 263f 2075 4fbd f807 ffbd 1f17 dfbd

fc3.weight f4 [2, 128]
0.57276183 0.77652335 -0.023420135 -1.7727238 0.71767074 -0.32424313 -0.07444638 0.066000134
0.31774536 -0.021421758 -1.9831052 0.05211234 0.34749833 -2.7239044 1.1526355 -0.0548763
1.0664757 -3.769385 -0.14136687 0.036587942 -1.8965828 -0.0036013692 1.001402 0.8730905
-5.375589 0.012425479 -2.0970333 -1.6574893 -0.13210373 -0.005742585 0.59848917 -1.6553669
0.49034667 0.3469555 -0.018556157 0.86062425 0.97141325 0.008197172 0.5295636 -0.0003657035
1.5489794 -3.4136229 -0.55981827 0.490923 1.2763556 0.020730456 -0.9777745 0.6090273
-2.0379004 -0.5545124 0.023561807 -0.018774988 -0.87920916 1.4522617 -0.3123326 1.8270177
0.39451 0.60389334 -1.594633 -0.0019088639 -0.0073348684 -0.0023440705 0.21932112 0.5880374
-0.030674454 0.21865433 -1.0747252 -0.018149756 0.024494857 0.88842636 0.011847286 -0.00394297
-0.028551042 -1.0008013 0.03350948 0.7371877 0.044598367 0.004216494 -0.015738415 -1.868923
0.2691042 0.82517326 0.4148994 1.3314754 0.7372458 2.6698656 0.58152497 -3.453455
0.7601741 0.89788747 1.0164901 -4.1552544 1.5406109 1.8641726 -0.016477615 -3.9704092
0.55577004 0.011401624 0.029922435 0.016325735 1.7717432 0.9470387 -3.5439513 0.40539253
0.5759708 0.026775615 -0.6148432 0.6197149 -2.5052707 -0.5204287 0.64325696 0.16628163
0.03855706 2.7364492 -0.007989653 -0.8256372 -1.0161501 2.6618497 0.33585104 -0.023119107
-1.2873399 0.7571186 -0.007480639 -0.025730764 -2.0011804 0.33408123 0.04314941 0.009956477
0.8292592 0.33417225 -0.027410945 -1.7774061 1.1504586 -0.64604604 0.038204815 0.009108333
-0.27467915 0.13460489 -1.1937993 0.000850906 0.3934247 -2.3376327 0.6968234 -0.021101547
1.6346734 -3.351221 0.35539022 0.04675463 -0.9735256 0.040229864 1.6027626 -2.0488408
-0.71240747 -0.029252494 -1.1829163 -1.643197 -0.56220263 0.0012165759 0.38575068 -1.075504
0.7194643 0.36879712 0.064757034 -0.5511304 -2.745141 0.12520742 0.37902567 -0.00042087503
0.9297217 -1.4221954 -0.17612289 1.3270848 1.101324 -0.033017084 -1.5973055 0.26967257
-2.9217308 -0.52387685 -0.003624305 0.07420929 -0.3451008 0.12693073 -3.3897777 1.5607948
0.4092603 0.6437693 1.1624255 -0.0024823966 0.25028136 0.01243802 0.7323948 0.5537599
0.030089384 0.6037608 -0.7977759 0.0041188784 -0.11707501 0.7751943 0.03358314 0.06420305
-0.013490581 -0.8463627 0.007809247 0.5828352 0.04305168 0.03218277 0.040848892 3.001573
0.5386747 0.6703187 0.7042836 0.8024613 -2.5409496 -2.5625472 0.74930733 0.026967527
0.62416685 0.49583703 1.0386419 -1.3646472 0.8918386 -1.6690624 0.042137243 -1.9157732
0.35760322 0.016728345 0.03340161 0.10848389 2.1907258 0.98050225 -2.9543078 0.38230947
0.8347174 -0.032110497 -0.9324804 0.7105324 -3.4013536 0.19434829 0.68792796 -0.33914495
1.0402617 2.444617 -0.036958944 -0.40681332 -0.85665685 -1.2963226 0.19562119 0.037296586
-2.778593 0.52668285 0.034796882 -0.013182376 -1.6096736 -0.032846026 -0.06204299 -0.024310542
00000000: 85a0 123f 3cca 463f 95db bfbc 9de8 e2bf
00000010: 45b9 373f 3203 a6be 5877 98bd 142b 873d
00000020: 85af a23e af7c afbc 64d6 fdbf c073 553d
00000030: 4deb b13e 7354 2ec0 8f89 933f f9c5 60bd
00000040: 4782 883f 9b3d 71c0 7ac2 10be 3ddd 153d
00000050: 3ac3 f2bf f304 6cbb f12d 803f dc82 5f3f
00000060: d304 acc0 3c94 4b3c cb35 06c0 9c28 d4bf
00000070: 3346 07be 4b2c bcbb 9636 193f 10e3 d3bf
00000080: b80e fb3e 27a4 b13e 1503 98bc df51 5c3f
00000090: 8aae 783f 6e4d 063c 7b91 073f e5bb bfb9
000000a0: f544 c63f cc78 5ac0 4050 0fbf 425a fb3e
000000b0: 9f5f a33f ebd2 a93c 6e4f 7abf 37e9 1b3f
000000c0: f66c 02c0 86f4 0dbf b104 c13c 01ce 99bc
000000d0: da13 61bf b6e3 b93f 0fea 9fbe b7db e93f
000000e0: 37fd c93e c198 1a3f ef1c ccbf d832 faba
000000f0: 5659 f0bb fa9e 19bb b795 603e 9e89 163f
00000100: fe48 fbbc ece6 5f3e 9890 89bf ccae 94bc
00000110: 70a9 c83c e96f 633f 1e1b 423c 0834 81bb
00000120: e0e3 e9bc 421a 80bf 3d41 093d 55b8 3c3f
00000130: c7ac 363d 842a 8a3b d9ed 80bc de38 efbf
00000140: 07c8 893e 8e3e 533f b26d d43e c96d aa3f
00000150: 24bc 3c3f 14df 2a40 d2de 143f 6805 5dc0
00000160: c59a 423f f4db 653f 591c 823f d8f7 84c0
00000170: bd32 c53f 359d ee3f 10fc 86bc 2f1b 7ec0
00000180: f246 0e3f e1cd 3a3c e51f f53c 8cbd 853c
00000190: 7bc8 e23f 2171 723f 19d0 62c0 9c8f cf3e
000001a0: d372 133f 8958 db3c 5d66 1dbf a3a5 1e3f
000001b0: 5b56 20c0 d13a 05bf 7dac 243f bb45 2a3e
000001c0: 02ee 1d3d fc21 2f40 09e7 02bc f65c 53bf
000001d0: 3511 82bf bf5b 2a40 abf4 ab3e 4864 bdbc
000001e0: 8ec7 a4bf 86d2 413f 2620 f5bb 53c9 d2bc
000001f0: 5713 00c0 b20c ab3e 70bd 303d 7e20 233c
00000200: 554a 543f a018 ab3e eb8c e0bc 0b82 e3bf
00000210: 3a42 933f 4663 25bf a77c 1c3d 1e3b 153c
00000220: bfa2 8cbe ddd5 093e 6ace 98bf 560f 5f3a
00000230: f66e c93e c69b 15c0 0563 323f 27dd acbc
00000240: fa3c d13f 687a 56c0 b5f5 b53e c881 3f3d
00000250: f938 79bf 12c8 243d 5327 cd3f 3520 03c0
00000260: 5660 36bf eda2 efbc cd69 97bf 4754 d2bf
00000270: 83ec 0fbf 8375 9f3a 1d81 c53e 1daa 89bf
00000280: d02e 383f fad2 bc3e 569f 843d e216 0dbf
00000290: 64b0 2fc0 6036 003e a70f c23e e4a8 dcb9
000002a0: 3e02 6e3f 800a b6bf 8f59 34be eadd a93f
000002b0: 2ff8 8c3f ec3c 07bd 8274 ccbf 8612 8a3e
000002c0: a3fd 3ac0 cb1c 06bf bf85 6dbb 0afb 973d
000002d0: 0db1 b0be 21fa 013e 1ef2 58c0 20c8 c73f
000002e0: 918a d13e 11ce 243f 5cca 943f b4af 22bb
000002f0: e124 803e d6c8 4b3c 3a7e 3b3f 35c3 0d3f
00000300: 037e f63c 1190 1a3f 0b3b 4cbf a8f7 863b
00000310: 06c5 efbd 2273 463f 798e 093d e47c 833d
00000320: 9907 5dbc 3aab 58bf b6e4 ff3b b034 153f
00000330: f556 303d 15d2 033d 2b51 273d c619 4040
00000340: 96e6 093f 029a 2b3f ee4b 343f 1b6e 4d3f
00000350: eb9e 22c0 c600 24c0 9bd2 3f3f 01eb dc3c
00000360: 66c9 1f3f 5ade fd3e 38f2 843f c2ac aebf
00000370: 894f 643f d6a3 d5bf 1a98 2c3d 0e38 f5bf
00000380: c517 b73e e209 893c 20d0 083d cd2c de3d
00000390: da34 0c40 3202 7b3f 6113 3dc0 11be c33e
000003a0: 0ab0 553f 4c86 03bd 09b7 6ebf 74e5 353f
000003b0: c7af 59c0 3d03 473e 0c1c 303f 68a4 adbe
000003c0: 4c27 853f 9b74 1c40 4362 17bd d649 d0be
000003d0: dd4d 5bbf e6ed a5bf ec50 483e 4ec4 183d
000003e0: 78d4 31c0 b0d4 063f 2d87 0e3d e4fa 57bc
000003f0: c909 cebf 8e89 06bd ca20 7ebd e726 c7bc

fc3.bias f4 [2]
0.28275514 0.313925
00000000: 48c5 903e c7ba a03e
