checkpoints/dqn_episode_700.pth (torch, 343593 bytes, 24 tensors)

fc1.weight f4 [128, 31]
-0.09744403 -0.07499303 -0.028388903 -0.0904782 0.019525586 -0.042784978 -0.22190244 0.07219425
-0.035783954 0.1116533 -0.23253433 -0.15383 0.1632797 0.10081693 0.092160545 0.09864942
-0.057880968 -0.09832543 -0.010416854 -0.20608722 -0.004541064 0.053777296 -0.07690999 0.063764855
-0.020565042 0.0804837 0.08272738 0.06762819 0.02256878 0.016819915 -0.07448603 -0.14976372
-0.19231257 -0.09681598 -0.19755411 -0.004819947 -0.037671633 -0.10582221 0.0829983 0.004004256
0.0060370266 0.0693355 -0.1805018 0.0484596 0.082927845 0.054641914 -0.050066534 0.100421235
0.14658788 0.0075170225 0.07715208 -0.1196645 0.081181325 0.10604859 -0.06376234 0.044753894
-0.025640802 0.005287435 -0.053520557 -0.010245991 0.1548277 -0.16673048 -0.25775385 0.8812504
0.13656363 -0.19829546 -0.8126899 -1.8830451 1.0486958 0.7319049 -1.4278325 2.2136054
-0.35017198 0.11438154 0.43739086 -0.7855758 0.21728608 0.13751146 0.3894258 -0.215181
0.8497382 -0.20500319 0.40313703 -0.4412749 0.6129736 -0.041203074 0.4416509 -0.30958924
-0.18927675 -0.06702651 -0.5026879 0.7127118 0.28220558 0.054860916 0.22257142 0.03191869
-0.041197605 -0.15955898 -0.03625028 0.16755214 -0.09748856 -0.07443191 0.30396095 0.11282729
-0.17619385 -0.2971488 0.22437802 0.025375707 0.10946198 0.11985452 -0.023589281 -0.07777822
0.038905505 3.0809677 0.838045 -4.933247 0.22853602 2.319767 0.7359938 -0.7950143
0.10339055 1.4162335 -0.56463236 -0.12184126 -0.2516285 -0.17965725 0.065591246 0.02755698
-0.11913344 -0.1480866 -0.098374516 -0.019444391 -0.15975867 0.27231508 0.08783523 -0.16657732
-0.18249199 -0.07966719 0.056215324 0.09738597 0.19983536 0.1931063 0.10929224 -0.13260841
0.20878375 -0.028522065 0.15225793 -0.006691923 -0.03623672 0.18216951 -0.13557184 0.041848317
-0.06589977 -0.0509776 -0.02616849 -0.5723311 -0.24161546 0.1290133 -0.5294914 1.5707798
1.602999 -0.5438821 -0.49567673 -1.1988417 2.181582 1.4470923 -0.30840686 0.4018086
0.120018095 -0.33162022 -0.10583871 -0.10656562 0.46612924 0.44714254 -0.45090467 0.20864634
1.4403552 1.2104062 -0.24741234 0.2631284 1.08999 0.01985999 -0.22856085 0.27275857
0.82951844 0.299206 0.13430765 -0.2971046 0.124043286 0.25188866 -1.6188915 -0.48858213
0.6937213 0.56810087 -0.83388597 1.4119128 0.2368749 0.28558895 0.17520538 0.7399971
1.1097484 0.59635633 -0.17722318 0.6827582 0.8745904 0.47174135 0.06684642 0.50927603
-0.20953497 0.40646383 0.4085672 0.40690047 0.32804382 0.5349365 0.12239271 0.8057537
0.9802593 -0.15724126 -0.08199093 0.1713545 -0.06595385 2.037141 -2.042377 -0.22515503
-0.31954506 0.1373299 -1.9557896 1.9757118 -0.010848811 0.9579654 -0.45383906 0.15967146
-0.006832689 -0.45554742 -0.6061799 1.5196134 0.16111375 0.07166024 -0.18026473 -0.12224403
-0.06750503 -0.09564923 0.9842841 -0.043555032 0.07004839 0.59379864 0.03370323 -0.19020355
0.22568403 -1.6829933 -0.03495194 0.30678642 -3.3647568 0.5693345 0.46952587 0.24117744
00000000: bc90 c7bd f295 99bd d88f e8bc a24c b9bd
00000010: 1ff4 9f3c 4d3f 2fbd 653a 63be 94da 933d
00000020: 3292 12bd 7caa e43d 7b1d 6ebe 9d85 1dbe
00000030: cb32 273e 1b79 ce3d abbe bc3d b508 ca3d
00000040: 9814 6dbd d85e c9bd 74ab 2abc 8708 53be
00000050: 35cd 94bb 9545 5c3d fc82 9dbd 2697 823d
00000060: 0578 a8bc a3d4 a43d f96c a93d a680 8a3d
00000070: 2ae2 b83c ebc9 893c 228c 98bd a95b 19be
00000080: 96ed 44be 7547 c6bd a04b 4abe a5f0 9dbb
00000090: 924d 1abd 51b9 d8bd 03fb a93d 2236 833b
000000a0: 40d2 c53b c5ff 8d3d 77d5 38be 937d 463d
000000b0: 13d6 a93d 33d0 5f3d 9112 4dbd a6a9 cd3d
000000c0: 221b 163e 5b51 f63b e901 9e3d a912 f5bd
000000d0: 6542 a63d 0130 d93d d495 82bd dc4f 373d
000000e0: a90c d2bc 3842 ad3b 5f38 5bbd cdde 27bc
000000f0: 278b 1e3e 65bb 2abe 50f8 83be a099 613f
00000100: 56d7 0b3e f70d 4bbe 720c 50bf 9f07 f1bf
00000110: aa3b 863f 1f5e 3b3f 37c3 b6bf b6ab 0d40
00000120: be49 b3be de40 ea3d b2f1 df3e 7f1b 49bf
00000130: 3e80 5e3e cecf 0c3e d262 c73e 6858 5cbe
00000140: 7188 593f 5bec 51be fa67 ce3e c9ee e1be
00000150: d6eb 1c3f 8ec4 28bd 1120 e23e 7b82 9ebe
00000160: c4d1 41be 3245 89bd 27b0 00bf 4874 363f
00000170: 407d 903e d7b5 603d c3e9 633e 2cbd 023d
00000180: d2be 28bd 6e63 23be 2c7b 14bd ca92 2b3e
00000190: 15a8 c7bd c26f 98bd c5a0 9b3e ff11 e73d
000001a0: 296c 34be e323 98be 5ac3 653e b7e0 cf3c
000001b0: 9a2d e03d 4976 f53d 4f3e c1bc 304a 9fbd
000001c0: 615b 1f3d 932e 4540 1e8a 563f 29dd 9dc0
000001d0: 5905 6a3e 1077 1440 176a 3c3f 0f86 4bbf
000001e0: 6dbe d33d 2447 b53f bf8b 10bf e987 f9bd
000001f0: 73d5 80be 12f8 37be b454 863d 2dbf e13c
00000200: 3cfc f3bd 03a4 17be 9478 c9bd d849 9fbc
00000210: c797 23be e26c 8b3e f5e2 b33d 3f93 2abe
00000220: 2edf 3abe 8d28 a3bd 0a42 663d 4c72 c73d
00000230: a4a1 4c3e a8bd 453e 9cd4 df3d 80ca 07be
00000240: 68cb 553e 1ba7 e9bc 81e9 1b3e eb47 dbbb
00000250: f46c 14bd a58a 3a3e 58d3 0abe 2469 2b3d
00000260: 75f6 86bd e3cd 50bd 4d5f d6bc 4a84 12bf
00000270: 0b6a 77be 101c 043e c08c 07bf 500f c93f
00000280: 122f cd3f db3b 0bbf 57c9 fdbe a573 99bf
00000290: 0a9f 0b40 523a b93f 81e7 9dbe dbb9 cd3e
000002a0: 0ccc f53d 20ca a9be f7c1 d8bd 133f dabd
000002b0: 7ea8 ee3e deef e43e fadc e6be 63a7 553e
000002c0: 8f5d b83f 97ee 9a3f a959 7dbe c4b8 863e
000002d0: cb84 8b3f 6bb1 a23c db0b 6abe 03a7 8b3e
000002e0: 525b 543f 8731 993e f287 093e 181e 98be
000002f0: 680a fe3d 8df7 803e d637 cfbf 7027 fabe
00000300: b897 313f 0f6f 113f 8d79 55bf 8fb9 b43f
00000310: 558f 723e b738 923e 0a69 333e 7370 3d3f
00000320: 3c0c 8e3f cfaa 183f fe79 35be 3ec9 2e3f
00000330: 28e5 5f3f 1588 f13e c7e6 883d ea5f 023f
00000340: 5690 56be 071c d03e b82f d13e 4255 d03e
00000350: 5cf5 a73e 99f1 083f 07a9 fa3d e045 4e3f
00000360: 46f2 7a3f da03 21be dcea a7bd 8e77 2f3e
00000370: d012 87bd 8560 0240 4eb6 02c0 0a8f 66be
00000380: 699b a3be 36a0 0c3e 5057 fabf 20e4 fc3f
00000390: 36bf 31bc 383d 753f 985d e8be ea80 233e
000003a0: c0e4 dfbb 833d e9be 9b2e 1bbf b182 c23f
000003b0: 01fb 243e 9bc2 923d 5197 38be 145b fabd
000003c0: 1440 8abd bee3 c3bd 0bfa 7b3f c366 32bd
000003d0: 8875 8f3d 3003 183f 660c 0a3d b8c4 42be
000003e0: b719 673e 536c d7bf c429 0fbd 1c13 9d3e
000003f0: 2d58 57c0 e8bf 113f b265 f03e 38f7 763e

fc1.bias f4 [128]
-0.15474424 0.057263263 -0.21286473 -0.07269806 -0.07810595 -0.31879342 -0.052325383 -0.31812066
0.009303264 -0.2604616 0.021836594 -0.2937929 -0.23380873 -0.121391654 -0.25954613 -0.2480745
-0.20796753 0.081183866 0.0272151 -0.18503903 -0.3425981 -0.14710894 -0.154879 -0.21534842
-0.1695514 -0.07520741 -0.06014691 -0.075715594 -0.39452073 -0.09394097 -0.29844043 -0.05342209
-0.18503417 -0.1068739 -0.31308305 -0.615244 -0.15925384 -0.17642719 -0.2662314 -0.61449593
-0.17720084 0.115518816 -0.19185103 -0.26615182 0.012728338 -0.16843355 0.080355085 0.09386363
-0.25867045 -0.17220852 -0.07525826 0.3002652 -0.09949956 -0.25028884 -0.43830186 -0.10414992
-0.21494663 -0.20452684 -0.094379865 -0.09158837 -0.17192216 -0.10507347 -0.1241879 -0.30081612
0.0031079766 -0.19189194 -0.16223156 -0.116451934 0.06291034 -0.11109198 -0.24253064 -0.3105368
-0.16146748 0.045062583 -0.033278324 0.31957573 -0.16637996 -0.0862547 -0.2728748 -0.15113685
-0.22514752 -0.03831321 -0.13801011 0.15650375 -0.087754816 -0.23207757 0.20413972 -0.46790716
-0.19832957 -0.40359557 -0.5719265 -0.31440777 -0.051710438 -0.14570525 0.08072136 -0.22837976
-0.032788556 -0.13317814 0.009076962 0.047323097 -0.09197291 -0.11754612 -0.24039675 -0.32259268
0.06861417 0.005521448 -0.2853021 -0.17985749 -0.13443962 0.06328874 -0.031070866 -0.058332305
0.07609768 -0.27798003 -0.2719212 -0.041923415 -0.048410058 -0.33444428 -0.2210958 -0.12397862
-0.097962506 -0.09303824 -0.13166274 -0.030956982 -0.25165716 -0.22733851 -0.08315828 -0.60412735
00000000: 4675 1ebe e28c 6a3d 36f9 59be b8e2 94bd
00000010: 03f6 9fbd e438 a3be 2453 56bd b6e0 a2be
00000020: b86c 183c 395b 85be a8e2 b23c 066c 96be
00000030: 8e6b 6fbe 309c f8bd 3be3 84be 3e07 7ebe
00000040: 71f5 54be ba43 a63d 34f2 de3c df7a 3dbe
00000050: 0569 afbe baa3 16be 9a98 1ebe 4c84 5cbe
00000060: e29e 2dbe 5806 9abd 9b5c 76bd c710 9bbd
00000070: 9ffe c9be 2064 c0bd 2fcd 98be 1fd1 5abd
00000080: 9979 3dbe b4e0 dabd 6c4c a0be a180 1dbf
00000090: 7013 23be 54a9 34be 7b4f 88be 9b4f 1dbf
000000a0: 2374 35be 2195 ec3d 9974 44be 0d45 88be
000000b0: 858a 503c d879 2cbe 3591 a43d 933b c03d
000000c0: 7470 84be 6e57 30be 0121 9abd 5cbc 993e
000000d0: 6dc6 cbbd dc25 80be 1a69 e0be 8e4c d5bd
000000e0: f81a 5cbe 7c6f 51be 3b4a c1bd af92 bbbd
000000f0: 5d0c 30be c230 d7bd 3a56 febd 9204 9abe
00000100: 32af 4b3b 527f 44be 0820 26be 5a7e eebd
00000110: 23d7 803d 3184 e3bd f459 78be aefe 9ebe
00000120: bb57 25be 8b93 383d da4e 08bd 6e9f a33e
00000130: 825f 2abe 4ea6 b0bd 3fb6 8bbe 9ec3 1abe
00000140: 128d 66be 50ee 1cbd 8652 0dbe 8542 203e
00000150: ccb8 b3bd bea5 6dbe 010a 513e 8791 efbe
00000160: e816 4bbe 14a4 cebe c669 12bf 0efa a0be
00000170: 53ce 53bd c233 15be 3e51 a53d 62dc 69be
00000180: 4b4d 06bd da5f 08be 8ab7 143c ddd5 413d
00000190: 4b5c bcbd 05bc f0bd 912a 76be de2a a5be
000001a0: 9685 8c3d 43ed b43b 1e13 92be 902c 38be
000001b0: 8aaa 09be 879d 813d 5488 febc dbed 6ebd
000001c0: 1ad9 9b3d 6653 8ebe 4139 8bbe e3b7 2bbd
000001d0: a049 46bd 483c abbe f066 62be 81e8 fdbd
000001e0: 91a0 c8bd d58a bebd 99d2 06be 7f99 fdbc
000001f0: 35d9 80be 6dcb 68be e34e aabd 17a8 1abf

fc2.weight f4 [128, 128]
0.062464762 0.056764316 -1.0424508 -0.073724784 -0.02332072 0.19288382 -0.18324392 -0.43372083
-0.8926673 0.8071583 -2.0434728 -0.25312263 -2.507362 0.47184405 -0.958151 0.5739846
-0.0033977935 0.24008994 -0.06500771 -0.3056849 0.8165365 0.054255735 0.035880774 -0.15755676
0.09106973 -0.06303113 0.263383 0.7761928 0.2805511 -0.03477001 -0.27116433 -0.94309115
0.4049446 -0.60280484 -0.08238836 0.19447687 0.4082902 0.027414586 0.24249263 1.406018
-0.28871456 0.25955272 -0.10864205 0.106839 0.33421874 0.534482 0.28132337 0.982058
0.14114632 -2.8521767 0.0030689666 0.044671 0.003854759 0.8095289 -0.45109764 0.19579297
0.118183784 0.14411068 -0.46023953 0.7574908 -0.045209017 0.31331262 0.009172729 -1.6755533
0.30327782 0.01069471 -0.4862323 -0.8406948 0.013674293 -0.104094036 0.18498519 -1.0223831
-0.19299708 -1.1509355 0.4679021 0.014644703 0.171068 1.1547452 -0.5438571 -0.0010258863
-0.16214982 -1.0586482 0.20515001 0.24163099 -0.55051154 0.03968463 0.116996884 1.0706079
-0.058343038 0.046092007 -1.0317426 0.19872302 -0.04597975 -0.06487548 -0.05301458 -0.62695754
-0.42084008 0.043701902 0.035264306 -0.56516844 0.003320083 0.23060194 -0.063236296 -0.40601593
-0.018805092 -1.1285573 0.083945654 -0.03727159 0.44614875 -1.1520427 0.13172382 -0.061665986
0.4077773 -1.9679945 0.07607629 -0.24867342 0.070400216 -0.007656599 0.4747579 -0.78446734
0.5931761 0.87823564 0.2984066 -0.028898835 -0.35969564 -0.053826082 -1.1774013 -0.3109326
0.0683942 -0.074273005 -1.115136 0.30378452 -0.10076539 -0.44995046 0.72198516 0.7473325
-0.11317698 -0.65354806 -0.8846059 -0.10299092 -1.9503973 0.3979301 -0.30230784 1.1031967
0.07503079 0.02392563 -0.35421225 0.25564477 -0.6774279 -0.01950594 1.3202777 -0.04969047
0.08475498 0.028618839 0.013465084 -1.3108585 -0.7154243 -0.008233605 0.37702706 -1.4726137
0.09470787 -0.40109846 -0.29433563 0.86631197 0.34921542 0.005385538 0.69384074 -0.03939758
-0.0592274 0.31633928 -0.17952621 -0.115479276 0.3802357 0.38369575 0.1705301 -0.21653481
-0.30834436 -1.349718 0.35006642 0.67955536 -0.00062352174 0.28322402 -0.3914553 -0.03578909
-0.2407738 -0.48063287 -0.23291956 -1.5220433 0.027179256 -0.050186362 -1.6127081 -1.973148
0.3089958 -0.3554738 -0.8513894 -0.12525058 0.2479667 0.047707874 0.25022113 -0.8357982
-0.07575336 -1.2851406 0.5885918 0.12878263 1.03686 0.5036115 -0.6242942 0.0071031176
-1.2051159 0.855893 -0.15864708 0.16775544 0.33725488 0.0019140057 0.1343593 -1.2303017
-0.05869403 -0.12054572 -0.96463794 0.09708396 0.3326002 0.040392153 0.08090073 0.15121303
0.16577213 0.01544528 -0.055170216 0.62654483 0.013614841 1.6098765 -0.0006180166 -0.13812698
0.043573245 -1.1005311 0.5736332 0.032147754 -0.14317177 0.9395843 -1.2607162 0.0466076
0.93687737 -1.8656942 -0.04418446 0.19417399 0.05479864 -0.6425751 0.2818518 0.9474563
-0.00876456 0.49921572 0.3668 0.02337783 -2.3383694 -1.0088575 0.6337184 -0.5444656
00000000: 0ddb 7f3d b381 683d 076f 85bf 05fd 96bd
00000010: 180b bfbc 5683 453e 4ba4 3bbe a810 debe
00000020: d885 64bf eda1 4e3f 42c8 02c0 4a99 81be
00000030: 9e78 20c0 8b95 f13e 6249 75bf a8f0 123f
00000040: 84ad 5ebb 23da 753e c322 85bd bb82 9cbe
00000050: 8908 513f 433b 5e3d b8f7 123d 8f56 21be
00000060: c482 ba3d 7716 81bd 23da 863e 92b4 463f
00000070: 65a4 8f3e ff6a 0ebd 0dd6 8abe 6c6e 71bf
00000080: e654 cf3e 6b51 1abf 3abb a8bd f224 473e
00000090: 6a0b d13e 8e94 e03c fd4f 783e 66f8 b33f
000000a0: 65d2 93be 18e4 843e b97f debd 68ce da3d
000000b0: b81e ab3e d0d3 083f 9e09 903e 2768 7b3f
000000c0: a988 103e 108a 36c0 b720 493b f0f8 363d
000000d0: 20a0 7c3b 493d 4f3f 45f6 e6be f47d 483e
000000e0: 570a f23d c091 133e 84a4 ebbe ebea 413f
000000f0: 172d 39bd 836a a03e 3749 163c 8878 d6bf
00000100: 3b47 9b3e dd38 2f3c 71f3 f8be c637 57bf
00000110: 240a 603c 412f d5bd c26c 3d3e 73dd 82bf
00000120: 07a1 45be db51 93bf dd90 ef3e 56f0 6f3c
00000130: 732c 2f3e b1ce 933f 383a 0bbf 0877 86ba
00000140: 9a0a 26be c981 87bf d812 523e 1d6e 773e
00000150: 53ee 0cbf 5a8c 223d 109c ef3d ae09 893f
00000160: 1cf9 6ebd f9ca 3c3d 2410 84bf 0c7e 4b3e
00000170: 4355 3cbd 70dd 84bd d125 59bd 4a80 20bf
00000180: 5a78 d7be c400 333d 4e71 103d e1ae 10bf
00000190: c095 593b ea22 6c3e 0882 81bd 52e1 cfbe
000001a0: 230d 9abc 9174 90bf b3eb ab3d 18aa 18bd
000001b0: 9c6d e43e 2376 93bf 9ce2 063e 7995 7cbd
000001c0: 30c8 d03e 3ee7 fbbf e3cd 9b3d 3fa4 7ebe
000001d0: fd2d 903d 35e4 fabb 7813 f33e dad2 48bf
000001e0: 64da 173f 0dd4 603f c0c8 983e 40bd ecbc
000001f0: 072a b8be bd78 5cbd 16b5 96bf 8f32 9fbe
00000200: 4212 8c3d 721c 98bd c7bc 8ebf a589 9b3e
00000210: 165e cebd e85f e6be 05d4 383f 2f51 3f3f
00000220: 55c9 e7bd ed4e 27bf 8875 62bf e7ec d2bd
00000230: 9ea6 f9bf 7ebd cb3e 18c8 9abe 8d35 8d3f
00000240: bea9 993d afff c33c 4f5b b5be dfe3 823e
00000250: ea6b 2dbf ecca 9fbc dcfe a83f 3c88 4bbd
00000260: 0594 ad3d 0e72 ea3c a89c 5c3c 36ca a7bf
00000270: 0c26 37bf 3ee6 06bc b109 c13e 9b7e bcbf
00000280: 33f6 c13d c75c cdbe 29b3 96be 9fc6 5d3f
00000290: 5dcc b23e 2b79 b03b 8c9f 313f 5b5f 21bd
000002a0: 6e98 72bd 39f7 a13e b8d5 37be 6680 ecbd
000002b0: 41ae c23e c573 c43e 719f 2e3e 4dbb 5dbe
000002c0: 50df 9dbe 8fc3 acbf e83b b33e 57f7 2d3f
000002d0: d673 23ba bd02 913e d46c c8be 9597 12bd
000002e0: 688d 76be 8315 f6be 7782 6ebe 51d2 c2bf
000002f0: 08a7 de3c 3790 4dbd 386d cebf 1d90 fcbf
00000300: b334 9e3e a900 b6be a8f4 59bf b041 00be
00000310: fcea 7d3e 5569 433d fc1c 803e dff6 55bf
00000320: 9424 9bbd 7d7f a4bf f4ad 163f 98df 033e
00000330: d4b7 843f afec 003f bfd1 1fbf 45c1 e83b
00000340: 3d41 9abf ce1b 5b3f 6174 22be 15c8 2b3e
00000350: acac ac3e 60df fa3a 7c95 093e 877a 9dbf
00000360: 2769 70bd ade0 f6bd 83f2 76bf f5d3 c63d
00000370: 934a aa3e 3e72 253d 48af a53d 97d7 1a3e
00000380: 2bc0 293e 330e 7d3c 2afa 61bd 3e65 203f
00000390: c810 5f3c 6f10 ce3f 6402 22ba 2971 0dbe
000003a0: dc79 323d 34de 8cbf a0d9 123f 5dad 033d
000003b0: 9f9b 12be 9988 703f 265f a1bf 9ce7 3e3d
000003c0: 32d7 6f3f 11cf eebf c4fa 34bd 8cd5 463e
000003d0: 8a74 603d cd7f 24bf e14e 903e 7f8c 723f
000003e0: 3b99 0fbc 3499 ff3e 36cd bb3e dd82 bf3c
000003f0: d8a7 15c0 3e22 81bf 5e3b 223f 1962 0bbf

fc2.bias f4 [128]
-0.051217698 -0.14943975 -0.031503912 0.44693607 -0.1912216 -0.26271105 -0.009569458 -0.12961736
0.10855147 -0.06990125 -0.3397968 -0.20824106 0.5806811 1.5292459 -0.1356252 -0.16719873
0.23685876 1.1515963 0.118180044 -0.103459194 0.9405267 -0.12034973 -0.37897405 -0.014843879
0.5330021 -0.07501953 0.7028637 0.62214667 -0.20274179 -0.066230826 0.4820303 1.2250469
0.52058685 0.64792854 0.025129419 -0.36145377 0.11833497 -0.0781638 0.8617637 0.1013561
-0.21294484 0.7455157 0.025708647 0.1942738 -0.117550544 -0.029611534 1.1312861 0.38118255
1.1910068 -0.22032966 -0.045507014 -0.06917083 -0.042648736 -0.17004769 0.2942721 0.1652891
0.46507162 0.035229765 -0.123276874 -0.07870004 0.32590228 -0.25967833 0.43302587 1.146049
-0.14022334 0.17041597 -0.35429677 -0.08250326 -0.17244084 0.21905477 -0.14845695 -0.041673828
-0.11811729 -0.47392523 -0.088922575 0.33023125 -0.1487436 -0.1368696 -0.089959286 0.2587359
0.18536521 -0.6020788 0.7742766 0.35178784 0.24353634 -0.09189719 0.55387884 0.12891282
0.10017131 -0.026839113 0.029093366 0.5479803 -0.20172831 0.17737608 -0.15338145 1.0867298
0.5165057 -0.01822298 -0.10985827 -0.033912618 0.026741585 0.30440065 0.5946069 0.10963101
0.592829 -0.08642022 0.29023474 0.67599344 0.34937283 -0.20006318 0.31327727 -0.2679237
-0.12381241 -0.02938949 0.022288227 0.6009726 -0.4821117 0.06532737 0.5217533 -0.1422048
0.60601455 0.036410157 0.020917408 -0.058258895 0.89171886 -0.14021921 -0.12452692 -0.10893082
00000000: a6c9 51bd bc06 19be 3f0a 01bd ced4 e43e
00000010: 98cf 43be 1082 86be 37c9 1cbc 6aba 04be
00000020: 3c50 de3d 6328 8fbd d9f9 adbe 253d 55be
00000030: 84a7 143f 54be c33f 55e1 0abe 2536 2bbe
00000040: 1a8b 723e 8267 933f 6108 f23d 6ae2 d3bd
00000050: 5cc6 703f eb79 f6bd e308 c2be be33 73bc
00000060: d372 083f d7a3 99bd e0ee 333f 0145 1f3f
00000070: 8b9b 4fbe 07a4 87bd adcc f63e 56ce 9c3f
00000080: 2e45 053f a5de 253f 36dc cd3c 7810 b9be
00000090: 9b59 f23d 5814 a0bd 8c9c 5c3f c993 cf3d
000000a0: 360e 5abe 1eda 3e3f f19a d23c b6ef 463e
000000b0: 57be f0bd e393 f2bc fccd 903f 5c2a c33e
000000c0: e972 983f 199e 61be 9065 3abd 70a9 8dbd
000000d0: 71b0 2ebd fb20 2ebe d5aa 963e 8c41 293e
000000e0: de1d ee3e 164d 103d 9678 fcbd 7d2d a1bd
000000f0: aadc a63e 8ff4 84be 91b5 dd3e bcb1 923f
00000100: b596 0fbe 8681 2e3e 6366 b5be 78f7 a8bd
00000110: 5594 30be e54f 603e 1905 18be 2db2 2abd
00000120: 7ae7 f1bd 54a6 f2be 0a1d b6bd 1214 a93e
00000130: 3e50 18be 8b27 0cbe 933c b8bd 0879 843e
00000140: 61d0 3d3e d621 1abf fe36 463f 891d b43e
00000150: 9761 793e 9834 bcbd 01cb 0d3f b901 043e
00000160: 9e26 cd3d b3dd dbbc 3655 ee3c 7048 0c3f
00000170: de91 4ebe 13a2 353e 0710 1dbe f619 8b3f
00000180: b839 043f 5c48 95bc 5ffd e0bd f5e7 0abd
00000190: 2b11 db3c 67da 9b3e 2838 183f 3986 e03d
000001a0: a4c3 173f 16fd b0bd a699 943e e80d 2d3f
000001b0: ffe0 b23e 5ddd 4cbe e165 a03e 4c2d 89be
000001c0: 5c91 fdbd 3ac2 f0bc cd95 b63c 57d9 193f
000001d0: 58d7 f6be 5bca 853d a091 053f 239e 11be
000001e0: c523 1b3f d122 153d fc5a ab3c e1a0 6ebd
000001f0: b047 643f a095 0fbe f807 ffbd 1f17 dfbd

fc3.weight f4 [2, 128]
0.50964665 0.89965934 -0.023420135 -2.2049854 1.9295192 -0.2696175 -0.07444638 0.066000134
-0.51913637 -0.021421758 -1.762951 0.05211234 0.30092683 -2.1473234 1.2051009 -0.08306991
1.0665386 -3.5172544 0.4273606 0.036587942 -1.1337105 -0.0036013692 0.7934199 1.099091
-4.7286525 0.012425479 -1.1484088 -1.4328417 -0.23306532 -0.005742585 0.61606777 -1.6477317
0.68693054 0.37150854 -0.018556157 1.1421509 2.7060175 0.008197172 0.46276772 -0.6661445
1.7593023 -3.1766887 -0.5203327 0.57287544 1.4222317 -0.0018078928 -0.9418658 0.5117153
-1.8839703 -0.519663 0.023561807 -0.045962367 -0.84308666 1.3948615 -0.84993136 2.3754961
0.47516456 1.5093508 -3.397354 -0.0019088639 -0.85734344 0.027109392 0.31188044 0.58080924
-0.030674454 1.0518458 -1.4396237 -0.018149756 0.03040983 1.0555006 -0.015885761 -0.00394297
-0.028551042 -0.7062113 0.056649562 0.5969289 0.044598367 0.004216494 -0.015738415 -1.3634363
0.54642946 0.50522333 0.524368 1.228365 1.435926 1.9980978 0.83904797 -3.453455
0.7917569 1.045795 1.3509017 -4.024168 1.4339863 2.2408643 -0.016477615 -3.4823675
0.5348465 0.011401624 0.029922435 0.016325735 1.3519356 0.76565236 -3.5336194 0.6867621
0.89246124 0.026775615 -1.016387 0.42567915 -3.0407817 -0.5204287 0.5743418 0.22891583
1.2960033 1.9758121 -0.007989653 -0.8079766 -1.178951 3.496734 0.29467165 -0.023119107
-0.79182243 1.0536457 -0.0044823554 -0.025730764 -2.0773485 0.9086213 0.04314941 0.009956477
0.6834736 0.52620214 -0.027410945 -1.029286 1.751905 -1.083243 0.038204815 0.009108333
-0.47312596 0.10403496 -1.8065299 -0.02101267 0.528591 -2.0963488 1.4432712 0.014619579
0.9239834 -4.3598485 0.9944566 0.04675463 -1.169919 0.040229864 1.2176719 -2.1989634
-1.4920001 0.0022878293 -0.79967713 -1.2312844 -0.7728466 0.0012165759 0.27017197 -1.2653366
0.53225553 0.35293695 0.064757034 -0.34263042 -2.6381843 0.12520742 0.49483392 0.5703919
1.0334896 -1.3638067 -0.2685969 1.4924536 1.1979678 -0.036729608 -1.5591439 0.42029288
-2.1932676 -0.50664955 -0.003624305 0.042901084 -0.23733962 0.44322476 -3.3524616 1.5587363
0.47296247 1.8216707 1.799471 -0.0024823966 0.35169518 0.01243802 1.0077529 0.61833596
0.030089384 1.3976647 -0.9361864 0.0041188784 -0.10295789 1.0541874 0.03358314 0.035471786
-0.013490581 -0.5776665 0.06193369 0.43709895 0.011722656 0.03218277 0.040848892 3.5698416
0.57214 0.6594374 0.5089529 1.3535681 -2.0746686 -2.2792726 0.856731 0.026967527
0.5280862 0.8687306 0.6039182 -1.6746284 0.955951 -0.2660744 0.0142601505 -1.7797552
0.43616334 0.016728345 0.03340161 0.10848389 1.9766402 1.053654 -2.9308617 0.8023482
1.1901163 -0.032110497 -0.8287953 0.55721056 -2.9078112 0.19434829 0.58180815 -0.28036213
1.4798472 1.8879666 -0.036958944 -0.5245973 -0.5543439 -1.7431717 0.21171494 0.037296586
-2.560021 1.1882079 0.06470562 -0.013182376 -1.6193763 -1.9971799 -0.06204299 -0.024310542
00000000: 3478 023f 1350 663f 95db bfbc 7b1e 0dc0
00000010: 7cfa f63f 4e0b 8abe 5877 98bd 142b 873d
00000020: 1fe6 04bf af7c afbc 61a8 e1bf c073 553d
00000030: 1513 9a3e bf6d 09c0 bf40 9a3f 8f20 aabd
00000040: 5684 883f b21a 61c0 02cf da3e 3ddd 153d
00000050: 6d1d 91bf f304 6cbb 911d 4b3f 04af 8c3f
00000060: 1f51 97c0 3c94 4b3c 0fff 92bf 5b67 b7bf
00000070: ada8 6ebe 4b2c bcbb 9eb6 1d3f dfe8 d2bf
00000080: aeda 2f3f 5e36 be3e 1503 98bc 0032 923f
00000090: 642f 2d40 6e4d 063c e4ef ec3e 7288 2abf
000000a0: d130 e13f de4e 4bc0 8634 05bf f7a7 123f
000000b0: b00b b63f d1f6 ecba 1e1e 71bf c6ff 023f
000000c0: f025 f1bf a208 05bf b104 c13c 0943 3cbd
000000d0: 87d4 57bf d28a b23f 1a95 59bf 2108 1840
000000e0: c548 f33e 6832 c13f 3f6e 59c0 d832 faba
000000f0: dc7a 5bbf 8414 de3c cbae 9f3e eaaf 143f
00000100: fe48 fbbc e2a2 863f 9745 b8bf ccae 94bc
00000110: 091e f93c a51a 873f db22 82bc 0834 81bb
00000120: e0e3 e9bc 44ca 34bf 5f09 683d 55d0 183f
00000130: c7ac 363d 842a 8a3b d9ed 80bc 1585 aebf
00000140: cde2 0b3f 5156 013f fb3c 063f 103b 9d3f
00000150: 6ccc b73f abc1 ff3f d9cb 563f 6805 5dc0
00000160: 95b0 4a3f 9cdc 853f 59ea ac3f fcc5 80c0
00000170: dd8c b73f 526a 0f40 10fc 86bc 1cdf 5ec0
00000180: b3eb 083f e1cd 3a3c e51f f53c 8cbd 853c
00000190: 3a0c ad3f cb01 443f d226 62c0 a4cf 2f3f
000001a0: 5778 643f 8958 db3c f818 82bf 9ef2 d93e
000001b0: 2b9c 42c0 d13a 05bf 1008 133f e968 6a3e
000001c0: 70e3 a53f 69e7 fc3f 09e7 02bc 8ed7 4ebf
000001d0: dee7 96bf 7dca 5f40 34df 963e 4864 bdbc
000001e0: e0b4 4abf dddd 863f b9e0 92bb 53c9 d2bc
000001f0: 47f3 04c0 689b 683f 70bd 303d 7e20 233c
00000200: 20f8 2e3f 2fb5 063f eb8c e0bc a5bf 83bf
00000210: 6c3e e03f b5a7 8abf a77c 1c3d 1e3b 153c
00000220: 913d f2be 4810 d53d 5f3c e7bf c322 acbc
00000230: bd51 073f 942a 06c0 1cbd b83f f586 6f3c
00000240: 2d8a 6c3f e183 8bc0 b594 7e3f c881 3f3d
00000250: e8bf 95bf 12c8 243d acdc 9b3f d1bb 0cc0
00000260: dcf9 bebf 68ef 153b a4b7 4cbf ba9a 9dbf
00000270: 46d9 45bf 8375 9f3a fb53 8a3e 8df6 a1bf
00000280: e641 083f 27b4 b43e 569f 843d 416d afbe
00000290: 03d8 28c0 6036 003e df5a fd3e 3405 123f
000002a0: 6349 843f 3891 aebf 8885 89be b808 bf3f
000002b0: 0257 993f c971 16bd 0792 c7bf a130 d73e
000002c0: 7f5e 0cc0 c9b3 01bf bf85 6dbb 0cb9 2f3d
000002d0: 2809 73be 5bee e23e bb8e 56c0 ac84 c73f
000002e0: 2328 f23e 812c e93f 1155 e63f b4af 22bb
000002f0: 6411 b43e d6c8 4b3c 0cfe 803f 444b 1e3f
00000300: 037e f63c ade6 b23f e9a9 6fbf a8f7 863b
00000310: 96db d2bd 9def 863f 798e 093d dd4a 113d
00000320: 9907 5dbc f4e1 13bf 2eae 7d3d 6fcb df3e
00000330: 6210 403c 15d2 033d 2b51 273d 4978 6440
00000340: c477 123f e4d0 283f bd4a 023f b841 ad3f
00000350: 5fc7 04c0 9adf 11c0 b952 5b3f 01eb dc3c
00000360: a830 073f 2165 5e3f 629a 1a3f 395a d6bf
00000370: 34b9 743f e73a 88be 68a3 693c 05cf e3bf
00000380: cd50 df3e e209 893c 20d0 083d cd2c de3d
00000390: 8c02 fd3f 22de 863f 3d93 3bc0 b166 4d3f
000003a0: bb55 983f 4c86 03bd ee2b 54bf 5aa5 0e3f
000003b0: 9419 3ac0 3d03 473e 61f1 143f a08b 8fbe
000003c0: a26b bd3f e4a8 f13f 4362 17bd 024c 06bf
000003d0: 7be9 0dbf 4020 dfbf cdcb 583e 4ec4 183d
000003e0: 62d7 23c0 3217 983f 6184 843d e4fa 57bc
000003f0: b947 cfbf 97a3 ffbf ca20 7ebd e726 c7bc

fc3.bias f4 [2]
0.39395365 0.48856762
00000000: 4bb4 c93e 8925 fa3e

fc1.weight f4 [128, 31]
-0.09744403 -0.07499303 -0.028388903 -0.0904782 0.019525586 -0.042784978 -0.22190244 0.07219425
-0.035783954 0.1116533 -0.23253433 -0.15383 0.1632797 0.10081693 0.092160545 0.09864942
-0.057880968 -0.09832543 -0.010416854 -0.20608722 -0.004541064 0.053777296 -0.07690999 0.063764855
-0.020565042 0.0804837 0.08272738 0.06762819 0.02256878 0.016819915 -0.07448603 -0.14976372
-0.19231257 -0.09681598 -0.19755411 -0.004819947 -0.037671633 -0.10582221 0.0829983 0.004004256
0.0060370266 0.0693355 -0.1805018 0.0484596 0.082927845 0.054641914 -0.050066534 0.100421235
0.14658788 0.0075170225 0.07715208 -0.1196645 0.081181325 0.10604859 -0.06376234 0.044753894
-0.025640802 0.005287435 -0.053520557 -0.010245991 0.1548277 -0.16673048 -0.24461773 0.8748794
0.13656363 -0.19712143 -0.78666794 -1.9200726 0.9393437 0.6829776 -1.4578733 2.1448548
-0.29659945 0.11797196 0.47021884 -0.7317991 0.17853472 0.10705386 0.39558777 -0.22310665
0.8688652 -0.20097806 0.39555135 -0.453419 0.608557 -0.042756446 0.4304895 -0.3095148
-0.20792538 -0.051331975 -0.49216196 0.7209644 0.27947333 0.05353837 0.22575517 0.03191869
-0.0582115 -0.189399 -0.04078111 0.14445744 -0.12337944 -0.114339225 0.27267036 0.111911334
-0.17561956 -0.27464333 0.22792642 0.027956214 0.11227224 0.11083213 -0.0123434495 -0.053463753
0.037582934 3.0765245 0.8464941 -4.919018 0.22721347 2.304916 0.74454916 -0.7984441
0.102067806 1.3867302 -0.5662264 -0.1454537 -0.2516285 -0.17965725 0.065591246 0.02755698
-0.11913344 -0.1480866 -0.098374516 -0.019444391 -0.15975867 0.27231508 0.08783523 -0.16657732
-0.18249199 -0.07966719 0.056215324 0.09738597 0.19983536 0.1931063 0.10929224 -0.13260841
0.20878375 -0.028522065 0.15225793 -0.006691923 -0.03623672 0.18216951 -0.13557184 0.041848317
-0.06589977 -0.0509776 -0.02616849 -0.5492679 -0.22069713 0.1290133 -0.50642824 1.5969847
1.5933793 -0.5208186 -0.47261262 -1.2102975 2.2429647 1.4732971 -0.3160977 0.3702998
0.08243499 -0.35909605 -0.13370445 -0.1311417 0.43903798 0.41307423 -0.4278399 0.13853118
1.4518903 1.169379 -0.2243469 0.20146844 1.111586 -0.011787215 -0.20549539 0.2216718
0.886901 0.2845703 0.1402811 -0.30999103 0.124043286 0.25786215 -1.6393927 -0.43073955
0.6996946 0.5740728 -0.7927233 1.3296806 0.21653035 0.29509968 0.16062005 0.743338
1.1320026 0.61713964 -0.25737906 0.7048376 0.853661 0.47771472 0.028768009 0.51548165
-0.19132894 0.4124372 0.3798106 0.4285758 0.33433405 0.5432014 0.05209611 0.80526626
0.9447657 -0.16962123 -0.07306229 0.1713545 -0.078333795 2.0658867 -2.1115134 -0.23753469
-0.33192575 0.055878878 -1.9382703 2.0044487 -0.038432878 0.9101591 -0.4439727 0.14630976
-0.025217166 -0.46035483 -0.6268917 1.4803331 0.15001382 0.07306696 -0.18882546 -0.1079332
-0.07710748 -0.10492895 1.0448537 -0.0710197 0.04981324 0.5909614 0.037806556 -0.21674901
0.22128713 -1.6348145 -0.03495194 0.29125744 -3.4419036 0.515852 0.44127443 0.21037798
00000000: bc90 c7bd f295 99bd d88f e8bc a24c b9bd
00000010: 1ff4 9f3c 4d3f 2fbd 653a 63be 94da 933d
00000020: 3292 12bd 7caa e43d 7b1d 6ebe 9d85 1dbe
00000030: cb32 273e 1b79 ce3d abbe bc3d b508 ca3d
00000040: 9814 6dbd d85e c9bd 74ab 2abc 8708 53be
00000050: 35cd 94bb 9545 5c3d fc82 9dbd 2697 823d
00000060: 0578 a8bc a3d4 a43d f96c a93d a680 8a3d
00000070: 2ae2 b83c ebc9 893c 228c 98bd a95b 19be
00000080: 96ed 44be 7547 c6bd a04b 4abe a5f0 9dbb
00000090: 924d 1abd 51b9 d8bd 03fb a93d 2236 833b
000000a0: 40d2 c53b c5ff 8d3d 77d5 38be 937d 463d
000000b0: 13d6 a93d 33d0 5f3d 9112 4dbd a6a9 cd3d
000000c0: 221b 163e 5b51 f63b e901 9e3d a912 f5bd
000000d0: 6542 a63d 0130 d93d d495 82bd dc4f 373d
000000e0: a90c d2bc 3842 ad3b 5f38 5bbd cdde 27bc
000000f0: 278b 1e3e 65bb 2abe 127d 7abe 19f8 5f3f
00000100: 56d7 0b3e 33da 49be 1263 49bf f0c4 f5bf
00000110: d478 703f 9fd7 2e3f 989b babf 4d45 0940
00000120: e2db 97be 489b f13d 86c0 f03e 3057 3bbf
00000130: ced1 363e 0e3f db3d 7b8a ca3e 1276 64be
00000140: f36d 5e3f 31cd 4dbe b585 ca3e 8926 e8be
00000150: 64ca 1b3f 6221 2fbd 1f69 dc3e b978 9ebe
00000160: 64ea 54be 7a41 52bd a7fc fbbe 1f91 383f
00000170: 2117 8f3e 0d4b 5b3d 5d2c 673e 2cbd 023d
00000180: 2f6f 6ebd d0f1 41be 180a 27bd a7ec 133e
00000190: 5cae fcbd af2a eabd 739b 8b3e c531 e53d
000001a0: 9dd5 33be 0d9e 8cbe 8b65 693e 6e04 e53c
000001b0: fdee e53d f5fb e23d 2e3c 4abc cffc 5abd
000001c0: 90f0 193d c7e5 4440 d6b3 583f 9868 9dc0
000001d0: a6aa 683e be83 1340 c69a 3e3f d566 4cbf
000001e0: ed08 d13d 6080 b13f 37f4 10bf d1f1 14be
000001f0: 73d5 80be 12f8 37be b454 863d 2dbf e13c
00000200: 3cfc f3bd 03a4 17be 9478 c9bd d849 9fbc
00000210: c797 23be e26c 8b3e f5e2 b33d 3f93 2abe
00000220: 2edf 3abe 8d28 a3bd 0a42 663d 4c72 c73d
00000230: a4a1 4c3e a8bd 453e 9cd4 df3d 80ca 07be
00000240: 68cb 553e 1ba7 e9bc 81e9 1b3e eb47 dbbb
00000250: f46c 14bd a58a 3a3e 58d3 0abe 2469 2b3d
00000260: 75f6 86bd e3cd 50bd 4d5f d6bc d29c 0cbf
00000270: 6efe 61be 101c 043e 48a5 01bf ff69 cc3f
00000280: daf3 cb3f 5e54 05bf 48fa f1be 07eb 9abf
00000290: bc8c 0f40 0095 bc3f 8fd7 a1be ef97 bd3e
000002a0: add3 a83d 70db b7be d2e9 08be 034a 06be
000002b0: 96c9 e03e 777e d33e d50d dbbe 1edb 0d3e
000002c0: 8bd7 b93f 36ae 953f 32bb 65be be4d 4e3e
000002d0: 7348 8e3f 2a1f 41bc 626d 52be effd 623e
000002e0: f20b 633f 33b3 913e d9a5 0f3e 25b7 9ebe
000002f0: 680a fe3d 8206 843e 9fd7 d1bf e589 dcbe
00000300: 2f1f 333f 6ff6 123f eaef 4abf f932 aa3f
00000310: 22ba 5d3e 4e17 973e 9579 243e 664b 3e3f
00000320: 76e5 903f ddfc 1d3f 30c7 83be 3d70 343f
00000330: 8789 5a3f 0697 f43e e3aa eb3c 9bf6 033f
00000340: bceb 43be f82a d33e 8976 c23e 4a6e db3e
00000350: d52d ab3e 3f0f 0b3f bb62 553d ee25 4e3f
00000360: 2adc 713f 30b1 2dbe afa1 95bd 8e77 2f3e
00000370: 786d a0bd 7d37 0440 0923 07c0 4b3c 73be
00000380: 2cf2 a9be 40e1 643d 3e19 f8bf e348 0040
00000390: cb6b 1dbd 3000 693f 6450 e3be 3ad2 153e
000003a0: 3b94 cebc a1b3 ebbe f97b 20bf 8e7b bd3f
000003b0: 399d 193e 21a4 953d 765b 41be 150c ddbd
000003c0: 87ea 9dbd fde4 d6bd c4bd 853f c772 91bd
000003d0: f808 4c3d 3f49 173f 0cdb 1a3d 74f3 5dbe
000003e0: 1899 623e 9a41 d1bf c429 0fbd b21f 953e
000003f0: 2648 5cc0 e00e 043f b9ee e13e 536d 573e

fc1.bias f4 [128]
-0.15474424 0.057263263 -0.19972806 -0.07402081 -0.07810595 -0.29572865 -0.046351973 -0.3305016
0.004906808 -0.25698572 0.016544227 -0.2937929 -0.22250193 -0.12415623 -0.2558107 -0.26059353
-0.20796753 0.09135947 0.0320639 -0.16258268 -0.34107196 -0.14710894 -0.17677519 -0.22299784
-0.1695514 -0.07520741 -0.08159483 -0.07551387 -0.37651622 -0.09394097 -0.28393635 -0.06967409
-0.22117704 -0.111388475 -0.3127556 -0.61753416 -0.15573503 -0.17642719 -0.27524173 -0.58310413
-0.18201461 0.11258938 -0.20393346 -0.26908034 0.02865722 -0.17426893 0.06348704 0.07618934
-0.2816467 -0.17637372 -0.08228047 0.29289073 -0.09949956 -0.251053 -0.40492702 -0.11470012
-0.2117857 -0.19434105 -0.100193664 -0.099890746 -0.17192216 -0.10958811 -0.14451645 -0.29961452
0.00080536644 -0.19189194 -0.15785304 -0.11602 0.062131923 -0.11109198 -0.22728471 -0.30798793
-0.16146748 0.03375806 -0.03385991 0.32516834 -0.16524461 -0.07567147 -0.2545862 -0.15113685
-0.21122794 -0.051258728 -0.12839404 0.14614205 -0.0841654 -0.23207757 0.20139824 -0.481532
-0.19832957 -0.39754423 -0.57177186 -0.3278331 -0.04183496 -0.14570525 0.08072136 -0.2288308
-0.01923243 -0.15125227 0.009076962 0.04567949 -0.09197291 -0.13261004 -0.26234382 -0.32476452
0.06861417 0.01404506 -0.2743736 -0.17985749 -0.13519607 0.05578472 -0.029172892 -0.058332305
0.089240655 -0.27616185 -0.2719212 -0.08157886 -0.048410058 -0.36862355 -0.21576442 -0.1343305
-0.09504253 -0.080966 -0.15734588 -0.022425693 -0.24048878 -0.2181334 -0.10010191 -0.60412735
00000000: 4675 1ebe e28c 6a3d 8385 4cbe 3998 97bd
00000010: 03f6 9fbd bf69 97be 91db 3dbd 8137 a9be
00000020: 4ac9 a03b a293 83be c287 873c 066c 96be
00000030: 8cd7 63be 9f45 febd 9ff9 82be 846c 85be
00000040: 71f5 54be ac1a bb3d 7055 033d 137c 26be
00000050: fca0 aebe baa3 16be 8e04 35be 8c59 64be
00000060: e29e 2dbe 5806 9abd 311b a7bd 04a7 9abd
00000070: bcc6 c0be 2064 c0bd 1b60 91be 4ab1 8ebd
00000080: 3c7c 62be a41f e4bd 8121 a0be b816 1ebf
00000090: 0179 1fbe 54a9 34be 7cec 8cbe 5046 15bf
000000a0: 0a62 3abe 4395 e63d efd3 50be e6c4 89be
000000b0: 8cc2 ea3c 8e73 32be 7e05 823d 2809 9c3d
000000c0: ff33 90be 509b 34be aa82 a8bd c6f5 953e
000000d0: 6dc6 cbbd 058a 80be 9852 cfbe e6e7 eabd
000000e0: 5ade 58be 5701 47be 5632 cdbd 8593 ccbd
000000f0: 5d0c 30be bb6f e0bd 1ffc 13be 1367 99be
00000100: 3a1f 533a 527f 44be 3aa4 21be e59b edbd
00000110: 0b7e 7e3d 3184 e3bd 53bd 68be 98b0 9dbe
00000120: bb57 25be e445 0a3d b0b0 0abd 777c a63e
00000130: e235 29be a5f9 9abd 1f59 82be 9ec3 1abe
00000140: 234c 58be acf4 51bd ba79 03be 43a6 153e
00000150: e95e acbd bea5 6dbe 573b 4e3e 5d8b f6be
00000160: e816 4bbe eb8a cbbe a45f 12bf bdd9 a7be
00000170: 235b 2bbd c233 15be 3e51 a53d 9f52 6abe
00000180: 548d 9dbc e0e1 1abe 8ab7 143c 6b1a 3b3d
00000190: 4b5c bcbd edca 07be ee51 86be 8947 a6be
000001a0: 9685 8c3d 401d 663c b27a 8cbe 902c 38be
000001b0: d770 0abe 857e 643d fdfb eebc dbed 6ebd
000001c0: cec3 b63d 1665 8dbe 4139 8bbe d112 a7bd
000001d0: a049 46bd 3abc bcbe 59f1 5cbe ef8d 09be
000001e0: a8a5 c2bd 81d1 a5bd 471f 21be 16b6 b7bc
000001f0: b142 76be 5d5e 5fbe 3b02 cdbd 17a8 1abf

fc2.weight f4 [128, 128]
0.062464762 0.056764316 -1.028643 -0.20534761 -0.02332072 0.15717308 -0.18308416 -0.45386636
-0.91318387 0.78659195 -1.9478027 -0.25312263 -2.6356804 0.49024022 -0.9895377 0.49075451
-0.0033977935 0.23614663 -0.052176483 -0.2915666 0.8393438 0.054255735 0.11054095 -0.19942375
0.09106973 -0.06303113 0.16139293 0.82733166 0.1837459 -0.03477001 -0.26929516 -1.0037657
0.3688526 -0.60875034 -0.13731523 0.1284376 0.42515817 0.027414586 0.29912093 1.406018
-0.25973806 0.24907504 -0.20850974 0.1404145 0.33977857 0.5039585 0.29847065 0.88573545
0.13928306 -2.7164516 0.042272035 0.07243824 0.003854759 0.6345463 -0.43116525 0.25008282
0.12215041 0.19018851 -0.4455914 0.79893506 -0.045209017 0.31924084 -0.0635392 -1.8906413
0.33335146 0.01069471 -0.43980172 -0.90222275 0.022184093 -0.104094036 0.20889468 -1.030677
-0.19299708 -1.1649613 0.35448626 0.0119149415 0.12339776 1.0912254 -0.47592407 -0.0010258863
-0.1388047 -1.0057541 0.21436 0.2552906 -0.55672127 0.03968463 0.10306521 1.0588027
-0.058343038 0.03434959 -1.0317426 0.19872302 0.019443007 -0.06487548 -0.05301458 -0.60861874
-0.36352208 0.019997342 0.035264306 -0.47344238 0.003320083 0.47856408 -0.11747423 -0.45508546
-0.018805092 -1.2140342 0.008363662 -0.03727159 0.47708026 -1.1441227 0.16042498 -0.061665986
0.42978486 -1.9973546 0.07607629 -0.25563022 0.070400216 -0.04605802 0.4700959 -0.63516754
0.59579587 0.7564295 0.2984066 -0.028898835 -0.36914304 -0.053448766 -1.0508018 -0.3109326
0.0683942 -0.074273005 -1.1911274 0.36063275 -0.10076539 -0.46038 0.6798627 0.76003945
-0.16522062 -0.69249785 -0.930205 -0.10299092 -1.9412023 0.3634955 -0.5249078 1.0625695
0.07503079 0.02265984 -0.43996093 0.19937286 -0.7065718 -0.01950594 1.2635446 -0.11286547
0.08475498 0.028618839 0.061070606 -1.3168962 -0.65652496 -0.008233605 0.3616346 -1.4443655
0.102756 -0.46863884 -0.30826783 0.8583211 0.35553235 0.005385538 0.65264463 -0.047882214
-0.04650061 0.3416274 -0.2479635 -0.13994023 0.3641378 0.44176632 0.2020478 -0.256307
-0.30766675 -1.2837795 0.3337625 0.659257 -0.00062352174 0.3370179 -0.41817755 -0.08766838
-0.32811046 -0.5014685 -0.21656372 -1.5108329 0.027179256 -0.07307921 -1.6598477 -1.884468
0.32512084 -0.3554738 -0.90137106 -0.21457785 0.2752974 0.047707874 0.25573546 -0.92454875
-0.07575336 -1.2573797 0.6029461 0.12678252 1.0202531 0.4563175 -0.6116774 0.0071031176
-1.1509926 0.8610418 -0.21343842 0.18992612 0.35343635 0.0019140057 0.18223535 -1.2303017
-0.05869403 -0.124560714 -0.96463794 0.028558848 0.2960208 0.040392153 0.08090073 0.12304551
0.17106418 0.018174618 -0.055170216 0.56239414 0.013614841 1.4747651 -0.10813087 -0.14294308
0.043573245 -1.0062592 0.51376873 0.032147754 -0.15543659 0.8797952 -1.2195271 0.0466076
0.96338487 -1.7776036 -0.04418446 0.16700856 0.05479864 -0.6128269 0.24375582 0.8624265
0.030956237 0.5003408 0.43126068 0.08442783 -2.2577333 -1.0546832 0.561007 -0.5444656
00000000: 0ddb 7f3d b381 683d 93aa 83bf a546 52be
00000010: 180b bfbc fbf1 203e 6a7a 3bbe 2c61 e8be
00000020: 6bc6 69bf 175e 493f 9951 f9bf 4a99 81be
00000030: fdae 28c0 c400 fb3e 5852 7dbf 2d44 fb3e
00000040: 84ad 5ebb 6cd0 713e 02b7 55bd 3848 95be
00000050: 3cdf 563f 433b 5e3d 4b63 e23d bd35 4cbe
00000060: c482 ba3d 7716 81bd 3044 253e 02cc 533f
00000070: e327 3c3e ff6a 0ebd 0ee1 89be 657b 80bf
00000080: 3fda bc3e 10d7 1bbf 5d9c 0cbe 2585 033e
00000090: 55ae d93e 8e94 e03c 6126 993e 66f8 b33f
000000a0: 63fc 84be 870d 7f3e 9483 55be d2c8 0f3e
000000b0: 75f7 ad3e 6d03 013f 25d1 983e 8fbf 623f
000000c0: 38a0 0e3e 58da 2dc0 7125 2d3d 805a 943d
000000d0: 20a0 7c3b a071 223f b1c1 dcbe db0a 803e
000000e0: ff29 fa3d c7c0 423e 8e24 e4be 0287 4c3f
000000f0: 172d 39bd 8973 a33e d720 82bd 8900 f2bf
00000100: 0bad aa3e dd38 2f3c b12d e1be 12f8 66bf
00000110: 6abb b53c 412f d5bd 7de8 553e 39ed 83bf
00000120: 07a1 45be 741d 95bf 397f b53e e336 433c
00000130: f7b7 fc3d 46ad 8b3f 52ac f3be 0877 86ba
00000140: d222 0ebe 8dbc 80bf 3081 5b3e 73b5 823e
00000150: 4985 0ebf 5a8c 223d da13 d33d d986 873f
00000160: 1cf9 6ebd 28b2 0c3d 2410 84bf 0c7e 4b3e
00000170: f146 9f3c 70dd 84bd d125 59bd 70ce 1bbf
00000180: 911f babe 77d1 a33c 4e71 103d 0a67 f2be
00000190: c095 593b 5a06 f53e 5496 f0bd f600 e9be
000001a0: 230d 9abc 7965 9bbf be07 093c 18aa 18bd
000001b0: dd43 f43e 9d72 92bf 7246 243e 7995 7cbd
000001c0: c30c dc3e 51a9 ffbf e3cd 9b3d f7e1 82be
000001d0: fd2d 903d 56a7 3cbd 69b0 f03e 579a 22bf
000001e0: 1486 183f 5da5 413f c0c8 983e 40bd ecbc
000001f0: 5100 bdbe 18ed 5abd ac80 86bf 8f32 9fbe
00000200: 4212 8c3d 721c 98bd dd76 98bf dba4 b83e
00000210: 165e cebd edb6 ebbe 7b0b 2e3f f291 423f
00000220: 982f 29be 8a47 31bf ea21 6ebf e7ec d2bd
00000230: 5179 f8bf 151c ba3e 5c60 06bf 4702 883f
00000240: bea9 993d 21a1 b93c 8f42 e1be 6628 4c3e
00000250: e4e1 34bf ecca 9fbc d4bb a13f 0326 e7bd
00000260: 0594 ad3d 0e72 ea3c 2c25 7a3d 0e90 a8bf
00000270: 0512 28bf 3ee6 06bc 2c28 b93e f8e0 b8bf
00000280: bd71 d23d 6ef1 efbe 48d5 9dbe eeba 5b3f
00000290: 5608 b63e 2b79 b03b b813 273f 2420 44bd
000002a0: 6c77 3ebd c9e9 ae3e 25ea 7dbe 7e4c 0fbe
000002b0: 4570 ba3e 322f e23e 9ee5 4e3e ac3a 83be
000002c0: 7f86 9dbe e352 a4bf ebe2 aa3e 11c5 283f
000002d0: d673 23ba 9c8d ac3e 5e1b d6be 7b8b b3bd
000002e0: 18fe a7be 3d60 00bf e1c2 5dbe f962 c1bf
000002f0: 08a7 de3c 8eaa 95bd e475 d4bf 3f36 f1bf
00000300: 3d76 a63e a900 b6be 41c0 66bf 4cba 5bbe
00000310: c8f3 8c3e 5569 433d c2ef 823e 3aaf 6cbf
00000320: 9424 9bbd d1f1 a0bf ad5a 1a3f 47d3 013e
00000330: a797 823f 73a2 e93e e496 1cbf 45c1 e83b
00000340: ba53 93bf 3c6d 5c3f 9a8f 5abe fe7b 423e
00000350: 9cf5 b43e 60df fa3a e79b 3a3e 877a 9dbf
00000360: 2769 70bd b019 ffbd 83f2 76bf 3ff4 e93c
00000370: 0a90 973e 3e72 253d 48af a53d 49ff fb3d
00000380: 732b 2f3e f0e2 943c 2afa 61bd 10f9 0f3f
00000390: c810 5f3c 1ac5 bc3f b873 ddbd ac5f 12be
000003a0: dc79 323d 1acd 80bf 5986 033f 5dad 033d
000003b0: c52a 1fbe 423a 613f 7719 9cbf 9ce7 3e3d
000003c0: 64a0 763f 8488 e3bf c4fa 34bd 4b04 2b3e
000003d0: 8a74 603d 39e2 1cbf 209b 793e fcc7 5c3f
000003e0: ef97 fd3c 5616 003f 33ce dc3e 80e8 ac3d
000003f0: b47e 10c0 dcff 86bf 289e 0f3f 1962 0bbf

fc2.bias f4 [128]
-0.0418437 -0.14371118 -0.031503912 0.42976084 -0.19578436 -0.23752768 -0.009569458 -0.12961736
0.061667792 -0.06990125 -0.32888117 -0.20824106 0.5601937 1.5472772 -0.13272521 -0.16719873
0.24532206 1.1588074 0.16154684 -0.103459194 0.90909445 -0.12034973 -0.43712485 -0.021209603
0.53149414 -0.07501953 0.6767516 0.65074027 -0.20193781 -0.066230826 0.46915677 1.2227128
0.5185449 0.6393493 0.025129419 -0.31407192 0.13741396 -0.0781638 0.8399458 0.040907916
-0.21320383 0.727499 0.024979245 0.17132248 -0.10500481 -0.029611534 1.1290014 0.39926118
1.1703249 -0.2051748 -0.045507014 -0.05580807 -0.049883865 -0.1513271 0.303263 0.14097664
0.46926296 0.019329982 -0.13284609 -0.07870004 0.3354418 -0.25967833 0.4256661 1.1342167
-0.14022334 0.16813655 -0.3819996 -0.08250326 -0.17244084 0.2263574 -0.14845695 -0.041673828
-0.11811729 -0.50060487 -0.088922575 0.3285746 -0.1487436 -0.1368696 -0.089959286 0.22383471
0.18305428 -0.6020788 0.7838095 0.3386149 0.29521763 -0.112620346 0.53258574 0.12891282
0.092411734 -0.0488701 0.030151885 0.48255494 -0.16556892 0.16552901 -0.15338145 1.0850807
0.53334975 -0.01822298 -0.10985827 -0.033912618 -0.008026285 0.27316672 0.56366616 0.115507804
0.5995251 -0.08642022 0.29639703 0.6721483 0.3795318 -0.20006318 0.3314759 -0.21659036
-0.09235402 -0.048306774 0.022288227 0.6112724 -0.47928646 0.052547973 0.5291111 -0.1422048
0.5748042 0.026404154 0.020917408 -0.058258895 0.8695881 -0.018469403 -0.12452692 -0.10893082
00000000: 4d64 2bbd 0629 13be 3f0a 01bd 9d09 dc3e
00000010: b27b 48be 753a 73be 37c9 1cbc 6aba 04be
00000020: 5e97 7c3d 6328 8fbd 1d63 a8be 253d 55be
00000030: db68 0f3f 2e0d c63f 1ee9 07be 2536 2bbe
00000040: b535 7b3e cd53 943f 896c 253e 6ae2 d3bd
00000050: 6aba 683f eb79 f6bd d4ce dfbe c3bf adbc
00000060: 0010 083f d7a3 99bd 983f 2d3f ea96 263f
00000070: c9c8 4ebe 07a4 87bd 5135 f03e da81 9c3f
00000080: 5cbf 043f 65ac 233f 36dc cd3c 09ce a0be
00000090: 3fb6 0c3e 5814 a0bd b006 573f 0f8f 273d
000000a0: 1b52 5abe 603d 3a3f 46a1 cc3c 296f 2f3e
000000b0: c30c d7bd e393 f2bc 1e83 903f f66b cc3e
000000c0: 35cd 953f 5819 52be 9065 3abd 0197 64bd
000000d0: 0653 4cbd 7ef5 1abe 4a45 9b3e 2e5c 103e
000000e0: 3c43 f03e e959 9e3c ce08 08be 7d2d a1bd
000000f0: 07bf ab3e 8ff4 84be e8f0 d93e 032e 913f
00000100: b596 0fbe fd2b 2c3e 7495 c3be 78f7 a8bd
00000110: 5594 30be 3cca 673e 1905 18be 2db2 2abd
00000120: 7ae7 f1bd a427 00bf 0a1d b6bd ee3a a83e
00000130: 3e50 18be 8b27 0cbe 933c b8bd ed34 653e
00000140: 9572 3b3e d621 1abf bda7 483f ef5e ad3e
00000150: c426 973e 7fa5 e6bd 8a57 083f b901 043e
00000160: 5d42 bd3d 042c 48bd 1601 f73c 7111 f73e
00000170: e68a 29be 7080 293e 0710 1dbe ede3 8a3f
00000180: 9c89 083f 5c48 95bc 5ffd e0bd f5e7 0abd
00000190: ae80 03bc 82dc 8b3e 6d4c 103f 5b8f ec3d
000001a0: 7a7a 193f 16fd b0bd 5ac1 973e e911 2c3f
000001b0: fe51 c23e 5ddd 4cbe 36b7 a93e ddc9 5dbe
000001c0: 1b24 bdbd 53dd 45bd cd95 b63c 597c 1c3f
000001d0: 0965 f5be 8b3c 573d d373 073f 239e 11be
000001e0: 5e26 133f 864d d83c fc5a ab3c e1a0 6ebd
000001f0: 539d 5e3f 254d 97bc f807 ffbd 1f17 dfbd

fc3.weight f4 [2, 128]
0.47158617 0.8492648 -0.023420135 -2.128719 1.9342631 -0.2949695 -0.07444638 0.066000134
-0.5125479 -0.021421758 -1.6872782 0.05211234 0.27922377 -2.205381 1.1677845 -0.08306991
1.1038183 -3.680526 0.49552968 0.036587942 -1.2251307 -0.0036013692 0.89386004 0.99826247
-4.719966 0.012425479 -1.1326925 -1.4069777 -0.20389177 -0.005742585 0.611268 -1.6780142
0.6912034 0.36826825 -0.018556157 1.1892552 2.6756506 0.008197172 0.46036312 -0.6957321
1.742616 -3.068166 -0.5282672 0.57825434 1.4392123 -0.0018078928 -0.90248704 0.5290783
-1.9494416 -0.49033427 0.023561807 -0.018774988 -0.84494334 1.3956743 -0.6776423 2.4091606
0.48081103 1.6104503 -3.3856235 -0.0019088639 -0.7494907 0.027109392 0.3939109 0.5958888
-0.030674454 1.0060085 -1.4273379 -0.018149756 0.03040983 1.0527134 -0.015885761 -0.00394297
-0.028551042 -0.72322184 0.056649562 0.5938661 0.044598367 0.004216494 -0.015738415 -1.3405586
0.50298256 0.50522333 0.53159314 1.3837281 1.5425488 2.0193038 0.8369294 -3.453455
0.78326905 1.0184971 1.3468988 -3.8651009 1.3327692 2.197386 -0.016477615 -3.5130756
0.50280815 0.011401624 0.029922435 0.016325735 1.3858966 0.78551114 -3.5436063 0.6677825
0.83080316 0.026775615 -1.0132216 0.43710002 -2.9982457 -0.5204287 0.56205934 0.24345683
1.341535 1.827341 -0.007989653 -0.7952254 -1.1475326 3.5024745 0.29725525 -0.023119107
-0.71766526 1.0525521 -0.0044823554 -0.025730764 -2.072409 0.86602515 0.04314941 0.009956477
0.6987089 0.4856758 -0.027410945 -0.93492055 1.6482055 -1.0045764 0.038204815 0.009108333
-0.448789 0.10403496 -1.8713577 -0.02101267 0.5366976 -2.0960805 1.469308 0.014619579
0.9707117 -4.2853675 0.9864866 0.04675463 -1.0830336 0.040229864 1.1855412 -2.162815
-1.516958 0.0022878293 -0.8759145 -1.294626 -0.749135 0.0012165759 0.2745307 -1.2869786
0.5197889 0.35521546 0.064757034 -0.34263042 -2.601433 0.12520742 0.48452047 0.5637669
1.010646 -1.3138535 -0.2796588 1.5387535 1.164498 -0.036729608 -1.5783978 0.39646697
-2.1081324 -0.49009255 -0.003624305 0.07420929 -0.19788247 0.44322476 -3.2549696 1.8126334
0.42693302 1.7906916 1.8732485 -0.0024823966 0.27029276 0.01243802 0.93094623 0.61285067
0.030089384 1.3202797 -0.9174653 0.0041188784 -0.10295789 1.044499 0.03358314 0.035471786
-0.013490581 -0.59113145 0.06193369 0.4257548 0.011722656 0.03218277 0.040848892 3.5122178
0.5667307 0.6594374 0.5241886 1.4144258 -1.9535288 -2.1819918 0.83681935 0.026967527
0.52270025 0.8501696 0.69841653 -1.7338786 0.9472705 -0.15472944 0.0142601505 -1.7761356
0.47277978 0.016728345 0.03340161 0.10848389 2.0168715 1.0696489 -2.9365673 0.80814666
1.1841353 -0.032110497 -0.78244495 0.549498 -2.906505 0.19434829 0.5719541 -0.26630023
1.3805044 1.9953551 -0.036958944 -0.52544296 -0.6136216 -1.7700206 0.2217241 0.037296586
-2.5790057 1.0874983 0.06470562 -0.013182376 -1.6834906 -1.9252694 -0.06204299 -0.024310542
00000000: be73 f13e 6b69 593f 95db bfbc ef3c 08c0
00000010: ef95 f73f 3e06 97be 5877 98bd 142b 873d
00000020: 5736 03bf af7c afbc bbf8 d7bf c073 553d
00000030: 6bf6 8e3e f624 0dc0 f679 953f 8f20 aabd
00000040: eb49 8d3f bd8d 6bc0 11b6 fd3e 3ddd 153d
00000050: 15d1 9cbf f304 6cbb 03d4 643f 218e 7f3f
00000060: f609 97c0 3c94 4b3c 11fc 90bf d817 b4bf
00000070: 01c9 50be 4b2c bcbb 0f7c 1c3f 2bc9 d6bf
00000080: b5f2 303f a88d bc3e 1503 98bc 8439 983f
00000090: dc3d 2b40 6e4d 063c b7b4 eb3e 801b 32bf
000000a0: 0b0e df3f d55c 44c0 853c 07bf 7a08 143f
000000b0: 1c38 b83f d1f6 ecba 6409 67bf ad71 073f
000000c0: 4d87 f9bf 180d fbbe b104 c13c 01ce 99bc
000000d0: 354e 58bf 75a5 b23f f779 2dbf b02f 1a40
000000e0: dd2c f63e 3c23 ce3f 0eae 58c0 d832 faba
000000f0: 9fde 3fbf 8414 de3c b1ae c93e 2b8c 183f
00000100: fe48 fbbc e3c4 803f 02b3 b6bf ccae 94bc
00000110: 091e f93c 50bf 863f db22 82bc 0834 81bb
00000120: e0e3 e9bc 1125 39bf 5f09 683d 9c07 183f
00000130: c7ac 363d 842a 8a3b d9ed 80bc 6d97 abbf
00000140: 77c3 003f 5156 013f 7d16 083f 011e b13f
00000150: 3d72 c53f 463c 0140 0141 563f 6805 5dc0
00000160: 5284 483f 1d5e 823f 2e67 ac3f d05d 77c0
00000170: 2e98 aa3f f9a1 0c40 10fc 86bc 3bd6 60c0
00000180: 09b8 003f e1cd 3a3c e51f f53c 8cbd 853c
00000190: 0f65 b13f 4217 493f 72ca 62c0 cbf3 2a3f
000001a0: 84af 543f 8958 db3c 3fb1 81bf 93cb df3e
000001b0: 42e3 3fc0 d13a 05bf 1fe3 0f3f bf4c 793e
000001c0: 6bb7 ab3f 4fe6 e93f 09e7 02bc e493 4bbf
000001d0: 59e2 92bf 8b28 6040 d731 983e 4864 bdbc
000001e0: e9b8 37bf 07ba 863f b9e0 92bb 53c9 d2bc
000001f0: 59a2 04c0 d3b3 5d3f 70bd 303d 7e20 233c
00000200: 96de 323f 80aa f83e eb8c e0bc f456 6fbf
00000210: 66f8 d23f f695 80bf a77c 1c3d 1e3b 153c
00000220: acc7 e5be 4810 d53d a688 efbf c322 acbc
00000230: 0465 093f 2f26 06c0 4912 bc3f f586 6f3c
00000240: 9080 783f bb21 89c0 638a 7c3f c881 3f3d
00000250: d8a0 8abf 12c8 243d d0bf 973f 906b 0ac0
00000260: ae2b c2bf 68ef 153b ef3b 60bf 4eb6 a5bf
00000270: 50c7 3fbf 8375 9f3a 4a8f 8c3e b7bb a4bf
00000280: e310 053f cdde b53e 569f 843d 416d afbe
00000290: e17d 26c0 6036 003e 1113 f83e 0753 103f
000002a0: d95c 813f 5a2c a8bf 702f 8fbe e0f5 c43f
000002b0: 450e 953f c971 16bd f008 cabf b8fd ca3e
000002c0: a4eb 06c0 69ed fabe bf85 6dbb 0afb 973d
000002d0: b4a1 4abe 5bee e23e 6c51 50c0 5f04 e83f
000002e0: f796 da3e 6235 e53f 9bc6 ef3f b4af 22bb
000002f0: d063 8a3e d6c8 4b3c 7e52 6e3f c8e3 1c3f
00000300: 037e f63c edfe a83f 02df 6abf a8f7 863b
00000310: 96db d2bd 25b2 853f 798e 093d dd4a 113d
00000320: 9907 5dbc 6454 17bf 2eae 7d3d 88fc d93e
00000330: 6210 403c 15d2 033d 2b51 273d 2dc8 6040
00000340: 4315 113f e4d0 283f 3931 063f e80b b53f
00000350: 3b0d fabf c1a5 0bc0 cb39 563f 01eb dc3c
00000360: afcf 053f b7a4 593f 6dcb 323f bcef ddbf
00000370: 5280 723f 6571 1ebe 68a3 693c 6958 e3bf
00000380: 3110 f23e e209 893c 20d0 083d cd2c de3d
00000390: 6c14 0140 41ea 883f b8f0 3bc0 b3e2 4e3f
000003a0: bf91 973f 4c86 03bd 504e 48bf e7ab 0c3f
000003b0: 2e04 3ac0 3d03 473e 956b 123f 8158 88be
000003c0: 5eb4 b03f cc67 ff3f 4362 17bd 6e83 06bf
000003d0: 4e16 1dbf 0990 e2bf a40b 633e 4ec4 183d
000003e0: 6e0e 25c0 2533 8b3f 6184 843d e4fa 57bc
000003f0: 9f7c d7bf 3a6f f6bf ca20 7ebd e726 c7bc

fc3.bias f4 [2]
0.4122666 0.47211614
00000000: 9c14 d33e 35b9 f13e
