checkpoints/dqn_episode_400.pth (torch, 343593 bytes, 24 tensors)

fc1.weight f4 [128, 31]
-0.09744403 -0.07499303 -0.028388903 -0.0904782 0.019525586 -0.042784978 -0.22190244 0.07219425
-0.035783954 0.1116533 -0.23253433 -0.15383 0.1632797 0.10081693 0.092160545 0.09864942
-0.057880968 -0.09832543 -0.010416854 -0.20608722 -0.004541064 0.053777296 -0.07690999 0.063764855
-0.020565042 0.0804837 0.08272738 0.06762819 0.02256878 0.016819915 -0.07448603 -0.14976372
-0.19231257 -0.09681598 -0.19755411 -0.004819947 -0.037671633 -0.10582221 0.0829983 0.004004256
0.0060370266 0.0693355 -0.1805018 0.0484596 0.082927845 0.054641914 -0.050066534 0.100421235
0.14658788 0.0075170225 0.07715208 -0.1196645 0.081181325 0.10604859 -0.06376234 0.044753894
-0.025640802 0.005287435 -0.053520557 -0.010245991 0.1548277 -0.16673048 -0.1978639 0.46147913
0.13656363 -0.12144907 -0.08020262 -1.1665103 0.6190155 0.41140717 -0.47085285 1.3391159
-0.6461046 0.092528194 0.40849566 -0.68111855 0.15411781 0.046395678 0.5781396 -0.5951842
0.5875298 -0.21116194 0.26125085 -0.2211237 0.33080348 -0.032618597 0.4206012 -0.093625925
-0.27790183 -0.048934747 -0.15595832 0.5480687 0.3775707 0.044701282 0.17977859 0.03191869
-0.13049586 -0.0626151 0.13940594 0.063637555 -0.21617123 -0.052841727 0.2670323 0.24308804
-0.5488436 -0.21918029 0.13825934 -0.071641 -0.0036203375 -0.022051949 -0.03144989 0.049572434
0.028745478 2.5191634 2.5420177 -2.7581656 0.21837655 1.8147115 0.33620137 -0.784563
0.08762878 1.235747 -0.23952672 -0.23092966 -0.2516285 -0.17965725 0.065591246 0.02755698
-0.11913344 -0.1480866 -0.098374516 -0.019444391 -0.15975867 0.27231508 0.08783523 -0.16657732
-0.18249199 -0.07966719 0.056215324 0.09738597 0.19983536 0.1931063 0.10929224 -0.13260841
0.20878375 -0.028522065 0.15225793 -0.006691923 -0.03623672 0.18216951 -0.13557184 0.041848317
-0.06589977 -0.0509776 -0.02616849 -0.20344454 0.015356437 0.1290133 -0.16060638 1.6895037
1.8181541 -0.17501359 -0.12679943 -0.87507707 1.7687087 1.5019296 0.10682978 0.24133947
-0.182811 -0.16237624 0.106083386 0.40876645 0.5587552 0.2380525 -0.08202228 0.28700492
0.9291943 0.6462987 0.121469334 0.37215763 0.5534479 0.0854176 0.1322071 0.44128874
0.96977043 0.5077444 0.213192 -0.17371337 0.124043286 0.30532536 -2.3612618 -0.042480256
0.5790341 0.53523046 -0.21887654 0.5744911 -0.49816757 0.36908913 0.07476673 1.0089794
1.1651717 0.67550796 -0.4613176 0.4297646 0.90866154 0.55062616 0.16245477 0.59657204
0.49092457 0.43915358 0.40722987 0.04570833 0.5814658 0.32545346 -0.046465818 0.47573715
0.40447703 -0.1045267 -0.35673863 0.1713545 -0.013241156 1.5657413 -1.6268499 -0.17243975
-0.26683503 -0.24966843 -0.7967485 1.5043112 0.05690432 0.7504834 -0.12889342 0.30164266
0.1319302 -0.5298501 -0.29182243 1.4333555 0.2242063 -0.082057744 -0.023361854 0.119833656
-0.018330783 -0.109421894 0.9583014 -0.020258846 0.1096996 0.59403235 0.103971355 0.07654097
0.14019011 -0.936501 -0.03495194 0.17280956 -2.470268 0.8528064 0.3712127 0.087496325
00000000: bc90 c7bd f295 99bd d88f e8bc a24c b9bd
00000010: 1ff4 9f3c 4d3f 2fbd 653a 63be 94da 933d
00000020: 3292 12bd 7caa e43d 7b1d 6ebe 9d85 1dbe
00000030: cb32 273e 1b79 ce3d abbe bc3d b508 ca3d
00000040: 9814 6dbd d85e c9bd 74ab 2abc 8708 53be
00000050: 35cd 94bb 9545 5c3d fc82 9dbd 2697 823d
00000060: 0578 a8bc a3d4 a43d f96c a93d a680 8a3d
00000070: 2ae2 b83c ebc9 893c 228c 98bd a95b 19be
00000080: 96ed 44be 7547 c6bd a04b 4abe a5f0 9dbb
00000090: 924d 1abd 51b9 d8bd 03fb a93d 2236 833b
000000a0: 40d2 c53b c5ff 8d3d 77d5 38be 937d 463d
000000b0: 13d6 a93d 33d0 5f3d 9112 4dbd a6a9 cd3d
000000c0: 221b 163e 5b51 f63b e901 9e3d a912 f5bd
000000d0: 6542 a63d 0130 d93d d495 82bd dc4f 373d
000000e0: a90c d2bc 3842 ad3b 5f38 5bbd cdde 27bc
000000f0: 278b 1e3e 65bb 2abe d69c 4abe fe46 ec3e
00000100: 56d7 0b3e 4aba f8bd 4541 a4bd 3650 95bf
00000110: cd77 1e3f f6a3 d23e a013 f1be 2668 ab3f
00000120: 1c67 25bf 6c7f bd3d 5826 d13e c95d 2ebf
00000130: 0fd1 1d3e 6509 3e3d f500 143f fe5d 18bf
00000140: 5a68 163f d63a 58be acc2 853e 406e 62be
00000150: 135f a93e 149b 05bd 0a59 d73e f3be bfbd
00000160: 2649 8ebe cd6f 48bd 8ab3 1fbe 3b4e 0c3f
00000170: f250 c13e b118 373d e117 383e 2cbd 023d
00000180: b5a0 05be 583c 80bd 6ec0 0e3e 6854 823d
00000190: fe5b 5dbe 9170 58bd 75b8 883e 12ec 783e
000001a0: 0481 0cbf cc70 60be db93 0d3e 84b8 92bd
000001b0: 2f43 6dbb 4aa6 b4bc 9ad1 00bd 770c 4b3d
000001c0: a37b eb3c f939 2140 6bb0 2240 c985 30c0
000001d0: 1a9e 5f3e 7748 e83f 9622 ac3e 1fd9 48bf
000001e0: b876 b33d f52c 9e3f 7e46 75be d378 6cbe
000001f0: 73d5 80be 12f8 37be b454 863d 2dbf e13c
00000200: 3cfc f3bd 03a4 17be 9478 c9bd d849 9fbc
00000210: c797 23be e26c 8b3e f5e2 b33d 3f93 2abe
00000220: 2edf 3abe 8d28 a3bd 0a42 663d 4c72 c73d
00000230: a4a1 4c3e a8bd 453e 9cd4 df3d 80ca 07be
00000240: 68cb 553e 1ba7 e9bc 81e9 1b3e eb47 dbbb
00000250: f46c 14bd a58a 3a3e 58d3 0abe 2469 2b3d
00000260: 75f6 86bd e3cd 50bd 4d5f d6bc c453 50be
00000270: 9199 7b3c 101c 043e 0076 24be a841 d83f
00000280: 46b9 e83f c336 33be b6d7 01be 0d05 60bf
00000290: 0c65 e23f 3b3f c03f 92c9 da3d b221 773e
000002a0: cf32 3bbe f545 26be 3f42 d93d d649 d13e
000002b0: 950a 0f3f 09c4 733e 4cfb a7bd 4ff2 923e
000002c0: addf 6d3f d573 253f eac4 f83d 728b be3e
000002d0: c3ae 0d3f 6cef ae3d 4c61 073e 99f0 e13e
000002e0: e042 783f 89fb 013f 014f 5a3e ebe1 31be
000002f0: 680a fe3d 9b53 9c3e ea1e 17c0 c7ff 2dbd
00000300: 943b 143f dd04 093f 2c21 60be d911 133f
00000310: d20f ffbe 40f9 bc3e 4d1f 993d 3d26 813f
00000320: 5924 953f 17ee 2c3f d231 ecbe 1b0a dc3e
00000330: 0b9e 683f d6f5 0c3f 8b5a 263e f2b8 183f
00000340: 775a fb3e bdd8 e03e 6f80 d03e a838 3b3d
00000350: f1da 143f d6a1 a63e f152 3ebd d293 f33e
00000360: 9d17 cf3e 1812 d6bd 72a6 b6be 8e77 2f3e
00000370: 6ff1 58bc 366a c83f 9e3c d0bf 0c94 30be
00000380: 9a9e 88be 15a9 7fbe b6f7 4bbf 458d c03f
00000390: 8114 693d ae1f 403f a3fc 03be e870 9a3e
000003a0: b618 073e 42a4 07bf c069 95be 3178 b73f
000003b0: 5696 653e e40d a8bd 5c61 bfbc 596b f53d
000003c0: 702a 96bc 9618 e0bd 3e53 753f e1f5 a5bc
000003d0: 2faa e03d 8112 183f efee d43d 83c1 9c3d
000003e0: ff8d 0f3e 88be 6fbf c429 0fbd fdf4 303e
000003f0: df18 1ec0 8551 5a3f 970f be3e 4631 b33d

fc1.bias f4 [128]
-0.15474424 0.057263263 -0.15289968 -0.08285995 -0.07810595 0.050086338 0.026561137 -0.265407
-0.076193295 -0.14379519 0.052604053 -0.2937929 -0.23714732 -0.067274205 -0.15885383 -0.059222884
-0.20796753 0.09010186 0.12966065 -0.0938727 -0.17713903 -0.13336484 -0.15257901 -0.18854737
-0.1695514 -0.07520741 -0.08627258 0.07722106 -0.13489102 -0.09394097 -0.25045118 -0.08950806
-0.0773216 -0.06255837 -0.06321357 -0.49846083 -0.073824614 -0.17642719 -0.29736394 -0.34809956
-0.25039214 0.2451591 -0.1061327 -0.12223404 0.08964189 -0.17442967 -0.040999845 0.16265817
-0.13921325 -0.18503626 -0.1968573 0.09600357 -0.0444629 -0.102481216 -0.21747954 -0.12666287
-0.17227964 -0.1337703 -0.11678215 0.05041464 -0.17192216 -0.02360163 -0.086673975 -0.26726693
0.14263332 -0.19189194 -0.21062955 -0.041916423 0.07936111 -0.11109198 -0.12760513 -0.3044159
-0.123953246 0.035629347 0.01965099 0.20271511 -0.16791499 -0.032151893 -0.18917479 -0.13771455
-0.10995845 0.06611542 -0.15503381 0.2595181 -0.0059324573 -0.20154582 0.030969018 -0.3917662
-0.17629889 -0.22338249 -0.16536677 -0.36312082 0.03786292 -0.14570525 0.08072136 -0.1658549
0.008023685 -0.043954335 0.009076962 0.21401246 -0.09197291 -0.058519922 -0.21191214 -0.11915596
0.06861417 -0.041991826 -0.3452664 -0.17985749 -0.124527976 0.13057561 -0.055233262 -0.058332305
0.14210917 -0.17857108 -0.2719212 0.042237014 -0.048410058 -0.2481719 -0.15235259 -0.08629564
-0.075093865 -0.06049682 -0.04918687 0.08295493 -0.14818329 -0.18067898 -0.13008514 -0.27545297
00000000: 4675 1ebe e28c 6a3d bc91 1cbe 7ab2 a9bd
00000010: 03f6 9fbd 5527 4d3d be96 d93c 6de3 87be
00000020: 3b0b 9cbd 0c3f 13be 5977 573d 066c 96be
00000030: bfd6 72be 0fc7 89bd 94aa 22be b293 72bd
00000040: 71f5 54be 5387 b83d c3c5 043e 5540 c0bd
00000050: ef63 35be cb90 08be ac3d 1cbe 9012 41be
00000060: e29e 2dbe 5806 9abd aeaf b0bd 1326 9e3d
00000070: df20 0abe 2064 c0bd 233b 80be 0050 b7bd
00000080: c95a 9ebd 9a1e 80bd 1e76 81bd 4236 ffbe
00000090: 5c31 97bd 54a9 34be 1640 98be 1b3a b2be
000000a0: 6633 80be fd0a 7b3e 1a5c d9bd d755 fabd
000000b0: 2b96 b73d b19d 32be 74ef 27bd dd8f 263e
000000c0: eb8d 0ebe 257a 3dbe f694 49be 859d c43d
000000d0: bb1e 36bd ace1 d1bd f5b2 5ebe e9b3 01be
000000e0: 136a 30be 15fb 08be 7b2b efbd 957f 4e3d
000000f0: 5d0c 30be 3558 c1bc 2082 b1bd 36d7 88be
00000100: 780e 123e 527f 44be 46af 57be 8eb0 2bbd
00000110: 1488 a23d 3184 e3bd ebaa 02be 67dc 9bbe
00000120: 33db fdbd 14f0 113d 1dfb a03c 8d94 4f3e
00000130: e8f1 2bbe b4b1 03bd 09b7 41be 0b05 0dbe
00000140: e531 e1bd 8567 873d 2fc1 1ebe 8edf 843e
00000150: 0f65 c2bb 0762 4ebe bdb2 fd3c 9495 c8be
00000160: b287 34be 61be 64be e855 29be f9ea b9be
00000170: 2616 1b3d c233 15be 3e51 a53d ded5 29be
00000180: c675 033c 7609 34bd 8ab7 143c 1526 5b3e
00000190: 4b5c bcbd 96b2 6fbd 7fff 58be 0a08 f4bd
000001a0: 9685 8c3d 9fff 2bbd c2c6 b0be 902c 38be
000001b0: 8608 ffbd 9db5 053e 463c 62bd dbed 6ebd
000001c0: 1185 113e 56db 36be 4139 8bbe b800 2d3d
000001d0: a049 46bd c620 7ebe 5102 1cbe c5bb b0bd
000001e0: d0ca 99bd 83cb 77bd 2c78 49bd 46e4 a93d
000001f0: 5cbd 17be e903 39be 0a35 05be 2c08 8dbe

fc2.weight f4 [128, 128]
0.062464762 0.056764316 -0.9485941 0.23250827 -0.02332072 -0.40133786 -0.42836216 -0.3096872
-0.38152772 0.87990874 -1.3319101 -0.25312263 -1.7898356 0.5548474 -0.9480475 -0.27382565
-0.0033977935 0.37850958 -0.26903865 0.017340643 0.12507004 0.054255735 -0.037160117 0.442417
0.09106973 -0.06303113 -0.028188672 0.2144445 0.094935864 -0.03477001 -0.3497522 -0.6993223
0.4155435 0.09077624 -0.019695416 0.20761783 0.3955817 0.027414586 -0.4442286 -0.20440614
0.1747522 0.15575828 0.24590479 -0.13733679 0.35645473 0.13241737 0.2632339 0.70687
-0.08128126 -2.4448137 0.555151 0.18822046 0.003854759 0.3455243 -0.10197305 0.07120624
0.18300779 0.5220089 -0.02569026 0.016473427 -0.045209017 0.37491935 0.27244526 -1.8218464
0.20922983 0.01069471 0.022343207 0.073557444 -0.09113608 -0.104094036 0.14441134 -0.74902636
-0.19299708 -0.5959048 0.27393398 0.20230201 -0.79685813 0.15551749 -0.49482846 0.011618346
0.27262512 -0.27819714 0.27018377 0.012944711 -0.12606113 0.061474066 0.17325556 0.10434824
-0.0799632 0.121223815 -0.036242377 0.10262767 0.29295465 -0.06487548 -0.05301458 -0.40077773
-0.18938652 -0.6032217 0.035264306 0.21102768 0.003320083 0.5772564 0.20367578 -0.09850119
-0.018805092 -0.86678976 -0.060790565 -0.03727159 0.4983314 -0.27124906 0.24527194 -0.061665986
0.7302444 -1.3565377 0.07607629 -0.12406655 0.070400216 -0.03478187 0.55704576 -1.3761815
0.08088673 -0.1829377 -0.094283804 0.57162774 -0.44961086 0.4049659 -0.7771722 -0.21374328
0.0683942 -0.074273005 -0.7629814 0.6247198 -0.10076539 -0.00043165963 0.5234243 0.452743
0.21337141 -0.19367793 -1.1524886 -0.10299092 -1.2004606 0.3884099 0.1044177 -0.009114629
0.07503079 0.10757594 -0.80321956 -0.116317175 -0.29734892 -0.01950594 1.1120772 -0.2771372
0.08475498 0.028618839 -0.068322085 -0.7202995 0.15212665 -0.008233605 0.04369229 0.09040455
0.2819828 -0.20221086 0.14450715 0.01517683 0.18590306 0.005385538 0.055338975 0.46440092
0.03776871 0.19980812 0.10284614 0.054035448 0.28028354 0.006208879 0.29547983 -0.15965207
-0.08378091 -1.3580961 0.20308788 0.3081933 -0.015795667 0.17522006 -0.17168152 0.43460003
-0.17443407 -1.1089599 -0.13003331 -0.23032741 0.027179256 0.064968884 -0.5325485 -1.2872045
0.17593315 -0.3554738 0.06530147 -0.2938101 0.45369193 0.047707874 0.15591735 -0.31588268
-0.07575336 -1.5137504 0.28454727 0.32174733 0.60081464 0.13683622 -0.006700058 0.019919999
-0.46810257 0.5624136 -0.22792299 0.111139685 0.36843714 0.01787089 0.0290848 -0.38879633
-0.08770834 0.13534008 0.0034012247 0.12332686 0.23119144 0.040392153 0.08090073 -0.33292526
0.39650252 -0.0032823465 -0.055170216 0.6243502 0.013614841 -0.041224483 -0.14815198 0.079543196
0.043573245 -0.87533 0.17240326 0.032147754 -0.67749923 0.04474959 -1.3685429 0.0466076
0.2870602 -2.3111022 -0.04418446 0.17086563 0.05479864 -0.50263 -0.07044207 0.39344093
0.017337106 0.31490904 -0.2624253 0.049959958 -1.0018418 -1.6663467 -0.30541232 -0.46094838
00000000: 0ddb 7f3d b381 683d 10d7 72bf a616 6e3e
00000010: 180b bfbc 287c cdbe 4952 dbbe 528f 9ebe
00000020: 9a57 c3be b341 613f 087c aabf 4a99 81be
00000030: 5519 e5bf 7b0a 0e3f 3eb3 72bf e032 8cbe
00000040: 84ad 5ebb 02cc c13e 6fbf 89be f70d 8e3c
00000050: 5c12 003e 433b 5e3d 3535 18bd 7b84 e23e
00000060: c482 ba3d 7716 81bd eeeb e6bc 5797 5b3e
00000070: bc6d c23d ff6a 0ebd b812 b3be c906 33bf
00000080: 1ec2 d43e e5e8 b93d 4858 a1bc c599 543e
00000090: af89 ca3e 8e94 e03c ee71 e3be d84f 51be
000000a0: 3ef2 323e 197f 1f3e 77ce 7b3e 04a2 0cbe
000000b0: 3c81 b63e 6b98 073e 98c6 863e 6ff5 343f
000000c0: ca76 a6bd d477 1cc0 601e 0e3f ddbc 403e
000000d0: 20a0 7c3b 90e8 b03e 3fd7 d0bd 94d4 913d
000000e0: 6566 3b3e 60a2 053f 6174 d2bc 48f3 863c
000000f0: 172d 39bd 6ef5 bf3e f27d 8b3e 4332 e9bf
00000100: 5840 563e dd38 2f3c 1a09 b73c 49a5 963d
00000110: 8ea5 babd 412f d5bd 91e0 133e 31c0 3fbf
00000120: 07a1 45be 388d 18bf 1341 8c3e 4228 4f3e
00000130: e5fe 4bbf fa3f 1f3e 285a fdbe e05a 3e3c
00000140: 8595 8b3e db6f 8ebe 8755 8a3e 0e16 543c
00000150: 2b16 01be 3bcc 7b3d e869 313e 88b4 d53d
00000160: bfc3 a3bd 3144 f83d e372 14bd 752e d23d
00000170: 27fe 953e 70dd 84bd d125 59bd bd32 cdbe
00000180: 8aee 41be bd6c 1abf 4e71 103d a417 583e
00000190: c095 593b 13c7 133f 6290 503e feba c9bd
000001a0: 230d 9abc efe5 5dbf 87ff 78bd 18aa 18bd
000001b0: 4b25 ff3e 28e1 8abe 9128 7b3e 7995 7cbd
000001c0: 4cf1 3a3f 07a3 adbf e3cd 9b3d 9a16 febd
000001d0: fd2d 903d 6f77 0ebd 8d9a 0e3f b726 b0bf
000001e0: f1a7 a53d 0554 3bbe de17 c1bd 3256 123f
000001f0: 6533 e6be b157 cf3e c2f4 46bf 85df 5abe
00000200: 4212 8c3d 721c 98bd c052 43bf a3ed 1f3f
00000210: 165e cebd 6050 e2b9 23ff 053f eecd e73e
00000220: 097e 5a3e 8253 46be bf84 93bf e7ec d2bd
00000230: b1a8 99bf aadd c63e f2d8 d53d 8655 15bc
00000240: bea9 993d c650 dc3d cc9f 4dbf b337 eebd
00000250: 1e3e 98be ecca 9fbc 8c58 8e3f ede4 8dbe
00000260: 0594 ad3d 0e72 ea3c 73ec 8bbd 8c65 38bf
00000270: 17c7 1b3e 3ee6 06bc b0f6 323d 0526 b93d
00000280: 0d60 903e 5d10 4fbe aff9 133e 3da8 783c
00000290: 5f5d 3e3e 2b79 b03b 1fab 623d f5c5 ed3e
000002a0: 5db3 1a3d 809a 4c3e ffa0 d23d 4654 5d3d
000002b0: 5381 8f3e da73 cb3b 2249 973e d57b 23be
000002c0: 5395 abbd 18d6 adbf 45f6 4f3e 83cb 9d3e
000002d0: ea65 81bc e36c 333e 48cd 2fbe e583 de3e
000002e0: d89e 32be 66f2 8dbf 7427 05be f3da 6bbe
000002f0: 08a7 de3c 680e 853d 1955 08bf 1ec3 a4bf
00000300: d227 343e a900 b6be c7bc 853d 476e 96be
00000310: 4f4a e83e 5569 433d cca8 1f3e 60bb a1be
00000320: 9424 9bbd 93c2 c1bf 2eb0 913e 11bc a43e
00000330: fdce 193f cb1e 0c3e 298c dbbb 442f a33c
00000340: 24ab efbe 56fa 0f3f a564 69be 349d e33d
00000350: cba3 bc3e f965 923c 3f43 ee3c 5010 c7be
00000360: 6ea0 b3bd 9796 0a3e 15e7 5e3b cb92 fc3d
00000370: 73bd 6c3e 3e72 253d 48af a53d 2e75 aabe
00000380: 6102 cb3e a31c 57bb 2afa 61bd 6ad5 1f3f
00000390: c810 5f3c 01db 28bd 27b5 17be 8be7 a23d
000003a0: dc79 323d a015 60bf 7b8a 303e 5dad 033d
000003b0: 9770 2dbf 594b 373d 6a2c afbf 9ce7 3e3d
000003c0: 8ef9 923e 19e9 13c0 c4fa 34bd 66f7 2e3e
000003d0: 8a74 603d 5cac 00bf ef43 90bd 1771 c93e
000003e0: 8c06 8e3c c23b a13e 9c5c 86be d0a2 4c3d
000003f0: 5a3c 80bf d94a d5bf 015f 9cbe 6d01 ecbe

fc2.bias f4 [128]
-0.058330752 0.01183016 -0.031503912 0.3941114 -0.20808327 -0.5203991 -0.009569458 -0.12961736
-0.03403798 -0.038285315 -0.22720736 -0.18950683 0.46442387 1.2063373 -0.009823117 -0.10940614
0.24171016 0.9980534 -0.2371055 -0.103459194 0.6978239 -0.12034973 -0.11348022 -0.1120876
0.60084605 -0.043401055 0.17249843 0.6343345 0.09176255 -0.066230826 0.21363588 0.8864938
0.09881305 0.36629614 0.025129419 -0.13707563 -0.002452103 -0.0781638 0.39907524 -0.061891012
-0.18015781 0.61890507 0.036940116 -0.027960617 -0.22213167 -0.012307343 0.614138 0.18120916
0.8191243 -0.050767016 -0.045507014 -0.045036957 -0.13448982 -0.14244919 0.5187556 -0.021382246
0.36100954 -0.19297153 -0.17997615 -0.07870004 0.20374382 -0.230749 0.318796 0.7057577
-0.14022334 0.098373085 -0.29698282 -0.08250326 -0.15015651 0.14374062 -0.11824902 -0.01006497
-0.08204165 -0.32082438 -0.042775173 0.046665076 -0.11700551 -0.11915727 -0.089959286 0.14016291
0.23719954 -0.20674932 0.44558096 0.13180022 0.49504578 -0.051283333 0.2759587 0.27735853
-0.064810805 -0.16408455 0.019782178 0.5909131 -0.06893636 -0.18575451 -0.121841386 0.73010427
0.30205104 -0.01822298 -0.10985827 -0.033912618 -0.06591418 -0.021552522 0.3185018 0.043677464
0.47164372 -0.08642022 0.24935058 0.39960203 0.30865148 -0.20006318 0.25352073 -0.033029433
-0.06072235 -0.14090392 0.022288227 0.50259244 -0.40490317 -0.065422304 0.22739397 -0.1422048
0.6068553 0.025583308 0.00689951 -0.058258895 0.53658944 -0.08496412 -0.12452692 -0.10893082
00000000: 3aec 6ebd 4ad3 413c 3f0a 01bd f8c8 c93e
00000010: c813 55be e038 05bf 37c9 1cbc 6aba 04be
00000020: 696b 0bbd 10d1 1cbd 0ca9 68be 140e 42be
00000030: f7c8 ed3e 4369 9a3f 24f1 20bc 5410 e0bd
00000040: de82 773e 6d80 7f3f c9cb 72be 6ae2 d3bd
00000050: 96a4 323f eb79 f6bd 5168 e8bd 2f8e e5bd
00000060: 0cd1 193f 4ec5 31bd 6ea3 303e bf63 223f
00000070: 01ee bb3d 07a4 87bd 5dc3 5a3e 42f1 623f
00000080: 7f5e ca3d 2b8b bb3e 36dc cd3c 8e5d 0cbe
00000090: 76b3 20bb 5814 a0bd 9753 cc3e 6e81 7dbd
000000a0: 4a7b 38be 9070 1e3f 854e 173d aa0d e5bc
000000b0: 7c76 63be bda4 49bc 2638 1d3f e58e 393e
000000c0: 21b2 513f 13f1 4fbd 9065 3abd ac78 38bd
000000d0: b3b7 09be 33de 11be 2bcd 043f d229 afbc
000000e0: 3ed6 b83e 549a 45be ab4b 38be 7d2d a1bd
000000f0: 38a2 503e 7749 6cbe 3b39 a33e 89ac 343f
00000100: b596 0fbe d477 c93d 220e 98be 78f7 a8bd
00000110: a1c2 19be be30 133e 8b2c f2bd 8be7 24bc
00000120: 7405 a8bd 1843 a4be 0535 2fbd e123 3f3d
00000130: 96a0 efbd ba08 f4bd 933c b8bd de86 0f3e
00000140: 70e4 723e 18b6 53be 3023 e43e a3f6 063e
00000150: a476 fd3e 790e 52bd 754a 8d3e f001 8e3e
00000160: 87bb 84bd c805 28be 3c0e a23c 1546 173f
00000170: 822e 8dbd 6e36 3ebe fa87 f9bd 1de8 3a3f
00000180: 6fa6 9a3e 5c48 95bc 5ffd e0bd f5e7 0abd
00000190: 03fe 86bd ea8e b0bc ab12 a33e 24e7 323d
000001a0: 497b f13e 16fd b0bd c255 7f3e a398 cc3e
000001b0: 9107 9e3e 5ddd 4cbe 78cd 813e df49 07bd
000001c0: 00b8 78bd 1e49 10be cd95 b63c e6a9 003f
000001d0: 784f cfbe 21fc 85bd f7d9 683e 239e 11be
000001e0: de5a 1b3f 1694 d13c 4915 e23b e1a0 6ebd
000001f0: ed5d 093f ab01 aebd f807 ffbd 1f17 dfbd

fc3.weight f4 [2, 128]
0.48296648 0.6209757 -0.023420135 -1.719749 0.5724416 -0.30702215 -0.07444638 0.066000134
0.2495601 -0.021421758 -0.878291 0.05211234 0.3450157 -2.4211555 1.1656582 -0.0548763
1.0164008 -3.2670186 -0.06999219 0.036587942 -1.7220403 -0.0036013692 0.82862335 0.6394144
-4.8817906 0.012425479 -1.7179755 -1.4157022 0.042197064 -0.005742585 0.58934444 -1.5498329
0.46952167 0.36893928 -0.018556157 0.009789459 1.2110233 0.008197172 0.5157341 -0.0003657035
1.1196185 -2.9076097 -0.52122056 0.79472834 1.2316939 0.020730456 -1.1586478 0.43389422
-2.047572 -0.50929236 0.023561807 0.012908104 -0.8294512 1.4949087 -0.63123065 1.5997682
0.25843638 0.60389334 -1.793469 -0.0019088639 0.07848446 -0.0023440705 0.14847977 0.64463073
-0.030674454 0.15284367 -0.79059774 -0.018149756 0.024494857 0.8165446 0.011847286 -0.00394297
-0.019958213 -0.9220093 0.03350948 0.710727 0.044598367 -0.0054802727 -0.015738415 -0.9760539
0.37089002 0.9760624 0.52303433 1.4269112 0.34329918 2.2259352 0.8279833 -3.453455
0.5677319 0.95526904 0.89943117 -4.1932073 1.1207681 1.2648953 -0.016477615 -3.4087162
0.4385488 0.011401624 0.029922435 0.016325735 1.3946866 0.990089 -2.9606843 0.47471324
0.32913455 0.026775615 -0.88090175 0.49609387 -1.7780433 -0.5204287 0.84551954 0.19471224
-0.33017775 1.370662 -0.007989653 -0.6612392 -0.9476502 2.2455523 0.37529522 -0.023119107
-1.4179752 0.93913597 -0.007480639 -0.025730764 -2.560388 -0.03490689 0.04314941 0.009956477
0.9650136 0.28827673 -0.027410945 -2.3826075 0.984762 -0.517103 0.038204815 0.009108333
-0.2699583 0.13460489 -1.0311145 0.000850906 0.35357934 -2.2032986 0.5970311 -0.021101547
1.4294543 -3.2718825 0.42294735 0.04675463 -0.9435069 0.040229864 0.8017601 -1.4885043
-0.87209666 -0.029252494 -1.1869085 -1.9207315 -0.6703731 0.0012165759 0.40119332 -0.8767086
0.57835734 0.37162885 0.064757034 -0.017264673 -2.350776 0.12520742 0.46528235 -0.00042087503
1.0448476 -0.97294897 -0.29559192 1.2347715 1.0067359 -0.033017084 -1.3694514 0.29091668
-2.8071287 -0.58513314 -0.003624305 0.089983076 -0.5376811 0.20310481 -3.1216538 1.6879948
0.32310486 0.6437693 0.8086359 -0.0024823966 0.16633937 0.01243802 0.8036606 0.59118426
0.030089384 0.4735795 -0.87036735 0.0041188784 -0.11707501 0.6421189 0.03358314 0.06420305
-0.003373525 -1.0263218 0.007809247 0.4918317 0.04305168 0.03218277 0.040848892 2.4991655
0.49802908 0.8274305 0.5601393 0.9668843 -2.4671462 -2.097199 0.5506067 0.1806524
0.5018143 0.41003427 1.0582198 -0.71730804 1.0529892 -1.2634966 0.042137243 -1.6933333
0.42607322 0.016728345 0.03340161 0.10848389 2.0528734 1.0495578 -2.72217 0.4104546
0.86809003 -0.032110497 -0.85860384 0.66134125 -3.1836176 0.19434829 0.69277745 -0.45148873
0.3036771 2.4136348 -0.036958944 -0.54361194 -1.0297142 -1.2418951 0.32037094 0.037296586
-2.9089637 0.53143626 0.034796882 -0.013182376 -0.6577518 -0.03760581 -0.06204299 -0.024310542
00000000: 6247 f73e 43f8 1e3f 95db bfbc bc20 dcbf
00000010: 888b 123f 0232 9dbe 5877 98bd 142b 873d
00000020: af8c 7f3e af7c afbc aed7 60bf c073 553d
00000030: e6a5 b03e 36f4 1ac0 4a34 953f f9c5 60bd
00000040: 6c19 823f d516 51c0 1158 8fbd 3ddd 153d
00000050: d16b dcbf f304 6cbb a920 543f aab0 233f
00000060: a137 9cc0 3c94 4b3c 9fe6 dbbf bb35 b5bf
00000070: d4d6 2c3d 4b2c bcbb 47df 163f ed60 c6bf
00000080: 2565 f03e 9ce5 bc3e 1503 98bc f863 203c
00000090: d002 9b3f 6e4d 063c 2607 043f e5bb bfb9
000000a0: a94f 8f3f 4716 3ac0 b66e 05bf 5173 4b3f
000000b0: 25a8 9d3f ebd2 a93c 924e 94bf 6227 de3e
000000c0: 6b0b 03c0 fc60 02bf b104 c13c 837c 533c
000000d0: ea56 54bf 2b59 bf3f 5598 21bf 34c5 cc3f
000000e0: c651 843e c198 1a3f 6490 e5bf d832 faba
000000f0: 76bc a03d fa9e 19bb 150b 183e 8506 253f
00000100: fe48 fbbc 0d83 1c3e 9d64 4abf ccae 94bc
00000110: 70a9 c83c 1109 513f 1e1b 423c 0834 81bb
00000120: 687f a3bc cd08 6cbf 3d41 093d 34f2 353f
00000130: c7ac 363d dc93 b3bb d9ed 80bc abde 79bf
00000140: 4ce5 bd3e 3adf 793f 94e5 053f 07a5 b63f
00000150: e9c4 af3e b975 0e40 b7f6 533f 6805 5dc0
00000160: e156 113f 838c 743f 1f41 663f c12e 86c0
00000170: 5475 8f3f 17e8 a13f 10fc 86bc 6828 5ac0
00000180: 7889 e03e e1cd 3a3c e51f f53c 8cbd 853c
00000190: 1785 b23f 7976 7d3f da7b 3dc0 9d0d f33e
000001a0: 5384 a83e 8958 db3c c782 61bf 0400 fe3e
000001b0: ec96 e3bf d13a 05bf f873 583f a562 473e
000001c0: 0f0d a9be da71 af3f 09e7 02bc f946 29bf
000001d0: 3499 72bf 21b7 0f40 b226 c03e 4864 bdbc
000001e0: 3680 b5bf 376b 703f 2620 f5bb 53c9 d2bc
000001f0: 66dd 23c0 87fa 0ebd 70bd 303d 7e20 233c
00000200: 220b 773f 0299 933e eb8c e0bc a47c 18c0
00000210: 5d19 7c3f dd60 04bf a77c 1c3d 1e3b 153c
00000220: f937 8abe ddd5 093e 8ffb 83bf 560f 5f3a
00000230: 5a08 b53e d802 0dc0 08d7 183f 27dd acbc
00000240: 5cf8 b63f 8666 51c0 8e8c d83e c881 3f3d
00000250: ab89 71bf 12c8 243d 2640 4d3f 4f87 bebf
00000260: ba41 5fbf eda2 efbc 9eec 97bf 88da f5bf
00000270: 929d 2bbf 8375 9f3a 3669 cd3e fa6f 60bf
00000280: 3a0f 143f 2346 be3e 569f 843d a56e 8dbc
00000290: 1d73 16c0 6036 003e 7d39 ee3e e4a8 dcb9
000002a0: 91bd 853f 2f13 79bf d357 97be fe0c 9e3f
000002b0: b9dc 803f ec3c 07bd 2f4a afbf 08f3 943e
000002c0: ffa7 33c0 49cb 15bf bf85 6dbb 0c49 b83d
000002d0: 78a5 09bf b5fa 4f3e 2dc9 47c0 3710 d83f
000002e0: 006e a53e 11ce 243f c302 4f3f b4af 22bb
000002f0: de54 2a3e d6c8 4b3c b3bc 4d3f da57 173f
00000300: 037e f63c 0379 f23e 65d0 5ebf a8f7 863b
00000310: 06c5 efbd e761 243f 798e 093d e47c 833d
00000320: 5c16 5dbb 835e 83bf b6e4 ff3b 5dd1 fb3e
00000330: f556 303d 15d2 033d 2b51 273d 54f2 1f40
00000340: abfd fe3e 7cd2 533f 4a65 0f3f bb85 773f
00000350: b9e5 1dc0 8238 06c0 90f4 0c3f f1fc 383e
00000360: e776 003f 03f0 d13e bf73 873f 80a1 37bf
00000370: 5ac8 863f 42ba a1bf 1a98 2c3d 25bf d8bf
00000380: 4526 da3e e209 893c 20d0 083d cd2c de3d
00000390: 4762 0340 e957 863f 0938 2ec0 1b27 d23e
000003a0: 263b 5e3f 4c86 03bd 76cd 5bbf a94d 293f
000003b0: 64c0 4bc0 3d03 473e dd59 313f 8829 e7be
000003c0: 917b 9b3e fe78 1a40 4362 17bd 272a 0bbf
000003d0: adcd 83bf 6bf6 9ebf a907 a43e 4ec4 183d
000003e0: 762c 3ac0 350c 083f 2d87 0e3d e4fa 57bc
000003f0: 6c62 28bf 8d08 1abd ca20 7ebd e726 c7bc

fc3.bias f4 [2]
0.1167276 0.16588703
00000000: e10e ef3d 4ade 293e

fc1.weight f4 [128, 31]
-0.09744403 -0.07499303 -0.028388903 -0.0904782 0.019525586 -0.042784978 -0.22190244 0.07219425
-0.035783954 0.1116533 -0.23253433 -0.15383 0.1632797 0.10081693 0.092160545 0.09864942
-0.057880968 -0.09832543 -0.010416854 -0.20608722 -0.004541064 0.053777296 -0.07690999 0.063764855
-0.020565042 0.0804837 0.08272738 0.06762819 0.02256878 0.016819915 -0.07448603 -0.14976372
-0.19231257 -0.09681598 -0.19755411 -0.004819947 -0.037671633 -0.10582221 0.0829983 0.004004256
0.0060370266 0.0693355 -0.1805018 0.0484596 0.082927845 0.054641914 -0.050066534 0.100421235
0.14658788 0.0075170225 0.07715208 -0.1196645 0.081181325 0.10604859 -0.06376234 0.044753894
-0.025640802 0.005287435 -0.053520557 -0.010245991 0.1548277 -0.16673048 -0.19640051 0.46452445
0.13656363 -0.11998568 -0.09155313 -1.1798552 0.62047875 0.4128709 -0.41402045 1.2718467
-0.6082587 0.10098241 0.4013394 -0.6421766 0.21416168 0.083089516 0.6308127 -0.5991304
0.57952654 -0.20090917 0.27704957 -0.21168837 0.344393 -0.022365795 0.44775683 -0.08657905
-0.2665489 -0.038682025 -0.14733568 0.5669396 0.37860456 0.04136494 0.1514324 0.03191869
-0.13938007 -0.051448237 0.13164963 0.06113286 -0.21977092 -0.044010885 0.25419068 0.2500779
-0.5983904 -0.21925129 0.13810332 -0.071692646 -0.0042027803 -0.021118943 -0.031457826 0.052543096
0.025409048 2.5093763 2.528318 -2.715316 0.21504037 1.8097006 0.31541795 -0.77833855
0.08429223 1.2114439 -0.27963588 -0.24390344 -0.2516285 -0.17965725 0.065591246 0.02755698
-0.11913344 -0.1480866 -0.098374516 -0.019444391 -0.15975867 0.27231508 0.08783523 -0.16657732
-0.18249199 -0.07966719 0.056215324 0.09738597 0.19983536 0.1931063 0.10929224 -0.13260841
0.20878375 -0.028522065 0.15225793 -0.006691923 -0.03623672 0.18216951 -0.13557184 0.041848317
-0.06589977 -0.0509776 -0.02616849 -0.20915934 0.003939826 0.1290133 -0.16632119 1.653883
1.75128 -0.18072812 -0.13251424 -0.8104988 1.713556 1.4626639 0.09249107 0.2231488
-0.18185112 -0.18274118 0.08169168 0.3812983 0.5414508 0.24388783 -0.08773677 0.29349953
0.9469747 0.6500728 0.11575487 0.44438747 0.56007004 0.061328612 0.1264923 0.49633682
1.0256026 0.48211485 0.21072347 -0.18282814 0.124043286 0.30136287 -2.3061807 -0.016150713
0.5508095 0.5243873 -0.30094343 0.6128561 -0.47717708 0.36559322 0.071080685 0.99412566
1.1482174 0.6674709 -0.50060946 0.48867232 0.8789149 0.54815733 0.20358667 0.536084
0.42962703 0.42404532 0.33345154 0.06881267 0.5240378 0.34077218 -0.042270076 0.48954278
0.46184057 -0.11820948 -0.40054289 0.1713545 -0.026923819 1.541723 -1.5811224 -0.18612237
-0.28051746 -0.38794383 -0.8245294 1.480294 0.036745086 0.7250103 -0.1234103 0.29110426
0.11510617 -0.5949413 -0.29903072 1.4217583 0.20982765 -0.026596678 0.018536855 0.11044887
-0.032709543 0.020061718 0.8848792 0.006453589 0.09467259 0.6688772 0.13652813 0.080166034
0.11929312 -0.9238237 -0.03495194 0.15191269 -2.4405065 0.81903774 0.3503163 0.06659917
00000000: bc90 c7bd f295 99bd d88f e8bc a24c b9bd
00000010: 1ff4 9f3c 4d3f 2fbd 653a 63be 94da 933d
00000020: 3292 12bd 7caa e43d 7b1d 6ebe 9d85 1dbe
00000030: cb32 273e 1b79 ce3d abbe bc3d b508 ca3d
00000040: 9814 6dbd d85e c9bd 74ab 2abc 8708 53be
00000050: 35cd 94bb 9545 5c3d fc82 9dbd 2697 823d
00000060: 0578 a8bc a3d4 a43d f96c a93d a680 8a3d
00000070: 2ae2 b83c ebc9 893c 228c 98bd a95b 19be
00000080: 96ed 44be 7547 c6bd a04b 4abe a5f0 9dbb
00000090: 924d 1abd 51b9 d8bd 03fb a93d 2236 833b
000000a0: 40d2 c53b c5ff 8d3d 77d5 38be 937d 463d
000000b0: 13d6 a93d 33d0 5f3d 9112 4dbd a6a9 cd3d
000000c0: 221b 163e 5b51 f63b e901 9e3d a912 f5bd
000000d0: 6542 a63d 0130 d93d d495 82bd dc4f 373d
000000e0: a90c d2bc 3842 ad3b 5f38 5bbd cdde 27bc
000000f0: 278b 1e3e 65bb 2abe 371d 49be 26d6 ed3e
00000100: 56d7 0b3e 0dbb f5bd 3580 bbbd 7f05 97bf
00000110: b2d7 1e3f d163 d33e 7dfa d3be dfcb a23f
00000120: d8b6 1bbf decf ce3d 5c7c cd3e b065 24bf
00000130: 334d 5b3e d62a aa3d f17c 213f 9c60 19bf
00000140: da5b 143f 22bb 4dbe 71d9 8d3e d6c4 58be
00000150: 4754 b03e 7938 b7bc 6240 e53e 5b50 b1bd
00000160: 1979 88be 0b71 1ebd 2adf 16be f422 113f
00000170: 75d8 c13e 496e 293d 1811 1b3e 2cbd 023d
00000180: a6b9 0ebe 63bb 52bd 29cf 063e 7366 7a3d
00000190: a10b 61be c244 34bd 4825 823e 360a 803e
000001a0: 1d30 19bf 6983 60be f56a 0d3e 98d3 92bd
000001b0: 7ab7 89bb a201 adbc ecd9 00bd 6e37 573d
000001c0: a326 d03c 9f99 2040 f6cf 2140 bdc7 2dc0
000001d0: 8b33 5c3e 45a4 e73f 767e a13e 3241 47bf
000001e0: 68a1 ac3d 9810 9b3f 6f2c 8fbe d3c1 79be
000001f0: 73d5 80be 12f8 37be b454 863d 2dbf e13c
00000200: 3cfc f3bd 03a4 17be 9478 c9bd d849 9fbc
00000210: c797 23be e26c 8b3e f5e2 b33d 3f93 2abe
00000220: 2edf 3abe 8d28 a3bd 0a42 663d 4c72 c73d
00000230: a4a1 4c3e a8bd 453e 9cd4 df3d 80ca 07be
00000240: 68cb 553e 1ba7 e9bc 81e9 1b3e eb47 dbbb
00000250: f46c 14bd a58a 3a3e 58d3 0abe 2469 2b3d
00000260: 75f6 86bd e3cd 50bd 4d5f d6bc de2d 56be
00000270: a819 813b 101c 043e 1a50 2abe 70b2 d33f
00000280: f129 e03f cb10 39be d0b1 07be d97c 4fbf
00000290: ce55 db3f 9238 bb3f f56b bd3d 1e81 643e
000002a0: 2e37 3abe 8120 3bbe f84d a73d 8839 c33e
000002b0: 859c 0a3f bbbd 793e 56af b3bd 9245 963e
000002c0: ef6c 723f 2c6b 263f e410 ed3d c186 e33e
000002d0: c060 0f3f b633 7b3d 3387 013e dc1f fe3e
000002e0: f246 833f c2d7 f63e e5c7 573e 4d37 3bbe
000002f0: 680a fe3d 3c4c 9a3e 7798 13c0 804e 84bc
00000300: da01 0d3f 3f3e 063f 4215 9abe 23e4 1c3f
00000310: 8e50 f4be 092f bb3e c092 913d 057f 7e3f
00000320: caf8 923f 5fdf 2a3f f127 00bf 4233 fa3e
00000330: 9100 613f 0a54 0c3f 0679 503e cd3c 093f
00000340: 13f8 db3e 781c d93e 29ba aa3e a8ed 8c3d
00000350: 5727 063f b179 ae3e 6323 2dbd 5aa5 fa3e
00000360: 5e76 ec3e d017 f2bd f513 cdbe 8e77 2f3e
00000370: 578f dcbc 2e57 c53f 3862 cabf dd96 3ebe
00000380: fc9f 8fbe 93a0 c6be 5c14 53bf 467a bd3f
00000390: 0482 163d 469a 393f 8abe fcbd 9e0b 953e
000003a0: c9bc eb3d 134e 18bf 8e1a 99be 2dfc b53f
000003b0: 0fdd 563e 47e1 d9bc 9ada 973c 0433 e23d
000003c0: 71fa 05bd 7958 a43c 7187 623f a178 d33b
000003d0: b4e3 c13d 893b 2b3f 08ce 0b3e 172e a43d
000003e0: f44f f43d b67f 6cbf c429 0fbd 008f 1b3e
000003f0: 4231 1cc0 75ac 513f a85c b33e 2565 883d

fc1.bias f4 [128]
-0.15474424 0.057263263 -0.1514363 -0.0861965 -0.07810595 0.04437205 0.024092725 -0.2790896
-0.0970904 -0.12985775 0.058272984 -0.2937929 -0.23731177 -0.054234494 -0.14040321 -0.06307745
-0.20796753 0.092186116 0.13495733 -0.13030861 -0.1867704 -0.13336484 -0.15178904 -0.18904862
-0.1695514 -0.07520741 -0.08627258 0.09192097 -0.14258409 -0.09394097 -0.24631543 -0.107525796
-0.069904216 -0.07894212 -0.06355884 -0.47810087 -0.078062706 -0.17642719 -0.32236215 -0.3312149
-0.2597816 0.24351431 -0.08731921 -0.10882642 0.08331015 -0.17440309 -0.04314895 0.123887084
-0.120802574 -0.17773166 -0.1902103 0.10090213 -0.0444629 -0.08503489 -0.2388281 -0.12383411
-0.15426928 -0.13442239 -0.12019861 0.048439354 -0.17192216 -0.024130322 -0.10853299 -0.2680729
0.13790196 -0.19189194 -0.21062955 -0.043348927 0.08062895 -0.11109198 -0.13570279 -0.2938938
-0.123953246 0.03152203 -0.0061181705 0.20232736 -0.16628014 -0.024781471 -0.20135997 -0.13771455
-0.110896975 0.07986275 -0.17082064 0.26450247 0.0006052123 -0.20154582 0.038515076 -0.3756517
-0.17629889 -0.21402897 -0.18528606 -0.35195807 0.01218005 -0.14570525 0.08072136 -0.17599061
0.004443999 -0.02876237 0.009076962 0.18924887 -0.09197291 -0.054516308 -0.23232727 -0.11496237
0.06861417 -0.040421683 -0.3320197 -0.17985749 -0.13384138 0.10946823 -0.06588701 -0.058332305
0.13678195 -0.18812005 -0.2719212 0.0398467 -0.048410058 -0.25506678 -0.13976684 -0.0848847
-0.075233646 -0.055119906 -0.051379085 0.07249857 -0.15619884 -0.16868363 -0.13550037 -0.28245544
00000000: 4675 1ebe e28c 6a3d 1e12 1bbe ca87 b0bd
00000010: 03f6 9fbd 77bf 353d 1b5e c53c d5e4 8ebe
00000020: 55d7 c6bd 6ef9 04be a7af 6e3d 066c 96be
00000030: db01 73be fd24 5ebd dcc5 0fbe c02e 81bd
00000040: 71f5 54be 13cc bc3d 4132 0a3e 9f6f 05be
00000050: bd40 3fbe cb90 08be 966e 1bbe f695 41be
00000060: e29e 2dbe 5806 9abd aeaf b0bd 1041 bc3d
00000070: 9001 12be 2064 c0bd 1d3a 7cbe 7c36 dcbd
00000080: f129 8fbd 68ac a1bd 232b 82bd a3c9 f4be
00000090: 57df 9fbd 54a9 34be a70c a5be 0095 a9be
000000a0: 1802 85be d15b 793e 6ad4 b2bd 63e0 debd
000000b0: 839e aa3d b996 32be f4bc 30bd 83b8 fd3d
000000c0: 5767 f7bd 4aff 35be 7dc6 42be c7a5 ce3d
000000d0: bb1e 36bd c626 aebd 5a8f 74be bd9c fdbd
000000e0: c4f8 1dbe 06a6 09be b02a f6bd 5868 463d
000000f0: 5d0c 30be f4ac c5bc 8b46 debd da40 89be
00000100: 2c36 0d3e 527f 44be 46af 57be a58e 31bd
00000110: ca20 a53d 3184 e3bd acf5 0abe 4079 96be
00000120: 33db fdbd 3e1d 013d ef7a c8bb e72e 4f3e
00000130: 5745 2abe 8302 cbbc 4f31 4ebe 0b05 0dbe
00000140: f41d e3bd 158f a33d 9beb 2ebe de6c 873e
00000150: 1ca7 1e3a 0762 4ebe fcc1 1d3d 6b55 c0be
00000160: b287 34be 692a 5bbe a1bb 3dbe d933 b4be
00000170: d58e 473c c233 15be 3e51 a53d e236 34be
00000180: f79e 913b 109f ebbc 8ab7 143c 75ca 413e
00000190: 4b5c bcbd 7e4c 5fbd 33e7 6dbe 6471 ebbd
000001a0: 9685 8c3d 3591 25bd 7cfe a9be 902c 38be
000001b0: b70d 09be e130 e03d c5ef 86bd dbed 6ebd
000001c0: 9110 0c3e 8ba2 40be 4139 8bbe 4b36 233d
000001d0: a049 46bd 1d98 82be 0a1f 0fbe 08d8 adbd
000001e0: 1914 9abd 69c5 61bd e072 52bd 217a 943d
000001f0: 97f2 1fbe 67bb 2cbe 9cc0 0abe 009e 90be

fc2.weight f4 [128, 128]
0.062464762 0.056764316 -0.9241502 0.2119406 -0.02332072 -0.38795862 -0.4291792 -0.28675097
-0.38745958 0.94251144 -1.2927715 -0.25312263 -1.7882866 0.5657945 -0.9789134 -0.28458577
-0.0033977935 0.38043717 -0.27119553 0.025528967 0.11172718 0.054255735 -0.088545285 0.43619996
0.09106973 -0.06303113 -0.028188672 0.19959751 0.061227545 -0.03477001 -0.38540974 -0.72362816
0.41416776 0.10356565 -0.026854921 0.17830291 0.39001876 0.027414586 -0.48250726 -0.24890801
0.2203253 0.14985591 0.27843753 -0.0744206 0.38018277 0.12761295 0.24789302 0.7155559
-0.081561714 -2.4247158 0.5297995 0.20761618 0.003854759 0.37500796 -0.10374738 0.050719615
0.18817398 0.5168857 -0.05294934 0.009645898 -0.045209017 0.3896758 0.2903466 -1.8430365
0.19543815 0.01069471 0.022343207 0.084537104 -0.09913528 -0.104094036 0.17517118 -0.7484825
-0.19299708 -0.5713945 0.30858207 0.20608294 -0.78819597 0.20513587 -0.4703697 0.011618346
0.27082112 -0.2663336 0.28198105 0.009869088 -0.124562815 0.061474066 0.1755372 0.09452221
-0.0799632 0.13608506 -0.034864344 0.106049836 0.2913785 -0.06487548 -0.05301458 -0.36069795
-0.16397381 -0.5721918 0.035264306 0.1586174 0.003320083 0.556651 0.2544414 -0.084687896
-0.018805092 -0.86516553 -0.045314293 -0.03727159 0.47115803 -0.2253709 0.1525549 -0.061665986
0.7376013 -1.3308569 0.07607629 -0.15159602 0.070400216 0.012246531 0.55405504 -1.3177516
0.065881714 -0.16411757 -0.18357539 0.5390426 -0.5394403 0.4097156 -0.75828236 -0.22653823
0.0683942 -0.074273005 -0.6372576 0.6018594 -0.10076539 0.0353332 0.557792 0.4598021
0.18322116 -0.150566 -1.182167 -0.10299092 -1.1801562 0.37695283 0.12471132 -0.01174473
0.07503079 0.086258546 -0.7625763 -0.090427265 -0.29539034 -0.01950594 1.1163415 -0.38775355
0.08475498 0.028618839 -0.068322085 -0.69706404 0.12235852 -0.008233605 0.06220967 0.071838684
0.22526667 -0.21707837 0.1472262 0.033013783 0.15843338 0.005385538 0.006611833 0.5183246
0.04875529 0.18160322 0.13595143 0.03818047 0.27815706 0.019463813 0.24361527 -0.13136815
-0.08492541 -1.3301383 0.16944906 0.2783117 -0.015795667 0.17382473 -0.18125275 0.41190925
-0.15350378 -1.1622628 -0.15420522 -0.21738315 0.027179256 0.06639716 -0.53126556 -1.2660578
0.1479017 -0.3554738 0.06530147 -0.3797547 0.43243715 0.047707874 0.14480548 -0.3196856
-0.07575336 -1.4732951 0.30173385 0.3014697 0.560605 0.15721081 0.005263155 0.019919999
-0.54121375 0.5474369 -0.19850229 0.096343316 0.33347285 0.01787089 0.031008407 -0.3582164
-0.08770834 0.1450584 0.0072052428 0.121220686 0.241742 0.040392153 0.08090073 -0.36677083
0.37078777 0.021953601 -0.055170216 0.64802283 0.013614841 0.041295096 -0.2039174 0.118131846
0.043573245 -0.8927975 0.17589831 0.032147754 -0.7173231 0.08930506 -1.3260432 0.0466076
0.2936886 -2.2742255 -0.04418446 0.16795294 0.05479864 -0.463966 -0.08206502 0.31270534
0.09610225 0.3362921 -0.25318956 0.09013586 -0.946953 -1.603385 -0.36642545 -0.4466803
00000000: 0ddb 7f3d b381 683d 1c95 6cbf f506 593e
00000010: 180b bfbc 83a2 c6be 60bd dbbe 06d1 92be
00000020: 1a61 c6be 6e48 713f 8979 a5bf 4a99 81be
00000030: 93e6 e4bf e9d7 103f 129a 7abf 3ab5 91be
00000040: 84ad 5ebb a9c8 c23e 24da 8abe 2022 d13c
00000050: 38d1 e43d 433b 5e3d 3b57 b5bd 9a55 df3e
00000060: c482 ba3d 7716 81bd eeeb e6bc 4a63 4c3e
00000070: bcc9 7a3d ff6a 0ebd 6d54 c5be b23f 39bf
00000080: cc0d d43e 3a1a d43d dafe dbbc 0a95 363e
00000090: 8ab0 c73e 8e94 e03c 310b f7be bee1 7ebe
000000a0: f59c 613e d473 193e 5d8f 8e3e d469 98bd
000000b0: 51a7 c23e f8ac 023e abd7 7d3e ac2e 373f
000000c0: d409 a7bd 8b2e 1bc0 f1a0 073f 5699 543e
000000d0: 20a0 7c3b 0b01 c03e 8279 d4bd 5fbf 4f3d
000000e0: aeb0 403e 9f52 043f 68e1 58bd d409 1e3c
000000f0: 172d 39bd 9683 c73e 4fa8 943e 9fe8 ebbf
00000100: f020 483e dd38 2f3c 1a09 b73c ca21 ad3d
00000110: 7007 cbbd 412f d5bd 1360 333e 8d9c 3fbf
00000120: 07a1 45be e946 12bf 78fe 9d3e 6807 533e
00000130: 36c7 49bf 230f 523e 4cd4 f0be e05a 3e3c
00000140: 11a9 8a3e e15c 88be d25f 903e f5b1 213c
00000150: ca1a ffbd 3bcc 7b3d 06c0 333e dc94 c13d
00000160: bfc3 a3bd e259 0b3e eacd 0ebd a830 d93d
00000170: 902f 953e 70dd 84bd d125 59bd 67ad b8be
00000180: c0e8 27be 297b 12bf 4e71 103d 9a6c 223e
00000190: c095 593b ae80 0e3f 2546 823e d970 adbd
000001a0: 230d 9abc 7d7b 5dbf 7b9b 39bd 18aa 18bd
000001b0: a03b f13e a1c7 66be 5a37 1c3e 7995 7cbd
000001c0: 70d3 3c3f 8559 aabf e3cd 9b3d fd3b 1bbe
000001d0: fd2d 903d ada5 483c 8dd6 0d3f 16ac a8bf
000001e0: feec 863d 700e 28be 30fb 3bbe b2fe 093f
000001f0: c218 0abf 3ec6 d13e cb1e 42bf a3f9 67be
00000200: 4212 8c3d 721c 98bd 5023 23bf 7513 1a3f
00000210: 165e cebd 8cb9 103d 75cb 0e3f 2e6b eb3e
00000220: 549e 3b3e f92d 1abe 4051 97bf e7ec d2bd
00000230: 5c0f 97bf f6ff c03e a668 ff3d f86c 40bc
00000240: bea9 993d 52a8 b03d 3338 43bf ee31 b9bd
00000250: 673d 97be ecca 9fbc 47e4 8e3f a287 c6be
00000260: 0594 ad3d 0e72 ea3c 73ec 8bbd ca72 32bf
00000270: 1b97 fa3d 3ee6 06bc 91cf 7e3d 2920 933d
00000280: 4eac 663e cb49 5ebe 77c2 163e 7639 073d
00000290: 5c3c 223e 2b79 b03b 13a8 d83b ecb0 043f
000002a0: a1b3 473d 32f6 393e da36 0b3e 2063 1c3d
000002b0: 9a6a 8e3e 9372 9f3c 4876 793e 5f85 06be
000002c0: 60ed adbd f941 aabf 0e84 2d3e df7e 8e3e
000002d0: ea65 81bc 1cff 313e 529a 39be c5e5 d23e
000002e0: 1830 1dbe 07c5 94bf f9e7 1dbe b099 5ebe
000002f0: 08a7 de3c 3cfb 873d 0501 08bf 2f0e a2bf
00000300: 8b73 173e a900 b6be c7bc 853d 356f c2be
00000310: 6768 dd3e 5569 433d e347 143e d5ad a3be
00000320: 9424 9bbd ef94 bcbf dc7c 9a3e 3d5a 9a3e
00000330: cf83 0f3f dffb 203e 8b76 ac3b 442f a33c
00000340: fc8c 0abf d324 0c3f 2f44 4bbe a54f c53d
00000350: f4bc aa3e f965 923c 5805 fe3c 2468 b7be
00000360: 6ea0 b3bd 308a 143e f519 ec3b 8d42 f83d
00000370: 378b 773e 3e72 253d 48af a53d 63c9 bbbe
00000380: e5d7 bd3e 0ad8 b33c 2afa 61bd d3e4 253f
00000390: c810 5f3c 0c25 293d b9cf 50be 1cef f13d
000003a0: dc79 323d 618e 64bf b01e 343e 5dad 033d
000003b0: 7da2 37bf 92e5 b63d c9bb a9bf 9ce7 3e3d
000003c0: 5a5e 963e e98c 11c0 c4fa 34bd dbfb 2b3e
000003d0: 8a74 603d f48c edbe b511 a8bd ea1a a03e
000003e0: 42d1 c43d 7a2e ac3e 10a2 81be 2699 b83d
000003f0: 836b 72bf b83b cdbf 1e9c bbbe 48b3 e4be

fc2.bias f4 [128]
-0.048724037 0.0024948746 -0.031503912 0.39299226 -0.18310149 -0.5051905 -0.009569458 -0.12961736
-0.053693626 -0.038285315 -0.21567398 -0.18950683 0.46197262 1.1800228 -0.027289763 -0.10940614
0.25515163 0.9943136 -0.25117612 -0.103459194 0.67203027 -0.12034973 -0.07052305 -0.13541813
0.6207176 -0.043401055 0.10518551 0.5977528 0.12902749 -0.066230826 0.19741848 0.8494742
0.09217836 0.3596723 0.025129419 -0.116549395 -0.031438433 -0.0781638 0.3868775 -0.061891012
-0.17572334 0.5948946 0.0550066 -0.006889493 -0.23944221 -0.012307343 0.59141314 0.1823164
0.80725205 -0.05219285 -0.045507014 -0.045036957 -0.12901811 -0.08542654 0.5523756 -0.03398743
0.3436805 -0.19297153 -0.16242385 -0.07870004 0.18420833 -0.230749 0.31149825 0.6932789
-0.14022334 0.06316161 -0.31336042 -0.08250326 -0.15015651 0.18083423 -0.11824902 -0.01006497
-0.08204165 -0.33699003 -0.042775173 0.051301606 -0.11700551 -0.11915727 -0.089959286 0.16084464
0.22916616 -0.19985643 0.41470632 0.11709344 0.4954802 -0.0650205 0.2719617 0.27735853
-0.051711313 -0.14144929 0.0405279 0.64204687 -0.060858227 -0.18653423 -0.121841386 0.7283525
0.2891399 -0.01822298 -0.10985827 -0.033912618 -0.07045135 0.0018610703 0.31140125 0.044498138
0.44376722 -0.08642022 0.24953917 0.37755132 0.3249931 -0.20006318 0.2417322 -0.015896901
-0.028699258 -0.16697344 0.022288227 0.5016279 -0.3843222 -0.07581295 0.22660664 -0.1422048
0.62028664 0.022384232 0.00689951 -0.058258895 0.53600025 -0.08496412 -0.12452692 -0.10893082
00000000: db92 47bd 0d81 233b 3f0a 01bd 4836 c93e
00000010: f57e 3bbe 2a54 01bf 37c9 1cbc 6aba 04be
00000020: d9ed 5bbd 10d1 1cbd a4d9 5cbe 140e 42be
00000030: ad87 ec3e fd0a 973f c88e dfbc 5410 e0bd
00000040: 3ca3 823e 568b 7e3f 289a 80be 6ae2 d3bd
00000050: 2d0a 2c3f eb79 f6bd 646e 90bd 0dab 0abe
00000060: 59e7 1e3f 4ec5 31bd 806b d73d 5406 193f
00000070: c81f 043e 07a4 87bd 1228 4a3e 2477 593f
00000080: 02c8 bc3d f826 b83e 36dc cd3c 73b1 eebd
00000090: 96c5 00bd 5814 a0bd cf14 c63e 6e81 7dbd
000000a0: d2f0 33be 034b 183f 9a4e 613d 42c1 e1bb
000000b0: 5730 75be bda4 49bc da66 173f 26b1 3a3e
000000c0: 12a8 4e3f 2bc8 55bd 9065 3abd ac78 38bd
000000d0: 531d 04be 1cf4 aebd 7d68 0d3f 6736 0bbd
000000e0: e4f6 af3e 549a 45be 7052 26be 7d2d a1bd
000000f0: 1ca1 3c3e 7749 6cbe b37c 9f3e ba7a 313f
00000100: b596 0fbe e05a 813d c770 a0be 78f7 a8bd
00000110: a1c2 19be 9c2c 393e 8b2c f2bd 8be7 24bc
00000120: 7405 a8bd f589 acbe 0535 2fbd a221 523d
00000130: 96a0 efbd ba08 f4bd 933c b8bd 75b4 243e
00000140: 89aa 6a3e 2aa7 4cbe 6354 d43e afce ef3d
00000150: 95af fd3e 7829 85bd 903e 8b3e f001 8e3e
00000160: 3ecf 53bd 15d8 10be 9500 263d 2f5d 243f
00000170: 7a46 79bd d402 3fbe fa87 f9bd 4f75 3a3f
00000180: 250a 943e 5c48 95bc 5ffd e0bd f5e7 0abd
00000190: cc48 90bd 28ef f33a fc6f 9f3e ae43 363d
000001a0: 7535 e33e 16fd b0bd 3287 7f3e 684e c13e
000001b0: 7f65 a63e 5ddd 4cbe a588 773e 383a 82bc
000001c0: b51a ebbc 16fb 2abe cd95 b63c b06a 003f
000001d0: e1c5 c4be d243 9bbd 920b 683e 239e 11be
000001e0: 1bcb 1e3f 235f b73c 4915 e23b e1a0 6ebd
000001f0: 5037 093f ab01 aebd f807 ffbd 1f17 dfbd

fc3.weight f4 [2, 128]
0.50035477 0.5873427 -0.023420135 -1.6849103 0.5936852 -0.30867004 -0.07444638 0.066000134
0.25427467 -0.021421758 -0.821672 0.05211234 0.33580387 -2.4202845 1.1351228 -0.0548763
1.0198039 -3.3929825 -0.059147693 0.036587942 -1.7128667 -0.0036013692 0.6789529 0.7338159
-4.889532 0.012425479 -1.8284463 -1.5020269 0.0035891712 -0.005742585 0.5832781 -1.4523162
0.48843664 0.36655927 -0.018556157 0.01062854 1.2110615 0.008197172 0.5368809 -0.0003657035
1.080959 -2.9168487 -0.47671375 0.74857265 1.1776214 0.020730456 -1.1693846 0.4631019
-2.077728 -0.483025 0.023561807 0.012908104 -0.7849731 1.5492465 -0.6912317 1.3567888
0.25821856 0.60389334 -1.793469 -0.0019088639 0.057613313 -0.0023440705 0.16391069 0.65759116
-0.030674454 0.16962363 -0.7742746 -0.018149756 0.024494857 0.83748806 0.011847286 -0.00394297
-0.019958213 -0.94441146 0.03350948 0.6868061 0.044598367 -0.0054802727 -0.015738415 -0.8516578
0.3950374 0.9063423 0.512044 1.4405829 0.2982875 2.0719578 0.7826151 -3.453455
0.5537413 0.8761875 0.8949774 -4.346136 1.125936 1.2227 -0.016477615 -3.3489711
0.40315837 0.011401624 0.029922435 0.016325735 1.4107563 0.98067504 -2.9256504 0.44938174
0.3200411 0.026775615 -0.8811377 0.49725503 -1.8166671 -0.5204287 0.8510747 0.2037467
-0.35938275 1.3432351 -0.007989653 -0.6212302 -0.9295491 2.167556 0.37699708 -0.023119107
-1.3547263 0.892489 -0.007480639 -0.025730764 -2.5544991 -0.03490689 0.04314941 0.009956477
0.95930207 0.2978285 -0.027410945 -2.3912263 0.97474897 -0.46244514 0.038204815 0.009108333
-0.24533328 0.13460489 -0.97323394 0.000850906 0.3435672 -2.137952 0.57779634 -0.021101547
1.3798949 -3.1575255 0.40769017 0.04675463 -1.0347447 0.040229864 0.8508696 -1.3976333
-0.79994327 -0.029252494 -1.0541141 -1.7664256 -0.6345339 0.0012165759 0.38914704 -0.8823558
0.53894883 0.37594137 0.064757034 -0.01828988 -2.283617 0.12520742 0.44901177 -0.00042087503
1.1294338 -0.9688471 -0.31190255 1.2641109 0.9568663 -0.033017084 -1.2833672 0.28777385
-2.7401493 -0.57531106 -0.003624305 0.089983076 -0.550684 0.29101485 -3.1275918 1.7461339
0.29795015 0.6437693 0.7936841 -0.0024823966 0.18284157 0.01243802 0.8207362 0.5704384
0.030089384 0.4252649 -0.8442208 0.0041188784 -0.11707501 0.623289 0.03358314 0.06420305
-0.003373525 -0.9998155 0.007809247 0.47214526 0.04305168 0.03218277 0.040848892 2.513172
0.49681675 0.96303827 0.5678038 0.9245715 -2.4487963 -2.041973 0.51562417 0.1806524
0.50840396 0.4274596 1.0407461 -0.59126085 0.9926231 -1.2090942 0.042137243 -1.6781942
0.44212297 0.016728345 0.03340161 0.10848389 1.9863305 1.0542607 -2.6747217 0.4136427
0.8494913 -0.032110497 -0.7600048 0.65024245 -3.1408613 0.19434829 0.7429052 -0.46881992
0.34655297 2.364984 -0.036958944 -0.5824919 -0.97652394 -1.1577699 0.30684784 0.037296586
-2.9139268 0.568637 0.034796882 -0.013182376 -0.72883475 -0.03760581 -0.06204299 -0.024310542
00000000: 4017 003f 175c 163f 95db bfbc 24ab d7bf
00000010: c1fb 173f 000a 9ebe 5877 98bd 142b 873d
00000020: 4a30 823e af7c afbc 1959 52bf c073 553d
00000030: 7cee ab3e f1e5 1ac0 b44b 913f f9c5 60bd
00000040: ef88 823f a026 59c0 da44 72bd 3ddd 153d
00000050: 373f dbbf f304 6cbb dbcf 2d3f 5cdb 3b3f
00000060: 0c77 9cc0 3c94 4b3c 870a eabf 6b42 c0bf
00000070: 4d38 6b3b 4b2c bcbb b751 153f 7fe5 b9bf
00000080: 5e14 fa3e a8ad bb3e 1503 98bc 5423 2e3c
00000090: 1004 9b3f 6e4d 063c 0771 093f e5bb bfb9
000000a0: dd5c 8a3f a6ad 3ac0 d313 f4be 75a2 3f3f
000000b0: 4cbc 963f ebd2 a93c 65ae 95bf b11b ed3e
000000c0: 7ff9 04c0 0e4f f7be b104 c13c 837c 533c
000000d0: fff3 48bf b64d c63f 90f4 30bf 41ab ad3f
000000e0: 3935 843e c198 1a3f 6490 e5bf d832 faba
000000f0: f0fb 6b3d fa9e 19bb 34d8 273e e557 283f
00000100: fe48 fbbc d1b1 2d3e dc36 46bf ccae 94bc
00000110: 70a9 c83c 9e65 563f 1e1b 423c 0834 81bb
00000120: 687f a3bc f3c4 71bf 3d41 093d 86d2 2f3f
00000130: c7ac 363d dc93 b3bb d9ed 80bc 3f06 5abf
00000140: 5842 ca3e 0d06 683f 5115 033f 0565 b83f
00000150: 24b9 983e f59a 0440 7759 483f 6805 5dc0
00000160: fdc1 0d3f d34d 603f 3d1d 653f 8c13 8bc0
00000170: ac1e 903f 6f81 9c3f 10fc 86bc 8b55 56c0
00000180: c66a ce3e e1cd 3a3c e51f f53c 8cbd 853c
00000190: aa93 b43f 850d 7b3f db3d 3bc0 5d15 e63e
000001a0: 6ddc a33e 8958 db3c 3e92 61bf 3698 fe3e
000001b0: 8c88 e8bf d13a 05bf 08e0 593f faa2 503e
000001c0: 0401 b8be 21ef ab3f 09e7 02bc f108 1fbf
000001d0: eef6 6dbf 3db9 0a40 c305 c13e 4864 bdbc
000001e0: ac67 adbf 297a 643f 2620 f5bb 53c9 d2bc
000001f0: ea7c 23c0 87fa 0ebd 70bd 303d 7e20 233c
00000200: d294 753f fa7c 983e eb8c e0bc da09 19c0
00000210: 2689 793f 9cc5 ecbe a77c 1c3d 1e3b 153c
00000220: a638 7bbe ddd5 093e dc25 79bf 560f 5f3a
00000230: 0ae8 af3e 35d4 08c0 76ea 133f 27dd acbc
00000240: 65a0 b03f e614 4ac0 c4bc d03e c881 3f3d
00000250: 8472 84bf 12c8 243d 97d2 593f a6e5 b2bf
00000260: 15c9 4cbf eda2 efbc 36ed 86bf 3c1a e2bf
00000270: d070 22bf 8375 9f3a 483e c73e 12e2 61bf
00000280: 8df8 093f 637b c03e 569f 843d a9d4 95bc
00000290: c826 12c0 6036 003e dfe4 e53e e4a8 dcb9
000002a0: 4991 903f 5d06 78bf b1b1 9fbe 63ce a13f
000002b0: 31f5 743f ec3c 07bd 6045 a4bf 1857 933e
000002c0: 9b5e 2fc0 9647 13bf bf85 6dbb 0c49 b83d
000002d0: a0f9 0cbf e6ff 943e 772a 48c0 5181 df3f
000002e0: ec8c 983e 11ce 243f e22e 4b3f b4af 22bb
000002f0: d23a 3b3e d6c8 4b3c c51b 523f 4008 123f
00000300: 037e f63c 52bc d93e db1e 58bf a8f7 863b
00000310: 06c5 efbd de8f 1f3f 798e 093d e47c 833d
00000320: 5c16 5dbb e9f3 7fbf b6e4 ff3b 06bd f13e
00000330: f556 303d 15d2 033d 2b51 273d cfd7 2040
00000340: c45e fe3e ad89 763f 975b 113f b8b0 6c3f
00000350: 14b9 1cc0 b0af 02c0 f2ff 033f f1fc 383e
00000360: c326 023f fcdb da3e 2b37 853f df5c 17bf
00000370: 8c1c 7e3f 99c3 9abf 1a98 2c3d 11cf d6bf
00000380: f15d e23e e209 893c 20d0 083d cd2c de3d
00000390: 1440 fe3f 04f2 863f a42e 2bc0 fac8 d33e
000003a0: 4378 593f 4c86 03bd ad8f 42bf 4a76 263f
000003b0: df03 49c0 3d03 473e 092f 3e3f 2a09 f0be
000003c0: 646f b13e e65b 1740 4362 17bd 301e 15bf
000003d0: 79fd 79bf ce31 94bf 291b 9d3e 4ec4 183d
000003e0: c77d 3ac0 3292 113f 2d87 0e3d e4fa 57bc
000003f0: ea94 3abf 8d08 1abd ca20 7ebd e726 c7bc

fc3.bias f4 [2]
0.11489289 0.14264221
00000000: f74c eb3d cd10 123e
