checkpoints/dqn_error.pth (torch, 167843 bytes, 12 tensors)

fc1.weight f4 [128, 27]
000000 d1 1c 38 3e e6 c9 d0 3d 41 6b 1f 3e ca f4 e7 bd
       0.17979743 0.10194759 0.15568258 -0.11325987
000010 70 41 bc bc 5e 99 1d be 47 3a 00 be 59 d9 8f bd
       -0.022980422 -0.15390536 -0.12522231 -0.07023878
000020 8c b6 0f 3d 8e bf 06 be 38 13 c9 3c 36 14 c7 3d
       0.0350862 -0.1315901 0.024545297 0.09720652
000030 9a 31 c6 bd e7 44 28 be 80 27 7c bc b0 83 f9 bc
       -0.096774295 -0.16432534 -0.015390277 -0.030458301
000040 1d 47 41 3e 11 c6 0c be 01 63 1a 3e d4 65 f8 bd
       0.18874784 -0.13747431 0.1507683 -0.12128797
000050 e0 3d 05 3c 87 2a fb bd a0 44 f5 3c 81 e5 29 3e
       0.008132428 -0.12263971 0.02993995 0.16591455
000060 da 34 ba 3d f4 52 d9 bd 9f 14 39 3e 37 ce c9 bd
       0.09092112 -0.10611525 0.18074273 -0.098537855
000070 7a 32 d5 3d cc fd 03 be a8 86 b8 bc bf 97 00 3e
       0.10410018 -0.12889785 -0.022525147 0.12557887
000080 e8 46 87 3c 78 d3 81 bc f8 44 9d bd 90 2c 16 be
       0.016513303 -0.015847906 -0.0767917 -0.14665437
000090 48 54 fa 3c 96 32 83 3d 77 a7 28 3e 1e 03 85 3d
       0.030557767 0.06406133 0.16470133 0.06494735
0000a0 ee f6 cf 3d 78 bc 15 be 9b 81 bc bd a8 e7 0f be
       0.1015452 -0.14622676 -0.09204408 -0.14053214
0000b0 28 13 cb 3c ce 66 87 3d b9 ca 1c 3e 58 79 dd bc
       0.024789408 0.06611405 0.15311708 -0.0270354
0000c0 00 ce cb bc e1 8c 1f be 04 06 40 bd 07 9a 1d 3e
       -0.024878502 -0.15581085 -0.046880737 0.15390788
0000d0 49 e7 43 3e c4 8d 12 3d 7b b1 00 3e dc cb 62 bd
       0.19131197 0.03577973 0.12567703 -0.055370197
0000e0 19 73 b1 bd 33 9c 06 3e 40 ec a6 bc 64 b4 c0 bd
       -0.08664531 0.13145523 -0.020376325 -0.09409407
0000f0 24 4a 35 3d 6e 74 8a 3d 75 7f 23 3e 1c c0 7d bd
       0.04426016 0.067604885 0.1596659 -0.061950788
000100 ca 27 e7 3d 25 ef 32 be 7f bd 05 be 9e 50 e6 3d
       0.11286886 -0.17474039 -0.13060568 0.11245845
000110 42 26 3d be 06 4d c6 3d 70 37 14 bc 8f aa a6 bd
       -0.18471625 0.0968266 -0.00904642 -0.08138
000120 0f 04 0e be 46 f9 f7 3d b7 8e 09 3e 88 26 28 3d
       -0.13868736 0.12108092 0.13433348 0.04105237
000130 1e 84 b8 3d 4d 36 39 3e 6a 80 82 3d 58 b2 39 3d
       0.09009574 0.1808712 0.06372149 0.045336097
000140 b8 b3 e6 3c 4f f6 a9 bd 57 ad 8f bd 75 72 10 3e
       0.028161868 -0.08298933 -0.07015484 0.14106162
000150 88 7b 0c 3d 0d f4 26 3e ab f3 33 3e 1b b0 13 3e
       0.034297496 0.16304035 0.1757342 0.14422648
000160 e8 cc e3 3c 04 a8 b9 bd 00 cc 61 bb 6c 5e ca bd
       0.027807668 -0.090652496 -0.003445387 -0.09881291
000170 70 54 42 bc 40 15 62 bc 52 9b 9e 3d da 07 13 be
       -0.011860952 -0.013799012 0.07744469 -0.14358464
000180 96 d1 86 3d 65 f8 b8 bd 7c fe 59 bd 60 5f 02 bd
       0.06582944 -0.090317525 -0.05322121 -0.031829238
000190 a8 37 0e be e6 1c ee 3d 45 08 01 3e 54 ba 86 bd
       -0.13888419 0.11626606 0.12600811 -0.06578508
0001a0 8e 2d c8 3d bb 5d 06 be 49 52 3a 3e 45 c4 0b 3e
       0.09774314 -0.13121693 0.18195452 0.1364909
0001b0 a2 68 9e 3d f4 af 0d 3d e8 2d f4 bc 9f f5 3e 3e
       0.07734801 0.03459163 -0.029807046 0.18648385
0001c0 60 ef e2 bc 95 1d 33 3e 1a f1 df 3d c8 64 2a 3d
       -0.027702034 0.17491753 0.10934658 0.04160002
0001d0 6d b3 32 be 5f 02 3c 3e 48 dc 1e be 26 55 ef 3d
       -0.17451258 0.1836028 -0.15513718 0.11686163
0001e0 20 ac 7a bd b6 0d 13 be 68 51 eb 3c 98 68 64 bd
       -0.061199307 -0.14360699 0.028725341 -0.05576381
0001f0 63 d3 38 3e 77 03 1f be e0 2a ed bc 9a 48 b1 bd
       0.18049388 -0.15528665 -0.028951108 -0.08656426
000200 34 6b 1f bd b1 d0 34 be 49 2c 11 3e 74 f8 2f bd
       -0.038920596 -0.17657734 0.1417705 -0.042961553
000210 53 2b 1e 3e 1a 66 97 bd e2 64 02 be 3b b8 05 3e
       0.15446214 -0.07392521 -0.12733796 0.1305856
000220 05 24 9e bd c6 a4 39 be 46 f8 d4 3d 70 48 5d 3c
       -0.07721714 -0.18129262 0.10398917 0.01350604
000230 45 86 b1 bd 46 a7 ce 3d 30 af 57 3c 81 72 a9 bd
       -0.08668188 0.100904986 0.013164327 -0.08273793
000240 1e 33 9f 3d 40 cd f4 3b 91 20 23 3e 63 b0 37 be
       0.07773422 0.007470757 0.15930392 -0.1793838
000250 e7 bf c7 bd 4d 08 ea bd 54 b3 51 bd 05 f9 8d bd
       -0.09753399 -0.114273645 -0.05119641 -0.06932262
000260 8a d8 fe 3d a0 06 55 bd d5 6c f5 bd d2 18 dc 3d
       0.12443645 -0.05200827 -0.11983649 0.107469216
000270 3a 30 f8 3d f0 03 36 3c 60 16 20 3d f3 74 25 3e
       0.121185735 0.011109337 0.03908384 0.16157894
000280 e8 92 15 be 54 cd 41 3d 14 af 48 bd 34 c1 3e bd
       -0.14606822 0.047314957 -0.048995093 -0.04657097
000290 c6 4b 2b be d4 e2 27 bd 80 be 44 bb cb eb 8c bd
       -0.16728124 -0.040987805 -0.0030020773 -0.068809114
0002a0 93 02 20 3e fc 49 0c 3d 5b e5 1c be 4c f9 5d 3d
       0.15625982 0.034250244 -0.15321867 0.054192826
0002b0 30 93 36 be 00 1a cb bd 66 65 31 be d0 bc 9b bc
       -0.17829585 -0.099170685 -0.17323837 -0.019010931
0002c0 60 18 65 bd a4 7d 3c 3d 68 06 82 bc a8 8b 4a 3d
       -0.05593145 0.046018258 -0.015872195 0.049449593
0002d0 9a 2f a6 3d b1 9f 33 3e 7b 04 24 3e e7 5d 2d be
       0.08114548 0.17541386 0.16017334 -0.16930352
0002e0 d6 4b ef 3d bf a8 0f 3e 90 31 5e bd 34 78 25 be
       0.116843864 0.14029215 -0.054246485 -0.16159135
0002f0 a8 b1 19 bd c6 28 8c 3d c0 fd 5a bc 58 58 6d bd
       -0.03752294 0.068437144 -0.013366163 -0.05794558
000300 a8 0c f1 bc 7c fd 73 3d ef bc 99 bd e4 7b 09 3d
       -0.02942498 0.059567913 -0.07506739 0.033565417
000310 e3 3e 02 be 89 94 e3 bd 48 2f 23 bd 52 ed dd 3d
       -0.12719302 -0.11112315 -0.039840013 0.10836281
000320 be d8 dc 3d c8 2f 7f bd 97 61 a9 bd a2 3a 21 be
       0.10783528 -0.062301427 -0.08270567 -0.15745023
000330 90 aa 28 bd 8e 18 d0 3d bd 0a 43 3e fe cf 93 3d
       -0.041178286 0.101609334 0.19047065 0.07217406
000340 d8 dd ec bc b6 80 0d be c8 e7 67 bd 39 3f 37 3e
       -0.028914377 -0.1381863 -0.05661753 0.17895211
000350 7a a8 8f 3d f7 51 12 3e c8 ef 29 be e8 e8 c8 3c
       0.07014556 0.1428908 -0.16595376 0.02452512
000360 fc 6c 2f be f9 c9 28 3e ba e3 9d bd f8 dc 7c bd
       -0.17131418 0.16483296 -0.07709451 -0.06173417
000370 1a d2 e1 3d 54 e9 b7 bd 9e a4 c8 bd 61 e0 1f be
       0.11026402 -0.08980051 -0.09797023 -0.15612938
000380 19 83 44 3e 05 28 98 bd 6c e8 b1 bd e8 f6 0a 3d
       0.19190635 -0.07429508 -0.08686909 0.033926874
000390 8e 18 d9 3d 45 89 31 3e 79 6a 35 3e b4 e2 36 3d
       0.106003866 0.1733752 0.17716397 0.044649795
0003a0 6c e7 00 be 7d 58 17 3e 06 f3 8f 3d 00 52 26 be
       -0.1258828 0.1477985 0.07028775 -0.16242218
0003b0 20 0e 81 3b b7 1e 3d 3e 6c ca 00 bd 4d 80 12 be
       0.0039384514 0.18468748 -0.031443045 -0.14306755
0003c0 76 85 a4 3d 9f 03 26 be 63 c5 1c 3e dc 77 f3 bd
       0.08033268 -0.16212319 0.15309672 -0.11888096
0003d0 07 1d 13 3e 2d 3f 28 3e 58 ea ab bc 4a 12 2d be
       0.14366542 0.1643035 -0.020985767 -0.16901508
0003e0 c0 f2 db bc 98 ee 5f bd 40 9c b6 3b 2c 7e 1b be
       -0.02684915 -0.0546709 0.0055728257 -0.1518485
0003f0 80 1d b6 3a 01 b7 8e bd 26 be f7 3d 88 35 2d bd
       0.001389429 -0.06968499 0.12096815 -0.04228738

fc1.bias f4 [128]
000000 f8 f2 f8 3c b0 c3 f7 bc 60 f5 5f bc 93 a1 3b 3e
       0.030389294 -0.030244678 -0.013669342 0.18323354
000010 71 46 0b 3e 36 59 d3 3d f0 cd 51 bc 09 8e 0b 3e
       0.1360109 0.1031975 -0.012805447 0.13628401
000020 50 0c 64 bc 40 bf 3d 3c 37 c9 df bd 78 46 30 be
       -0.013918951 0.011581242 -0.109270506 -0.17214382
000030 17 1a 27 be 73 5f c2 bd 30 2c f4 3c 46 30 8e bd
       -0.16318546 -0.09490862 0.029806226 -0.06942801
000040 05 eb 33 be 00 7a ef 3a 22 16 d8 3d 80 3b 22 3d
       -0.17570122 0.0018270612 0.105510965 0.039607525
000050 49 70 bc bd 50 56 1e bc 14 e3 c6 bd 00 9c dd ba
       -0.09201104 -0.009664133 -0.097112805 -0.0016907454
000060 64 aa fa bd 44 2d 1b bd 0e 43 d6 bd 0b af 27 3e
       -0.12239531 -0.037884966 -0.104620084 0.16375367
000070 92 f7 b5 3d 80 0b 83 bc dc c0 72 bd 51 c4 2c 3e
       0.08885111 -0.015996695 -0.059265956 0.16871764
000080 88 69 94 bc 6f ce 2f 3e 00 4c 7c 3c 68 19 64 bd
       -0.018116727 0.17168592 0.015398979 -0.05568829
000090 b4 49 2e be 15 5f 26 3e 70 4c 0b be f3 13 b9 bd
       -0.17020303 0.16247208 -0.13603377 -0.09037008
0000a0 9a 90 94 3d d5 0e 15 3e 00 2e 2c 3c c8 a7 17 3d
       0.07254143 0.14556439 0.010509014 0.037025243
0000b0 30 43 36 bd 94 b4 ba bd d2 48 16 be 40 c5 23 3c
       -0.04449767 -0.09116474 -0.14676216 0.0099957585
0000c0 b8 c4 b7 3c 16 98 83 3d 60 17 8c bc 00 b6 cf 3a
       0.02243267 0.064254925 -0.01710099 0.0015847087
0000d0 75 4d 2c be 6a ec f7 3d 80 ec fc ba 14 de 1c 3d
       -0.16826423 0.12105639 -0.0019296557 0.038297728
0000e0 d4 31 7b bd ed d4 2e 3e 3c 1b 10 bd 27 6e 27 3e
       -0.061326817 0.17073412 -0.035182223 0.16350614
0000f0 cf 91 32 3e d3 11 2b 3e e0 13 6e 3c 12 e6 a9 bd
       0.17438434 0.16706018 0.014531106 -0.082958356
000100 3a 85 8a 3d ca db 9f 3d 5d e7 44 3e 4f 6b 21 3e
       0.06763692 0.07805593 0.19228883 0.15763591
000110 85 c1 b6 bd aa 44 9e 3d e4 de 6f 3d 61 f8 40 3e
       -0.0892363 0.077279404 0.058562174 0.18844749
000120 88 e6 a6 3c 5e 28 8d 3d 1f b6 23 be a4 e7 7a 3d
       0.020373598 0.06892465 -0.15987442 0.061256066
000130 d6 f6 db bd 7e ec a0 3d 3d ce cc bd cf 84 f2 bd
       -0.107404396 0.07857607 -0.10000274 -0.118417375
000140 d9 62 07 3e e0 8f e2 bc 2b dc 26 3e 81 69 40 3e
       0.13221301 -0.027656496 0.16294925 0.18790247
000150 18 1d 9d bd c2 ce 26 be 29 8b 13 3e 48 93 3f 3d
       -0.07671565 -0.1628981 0.14408554 0.046771318
000160 8a d4 f7 bd 0b c6 35 be 87 f2 23 be c5 2b 21 3e
       -0.121010855 -0.17751329 -0.16010486 0.15739353
000170 00 57 23 bd 80 37 1e 3c 9f 19 2c 3e c7 c6 43 3e
       -0.03987789 0.009656787 0.16806649 0.19118796
000180 50 a6 f3 bc ae 02 cf bd 5a d9 fe bd 0e bc 8f 3d
       -0.02974239 -0.10107933 -0.124438 0.070182905
000190 a6 31 a8 3d ab a4 07 3e cc 1f 87 bd a6 5b 2a be
       0.08212595 0.1324641 -0.06597862 -0.16636524
0001a0 7a 8a e5 3d 40 f3 87 3c 98 68 44 be 09 b0 41 3e
       0.11208053 0.016595483 -0.19180524 0.18914808
0001b0 10 f1 38 bc 16 6d d7 bd 7b 14 33 be 2e f4 34 be
       -0.0112879425 -0.10518853 -0.17488281 -0.17671272
0001c0 e4 70 26 3d 30 43 16 bc 03 72 1e 3e d3 85 02 3e
       0.040635005 -0.009171292 0.1547318 0.12746362
0001d0 cc 83 56 bd 90 24 7e 3c 53 86 ae bd 41 a1 18 3e
       -0.052371785 0.015511647 -0.08521714 0.14905263
0001e0 88 25 ec 3c 68 aa 3e be 60 f7 1f bc c4 bd 3c be
       0.02882649 -0.18619692 -0.009763569 -0.18431765
0001f0 9a a9 b8 3d 8c 62 51 3d d0 88 f8 3c 80 f3 1b 3c
       0.09016724 0.051119372 0.030338675 0.009518504

fc2.weight f4 [128, 128]
000000 59 b9 3c bd 9e 25 03 bd 60 b7 26 3b b6 57 1c 3d
       -0.0460752 -0.032018296 0.002543889 0.038169585
000010 d0 c6 3a 3c 68 5a 12 3d 91 95 a0 3d 90 7a b3 bb
       0.01139994 0.03573075 0.078410275 -0.005477257
000020 7c 50 e7 3c 20 8e a8 3c d8 79 00 3c 68 54 0a bc
       0.02823662 0.020575583 0.00784155 -0.008442976
000030 92 c3 e6 bc c4 e2 ef bc 65 e6 11 bd 71 cc 4c bd
       -0.028169427 -0.029282935 -0.035620112 -0.049999658
000040 53 54 9f 3d f2 b2 51 3d 36 33 36 3d f3 e3 79 bd
       0.077797554 0.051196046 0.044482432 -0.061008405
000050 28 ff 99 bd 6f 60 8f 3d bc b9 d0 3c e0 0d b1 3b
       -0.0751937 0.07000815 0.02547919 0.0054032654
000060 83 f8 af bd 00 44 e7 3a 7f 0c 0d bd 9d 26 1c bd
       -0.08592322 0.0017644167 -0.034435745 -0.038122762
000070 3c a6 98 3c b2 f1 32 3d 28 0a 79 bc e0 c5 07 3b
       0.018633954 0.04368753 -0.015200175 0.0020717308
000080 82 29 52 3d 06 4f 1c 3d d2 ad 56 3d d6 95 74 3d
       0.051309116 0.0381613 0.05241186 0.059713207
000090 45 55 8b 3d ea eb 63 3d 3a 53 6c 3d 8d cf 97 bd
       0.06803373 0.055644907 0.05769656 -0.07412634
0000a0 79 7d 93 3d fe 60 4f bd f1 c6 3f bd 50 35 51 3c
       0.072016664 -0.05062961 -0.046820585 0.012769058
0000b0 f2 46 3a 3d 5a 4f 06 3d 64 90 ee bc 7c 5d ab 3c
       0.045477815 0.03279052 -0.029121585 0.0209186
0000c0 a4 0f f1 3c c2 69 6e 3d ff 59 a9 3d 40 02 22 3c
       0.029426403 0.058206327 0.082691185 0.009888232
0000d0 20 eb 84 3c ac d0 ad bd 72 18 a1 bd 84 45 e7 bc
       0.016225398 -0.084870666 -0.07865991 -0.02823139
0000e0 3e b4 26 3d 8e a0 dc bc 7e f9 84 bd be 7c 3d 3d
       0.040699236 -0.026932027 -0.06492899 0.04626154
0000f0 e0 f0 4b bd f0 4f b0 bb 60 a9 27 bc aa 4c f7 bc
       -0.049790263 -0.005380623 -0.010233253 -0.030187923
000100 ed 6d 9b 3d 68 1f 6c bc c2 64 33 3d 8e dc 5b 3d
       0.07589326 -0.014411785 0.043797262 0.053677134
000110 c4 d3 82 bc e3 53 53 bd 8c 04 3a bd 28 72 59 bc
       -0.015970118 -0.051593672 -0.045414492 -0.013271846
000120 00 a7 e1 bb 0f 7f 78 bd e0 ba cf 3b 73 ba 91 bd
       -0.006886363 -0.060668048 0.006339416 -0.071156405
000130 3d ce 75 bd d6 20 52 3d e8 47 ef bc cf 56 89 3d
       -0.060011137 0.051300846 -0.029209092 0.067060106
000140 9a 80 62 bd be 9e f9 bc b1 1e 8b bd 7b ec 90 3d
       -0.055298425 -0.030471202 -0.06792963 0.07076355
000150 48 db 25 3c b9 be 69 bd cc 5a b8 3c 8d b6 60 bd
       0.0101230815 -0.057066653 0.022504233 -0.054861594
000160 27 03 8d 3d 08 6b 84 bd 79 07 36 bd 04 37 a6 3c
       0.06885367 -0.06465727 -0.04444072 0.020289905
000170 41 99 a4 bd d7 21 80 3d 60 91 5b 3b 88 05 18 bc
       -0.08037043 0.062564544 0.0033503398 -0.0092786625
000180 e2 be 3e bd 1d ec 9a 3d 90 1b 8c bb 6e f7 2c 3d
       -0.04656876 0.07564566 -0.0042757466 0.042228155
000190 80 4a e0 3c a2 4f 63 3d 52 ba 17 3d 40 ee 43 bb
       0.027379274 0.055495866 0.037042923 -0.0029896647
0001a0 1c e0 a8 bd ea 1f 9f bd 70 74 9e 3b e5 a7 76 bd
       -0.082458705 -0.07769759 0.004835658 -0.06021871
0001b0 30 da 1a bc 4f 48 9d 3d 18 c9 bc 3c 60 ef 16 bd
       -0.009451434 0.076798074 0.023045108 -0.03684938
0001c0 67 17 52 bd e3 3d b3 3d cc 05 aa 3c 20 8c 0e bd
       -0.05129185 0.08752038 0.020754717 -0.034801602
0001d0 32 a2 12 3d 19 5d 69 bd f4 f5 54 bd c3 5e 1c bd
       0.035799213 -0.05697355 -0.05199237 -0.03817631
0001e0 aa 9c 6b 3d 00 4e a1 bb 86 a1 e0 bc cd 02 8e bd
       0.057522453 -0.0049226284 -0.02742077 -0.06934128
0001f0 50 8e b0 bc fc 1b b2 3c 70 23 6a 3c 73 a0 a3 3d
       -0.021552235 0.02174186 0.0142906755 0.07989588
000200 06 56 63 bd d2 ac 0f bd 1d 9e 89 3d d4 5a e2 3c
       -0.05550196 -0.035076924 0.06719611 0.0276312
000210 5b 62 92 3d 85 27 11 bd 80 5a 55 bb b3 f6 53 bd
       0.07147666 -0.03543808 -0.0032555163 -0.051748943
000220 0c a5 f7 3c 79 11 8f 3d ec fd 9f 3c 53 58 8b 3d
       0.030230068 0.069857545 0.01953026 0.06803956
000230 00 81 a1 bb 6e c7 18 3d 88 aa 12 3d f2 3c 76 3d
       -0.004928708 0.037299566 0.035807163 0.060116716
000240 90 28 9e 3b ec 5f 14 3d 16 9b 11 3d dc a4 88 bc
       0.004826613 0.03622429 0.035548292 -0.016680174
000250 f6 92 33 3d a6 78 85 bd d6 ca 72 3d 25 e4 98 3d
       0.043841325 -0.065171525 0.05927547 0.0746539
000260 97 20 25 bd dc 30 f3 bc ca a2 01 3d 78 97 4b bd
       -0.040314283 -0.029686384 0.03164939 -0.049705
000270 54 5e 6a bd 54 c0 a1 bd a9 71 3f bd e7 17 0a bd
       -0.057218865 -0.07898012 -0.046739254 -0.0337142
000280 14 c5 21 bd c3 d5 a9 3d 3b a8 38 bd d4 e7 97 bc
       -0.03949459 0.08292725 -0.045082312 -0.018543161
000290 2c 61 8a bc cf a7 8a 3d 8b ff 85 3d d4 f9 03 3d
       -0.016892038 0.06770288 0.065428816 0.032220677
0002a0 60 03 06 3d 20 00 ad 3c e2 ff 97 bd 70 03 95 3c
       0.032718062 0.021118224 -0.07421853 0.018190116
0002b0 40 fb 7f 3b 66 ed 0d 3d 54 62 a8 3c d8 dd 07 3d
       0.0039059669 0.03465023 0.020554699 0.03317055
0002c0 aa 04 74 bd 60 04 62 3b 82 6d 33 3d 6b af 89 3d
       -0.05957476 0.003448747 0.043805607 0.067229114
0002d0 16 c8 59 bd 68 31 fc 3c c8 03 60 3c ce a3 27 3d
       -0.053169332 0.030785277 0.0136727765 0.0409277
0002e0 df 36 2e bd 20 45 77 3c 94 e2 f2 3c 5d 36 96 3d
       -0.042532798 0.015092164 0.029649056 0.07334588
0002f0 60 60 40 bb bd 86 8f bd 18 8c 9f 3c 1e 79 9a bd
       -0.002935432 -0.07008121 0.019475982 -0.075426325
000300 42 a0 07 3d 28 0f 1b 3c 15 83 a6 3d 51 43 95 3d
       0.033111818 0.009464063 0.08130471 0.0728823
000310 70 31 96 3b 42 f8 37 3d e8 92 2b bc e0 58 8b bc
       0.00458353 0.04491449 -0.010472037 -0.017010152
000320 00 26 40 bc 0a d7 34 3d 26 94 02 3d 9e 7e 2e 3d
       -0.01172781 0.04415039 0.031879567 0.04260122
000330 67 08 47 bd e8 0d 51 3c ed 7e a9 3d 46 0b 7f 3d
       -0.048591997 0.012759663 0.08276162 0.06226661
000340 60 72 9a bb 55 57 aa 3d 32 1b 6b 3d b7 06 3e bd
       -0.0047133416 0.083174385 0.057398982 -0.046393123
000350 00 4c ce ba 72 98 5a 3d 6a 60 6b 3d 52 00 2f 3d
       -0.0015739202 0.05336804 0.057464994 0.042724915
000360 08 c2 fc 3c b8 80 0e 3d d0 12 81 3c e2 dc 9d bd
       0.03085424 0.034790725 0.01575604 -0.07708146
000370 85 ef a3 3d 6b f2 8e 3d c2 f2 35 3d f8 04 2f bc
       0.08004669 0.06979831 0.044420965 -0.010682337
000380 57 54 85 3d 68 48 e4 bc 86 a9 e9 bc 72 5c 15 bd
       0.06510227 -0.027866557 -0.028523218 -0.036465116
000390 71 bf 8c 3d 08 80 6f bc 22 45 6c 3d d2 5a 19 3d
       0.06872452 -0.014617927 0.057683118 0.03744013
0003a0 68 a4 45 3c 44 b5 04 bd 00 92 32 b9 24 3d be bc
       0.012063123 -0.03239943 -0.00017029792 -0.023222513
0003b0 2f e2 a7 3d 0c c8 db 3c c6 d8 4d 3d 57 04 8e 3d
       0.08197438 0.026828788 0.05025556 0.069344215
0003c0 72 80 21 3d 70 8b f1 3b 00 3a 05 3d ce aa 90 bd
       0.039429136 0.0073713586 0.032526016 -0.070638284
0003d0 cd 3d 8f bd b9 68 0a bd 43 8a a3 bd 30 12 a6 bd
       -0.069942094 -0.033791278 -0.07985356 -0.08108938
0003e0 18 ea 20 3c 52 0d e8 bc be ae 58 3d 68 a2 aa bc
       0.009821437 -0.028326664 0.052901022 -0.020829394
0003f0 82 cf 2a 3d 54 ea 1a bd 80 4e 53 3a 9c 1d d3 bc
       0.0417018 -0.03782113 0.00080607086 -0.025770955

fc2.bias f4 [128]
000000 50 ac e7 3b 9c 37 3f bd 52 4f 63 3d 10 c4 6d bc
       0.007070102 -0.046683893 0.055495568 -0.014512077
000010 21 35 92 bd 0c bf df 3c 2c 14 2f bd 10 7e 7d 3c
       -0.0713904 0.027312778 -0.042743847 0.01547195
000020 40 e3 65 bb 84 fa ac bc 99 19 3e bd e8 e3 62 bd
       -0.0035078079 -0.021115549 -0.04641113 -0.05539313
000030 41 fa 86 3d 2e b6 ea bc e5 9b 9a 3d 0a 0c 3e bd
       0.06590701 -0.028651323 0.07549266 -0.0463982
000040 19 f2 9f 3d 0c f6 ed bc 46 f6 66 3d 05 4c 0e bd
       0.07809848 -0.029047988 0.05638721 -0.034740467
000050 57 a5 9a 3d 58 4f 3c 3c 04 9a 5b bd 3c ef 07 3d
       0.07551067 0.011493526 -0.053613678 0.033187136
000060 88 53 4f 3c cd d5 98 3d 80 72 1f 3a 4b 65 81 3d
       0.012654193 0.07462654 0.00060824305 0.06318148
000070 70 20 0b bc d8 cb 8e bd 80 85 32 3c d2 20 03 bd
       -0.00849162 -0.06972474 0.010896087 -0.03201372
000080 49 d1 45 bd 88 ee ba bc 9f ca a5 3d 97 60 94 3d
       -0.048295293 -0.022818819 0.080952875 0.072449856
000090 de ce 26 3d 88 4f b1 bc 40 e5 c6 3a 9b 98 93 3d
       0.040724628 -0.021644369 0.0015174523 0.072068416
0000a0 10 41 4d bc d8 3f 78 3c 8a dd a1 bd 60 75 e2 bb
       -0.012527719 0.01515194 -0.07903583 -0.006910965
0000b0 80 24 08 ba 20 f0 2d bd c7 b5 68 bd 90 19 6a bd
       -0.0005193427 -0.04246533 -0.05681398 -0.057153285
0000c0 a6 24 70 3d 23 01 55 bd 90 39 68 3c 95 47 16 bd
       0.0586287 -0.052003037 0.01417388 -0.03668936
0000d0 dc 43 ce 3c d2 27 8d bd e7 c2 3c bd b4 d0 af bd
       0.025178842 -0.06892361 -0.04608431 -0.08584729
0000e0 62 b0 19 3d 11 b7 a7 3d 76 8a 81 bd e0 82 24 bc
       0.037521727 0.08189214 -0.063252375 -0.010040969
0000f0 d2 12 39 3d 7d 02 a9 bd a2 97 3e 3d b6 da 92 bd
       0.045183964 -0.08252428 0.046531327 -0.07170622
000100 40 50 cb 3c 40 69 48 3b ac a2 f1 3c 4c 9d 92 bd
       0.02481854 0.0030580312 0.029496513 -0.07158908
000110 40 00 e9 ba 69 6a 93 bd 8b e0 9e bd 74 b9 34 bd
       -0.0017776564 -0.071980305 -0.07757672 -0.044122174
000120 b1 59 1a bd a8 6e 3d 3c 5e ab 37 3d 2c 52 00 3d
       -0.037683193 0.011562027 0.044841163 0.031328365
000130 64 0a ac bc 9a 0f 19 3d a4 e4 06 bd 5e bf 77 bd
       -0.021001048 0.037368394 -0.032932892 -0.060485236
000140 5f 16 a4 3d 9a 90 23 3d 88 73 77 3c 90 10 1b 3c
       0.080120794 0.039932825 0.015103228 0.009464398
000150 ec b2 04 3d 7b 40 b4 3d b3 cf b2 bd 56 2a e4 bc
       0.032397196 0.08801361 -0.08731022 -0.027852219
000160 60 f1 99 bd 23 44 99 3d 25 7b 05 bd ea 33 77 bd
       -0.07516742 0.07483699 -0.032588143 -0.060352243
000170 a5 79 1c bd a8 83 8f bc 0f a7 b2 3d 00 f9 be 3a
       -0.038201947 -0.017518833 0.0872327 0.0014570057
000180 74 e7 c0 3c 19 3b ad bd 5e 2b 44 3d d6 98 ed bc
       0.023547865 -0.084585376 0.04789292 -0.029003542
000190 2a 0e 2f 3d d4 3e 8d 3c e8 bd 5a 3c a0 19 9e 3b
       0.042738117 0.017241873 0.013350941 0.004824832
0001a0 60 74 96 3b b5 a0 97 3d 7a 33 88 bd 48 8e b1 bd
       0.0045915097 0.07403699 -0.066504434 -0.08669716
0001b0 32 9d 7b 3d 2a 1b 60 3d fe 07 ad bd 33 f9 a6 3d
       0.06142921 0.054713406 -0.0844879 0.08153
0001c0 d2 fa ab bd 6e 2d 30 3d 4a bd 56 3d 2b da ab bd
       -0.083974496 0.043012075 0.052426614 -0.083912216
0001d0 b4 b4 ee 3c d0 66 a3 bd e8 ea 81 bd 70 ec 97 bc
       0.0291389 -0.07978594 -0.06343633 -0.01854536
0001e0 26 e0 61 3d 54 81 a5 bd c0 3b a6 3a 00 de 4d 3a
       0.055145405 -0.08081308 0.0012682602 0.000785321
0001f0 e6 31 1f bd 40 eb f3 3c 50 08 93 3c af ab 9d 3d
       -0.038865946 0.029775262 0.0179483 0.07698762

fc3.weight f4 [2, 128]
000000 f3 ca 98 3d 1f 8b 85 3d 53 31 b0 bd f9 98 ab 3d
       0.074605845 0.06520676 -0.08603158 0.083787866
000010 4e 00 4d bd 8a f0 78 bd 50 0d 36 bc 80 49 30 3a
       -0.05004912 -0.06077627 -0.011111572 0.00067248195
000020 04 ec f8 3c 41 4e 81 3d a8 55 ab 3c 44 1a 90 3c
       0.030385979 0.06313754 0.020914868 0.01759065
000030 23 75 8a 3d 69 98 83 3d ef ca a0 3d 6d 28 ab 3d
       0.06760623 0.06425554 0.078512065 0.0835732
000040 98 a4 50 3c 20 0e f9 bb eb 84 54 bd 40 7d a3 bd
       0.012734555 -0.007600561 -0.051884573 -0.07982874
000050 2d 25 9a bd 72 9a 34 3d 1e e1 79 3d 22 aa 38 bd
       -0.07526622 0.044092603 0.061005704 -0.045084126
000060 e0 28 3b 3b 74 1f 9a bc f2 80 36 3d c8 4c a1 3c
       0.00285583 -0.018813826 0.044556566 0.019689932
000070 a3 b3 b0 bd d8 88 23 bc 5a 6e 74 bd 06 32 4b 3d
       -0.08628013 -0.009981357 -0.059675552 0.049608253
000080 10 f1 9b bd 2f e9 04 bd c6 30 38 3d e0 43 dc 3b
       -0.076143384 -0.032448944 0.04496839 0.0067219585
000090 80 b7 f6 3a 60 07 7c bb 01 14 29 bd 0e ce af bd
       0.0018822998 -0.0038456544 -0.041278843 -0.08584224
0000a0 d8 69 af bd a2 98 7c 3d 96 d4 90 bd 45 11 61 bd
       -0.0856511 0.061669 -0.070717975 -0.05494811
0000b0 0f 62 90 3d 80 41 24 3a ba a8 5c bd 9d 0b 2a bd
       0.07049953 0.0006265864 -0.053871848 -0.04151498
0000c0 29 41 51 bd b2 47 41 bd 9c f5 b2 3c 04 c8 e9 3c
       -0.051087532 -0.047187515 0.021845631 0.028537758
0000d0 40 70 22 bb 9e 72 7d 3d f4 b6 e2 3c aa 62 92 bd
       -0.0024786144 0.061876886 0.02767513 -0.07147725
0000e0 28 2c 43 bc 49 84 78 bd bd b5 94 bd 11 ae a8 3d
       -0.011912383 -0.060673032 -0.07261226 0.082363255
0000f0 ec 38 a5 bc 00 2e 87 bd 4d cb 3c bd ae 08 35 3d
       -0.020168744 -0.06600571 -0.04609232 0.04419773
000100 50 49 9c 3c 9d 7d 93 bd 48 66 02 3c ac cb b4 3c
       0.019077927 -0.07201693 0.007958956 0.022069775
000110 1b 91 9d bd ca 97 10 3d 7c 9a 8e 3c 03 7c 69 bd
       -0.07693692 0.035301007 0.017407648 -0.057003032
000120 5f ee a5 3d 05 57 ae 3d 86 24 63 3d 02 d6 56 3d
       0.08102106 0.085126914 0.055454753 0.052450188
000130 f4 7e 04 3d b0 60 b1 3c 15 c2 93 3d 38 b7 37 bc
       0.032347634 0.02165255 0.072147526 -0.011213116
000140 a4 87 c9 bc ba 4d 62 3d 30 0d b5 3c c0 3f c8 3a
       -0.024600811 0.055249907 0.022101015 0.0015277788
000150 8a 42 40 3d f0 5d 09 bc 0d 71 3d bd fe 4e 72 3d
       0.046938457 -0.008384213 -0.04625039 0.059157364
000160 10 87 ef bc 60 20 3e 3c bd 2f 83 3d 9d 45 a2 3d
       -0.029239208 0.0116043985 0.0640559 0.07923434
000170 67 df 98 3d 4e 27 65 3d 94 55 f6 3c 11 5b 87 3d
       0.074644856 0.055945687 0.030070104 0.066091664
000180 60 c6 f4 bb ee 89 4e 3d a8 97 24 3c 56 04 65 3d
       -0.007469937 0.05042451 0.010045923 0.05591234
000190 10 72 91 bd ff 72 a9 bd 27 0d 9b 3d 8e 9d 5e 3d
       -0.07101834 -0.08273887 0.07570868 0.054349475
0001a0 00 b2 0a 3a 90 92 2e bc 5c 44 88 bc 82 c3 4f 3d
       0.00052908063 -0.01065506 -0.016634159 0.05072356
0001b0 4e f0 71 3d f2 e7 0c 3d cb eb b0 3d 26 d4 8c bd
       0.059067063 0.034400888 0.08638724 -0.068764016
0001c0 40 e6 d7 ba d7 ea 8b 3d 20 92 98 bc 02 57 6c bd
       -0.0016471818 0.068319015 -0.018624365 -0.057700165
0001d0 c1 45 a7 3d d0 a0 42 bc 00 0f 86 b9 82 ef 7c 3d
       0.081676014 -0.011879161 -0.00025569648 0.06175185
0001e0 ab 96 83 3d 69 c2 82 3d 80 ce 47 3c 14 1d 9c bc
       0.06425222 0.06384737 0.0121952295 -0.019056834
0001f0 88 f9 26 bc a0 ea f8 3c 42 07 39 bd 5e f5 7f 3d
       -0.010191329 0.030385315 -0.045172937 0.06248986
000200 e1 9a 86 3d 02 ff 32 3d 20 da 34 bc a6 c6 09 3d
       0.065725096 0.043700226 -0.011038333 0.03363671
000210 4c 49 b2 3c 88 8e bc bc 11 cd 8d 3d fc 34 84 bc
       0.021763466 -0.023017183 0.06923879 -0.016138546
000220 df 1a 98 bd cc d7 c7 bc 3d d0 a0 bd 53 17 83 3d
       -0.07427 -0.024394892 -0.07852218 0.06400933
000230 8e 42 45 3d 90 80 ea 3c 60 1a 00 bb 74 0c 24 bd
       0.048159175 0.028625757 -0.001954697 -0.04005094
000240 98 75 25 bc 3c 32 96 bc 9a b4 24 3d 66 97 6f 3d
       -0.010098837 -0.0183345 0.040211298 0.058493994
000250 a5 cc b2 3d c0 c7 af bd fe fc 10 3d c1 45 a9 3d
       0.08730439 -0.08583021 0.035397522 0.082652576
000260 48 85 37 3c ad 4d 32 bd 86 ed 4b 3d 6e d4 2b 3d
       0.01120121 -0.04353111 0.049787067 0.041950636
000270 22 4b 04 3d 87 fe 28 bd 90 ce 5f bd 02 cd a4 bd
       0.032298215 -0.04125836 -0.054640353 -0.08046915
000280 62 04 6a bd dd e6 6f bd e1 fb b3 bd f8 bb 74 bc
       -0.057133086 -0.058569778 -0.087882765 -0.014937393
000290 d8 69 48 3c c7 4c 8a 3d 76 5c 33 3d b7 bd 0d bd
       0.012232266 0.06752925 0.04378935 -0.034604754
0002a0 ee 15 88 bd 91 8f 96 bd db 35 36 bd b3 1c 27 bd
       -0.06644808 -0.07351602 -0.044484954 -0.040798854
0002b0 88 30 9e bc 68 9e b0 bd 06 a3 4e bd 6e 91 73 3d
       -0.01931025 -0.086239636 -0.05044844 0.059464864
0002c0 4a 13 33 bd dc dd f7 3c ca 50 67 3d d4 62 a4 bd
       -0.043719567 0.030257158 0.05647353 -0.080266625
0002d0 25 a3 af 3d 90 9e 98 3b a1 48 3a bd 42 b9 28 3d
       0.08576039 0.004657574 -0.04547942 0.0411923
0002e0 88 8a 36 bc 6b 01 2c bd 4e 22 24 bd 10 12 af bc
       -0.011141427 -0.04199354 -0.040071778 -0.021370918
0002f0 a0 03 4e bd 22 c7 57 3d 98 c3 a3 bc 6a e9 33 3d
       -0.050296426 0.052680142 -0.019990727 0.043923773
000300 18 3b 4b 3c 10 c8 72 bc d0 34 e8 bb 60 2e 2e 3b
       0.012404226 -0.014818206 -0.007086374 0.0026577935
000310 40 37 b9 bb eb 07 a0 3d 28 ca 88 3c 17 6d a3 3d
       -0.0056523383 0.0781401 0.016697958 0.079797916
000320 9f d7 2f bd 20 64 b9 bc 68 6d c9 bc 39 d9 8c 3d
       -0.04293024 -0.022630751 -0.024588302 0.068773694
000330 60 a5 8d bd a8 f3 95 3c fe a1 48 3d 70 7b d1 bb
       -0.069163084 0.01830466 0.048982613 -0.0063928887
000340 a3 a7 1a bd a0 e3 1e 3b b0 d6 ba 3c b3 85 9b 3d
       -0.037757527 0.0024244562 0.02280745 0.075938605
000350 61 63 2d bd 79 9c b0 3d 4a 56 31 3d 04 0b d9 3c
       -0.042331103 0.08623595 0.043295182 0.02649451
000360 30 03 30 bc d6 97 2b bd 38 20 18 3c e2 20 5e 3d
       -0.010742947 -0.04189285 0.009285025 0.05423058
000370 e8 b0 1b bc 7e 12 78 3d 93 95 37 bd 63 45 61 bd
       -0.009502627 0.06056451 -0.04482038 -0.054997813
000380 ac e6 cd bc d5 77 8b 3d de 72 25 3d 8c d0 b7 bc
       -0.025134407 0.068099655 0.04039275 -0.02243831
000390 b2 cc 64 3d f6 79 2b bd ac f0 99 bc 76 72 87 bd
       0.055859275 -0.041864358 -0.01879152 -0.066136286
0003a0 ee f2 68 3d 26 ff 08 3d 88 c6 b4 bd 9c ef ff bc
       0.0568723 0.033446454 -0.08826929 -0.031242184
0003b0 db e8 98 bd a8 6e 08 3c 98 36 3b 3c 16 bd 2a 3d
       -0.07466289 0.008327164 0.01142659 0.041684233
0003c0 86 0d 40 3d 6a 29 76 3d 20 81 9e bb 06 a2 40 bd
       0.046887897 0.06009809 -0.0048371702 -0.047029518
0003d0 70 00 d7 bc f7 4f 98 bd 0e 97 5b bd 40 f3 e6 bc
       -0.026245326 -0.07437127 -0.053610854 -0.028192163
0003e0 e8 62 9a bd 38 da f6 bc 80 4c d5 ba 90 34 5a bc
       -0.07538396 -0.030133352 -0.0016273409 -0.013318196
0003f0 e7 8c 9a 3d f7 05 9f 3d 14 a9 93 bd 50 7e 70 3c
       0.07546406 0.077648096 -0.072099835 0.014678553

fc3.bias f4 [2]
000000 74 3d a4 bc 60 ab 5a bc
       -0.020048834 -0.013346523

fc1.weight f4 [128, 27]
000000 d1 1c 38 3e e6 c9 d0 3d 41 6b 1f 3e ca f4 e7 bd
       0.17979743 0.10194759 0.15568258 -0.11325987
000010 70 41 bc bc 5e 99 1d be 47 3a 00 be 59 d9 8f bd
       -0.022980422 -0.15390536 -0.12522231 -0.07023878
000020 8c b6 0f 3d 8e bf 06 be 38 13 c9 3c 36 14 c7 3d
       0.0350862 -0.1315901 0.024545297 0.09720652
000030 9a 31 c6 bd e7 44 28 be 80 27 7c bc b0 83 f9 bc
       -0.096774295 -0.16432534 -0.015390277 -0.030458301
000040 1d 47 41 3e 11 c6 0c be 01 63 1a 3e d4 65 f8 bd
       0.18874784 -0.13747431 0.1507683 -0.12128797
000050 e0 3d 05 3c 87 2a fb bd a0 44 f5 3c 81 e5 29 3e
       0.008132428 -0.12263971 0.02993995 0.16591455
000060 da 34 ba 3d f4 52 d9 bd 9f 14 39 3e 37 ce c9 bd
       0.09092112 -0.10611525 0.18074273 -0.098537855
000070 7a 32 d5 3d cc fd 03 be a8 86 b8 bc bf 97 00 3e
       0.10410018 -0.12889785 -0.022525147 0.12557887
000080 e8 46 87 3c 78 d3 81 bc f8 44 9d bd 90 2c 16 be
       0.016513303 -0.015847906 -0.0767917 -0.14665437
000090 48 54 fa 3c 96 32 83 3d 77 a7 28 3e 1e 03 85 3d
       0.030557767 0.06406133 0.16470133 0.06494735
0000a0 ee f6 cf 3d 78 bc 15 be 9b 81 bc bd a8 e7 0f be
       0.1015452 -0.14622676 -0.09204408 -0.14053214
0000b0 28 13 cb 3c ce 66 87 3d b9 ca 1c 3e 58 79 dd bc
       0.024789408 0.06611405 0.15311708 -0.0270354
0000c0 00 ce cb bc e1 8c 1f be 04 06 40 bd 07 9a 1d 3e
       -0.024878502 -0.15581085 -0.046880737 0.15390788
0000d0 49 e7 43 3e c4 8d 12 3d 7b b1 00 3e dc cb 62 bd
       0.19131197 0.03577973 0.12567703 -0.055370197
0000e0 19 73 b1 bd 33 9c 06 3e 40 ec a6 bc 64 b4 c0 bd
       -0.08664531 0.13145523 -0.020376325 -0.09409407
0000f0 24 4a 35 3d 6e 74 8a 3d 75 7f 23 3e 1c c0 7d bd
       0.04426016 0.067604885 0.1596659 -0.061950788
000100 ca 27 e7 3d 25 ef 32 be 7f bd 05 be 9e 50 e6 3d
       0.11286886 -0.17474039 -0.13060568 0.11245845
000110 42 26 3d be 06 4d c6 3d 70 37 14 bc 8f aa a6 bd
       -0.18471625 0.0968266 -0.00904642 -0.08138
000120 0f 04 0e be 46 f9 f7 3d b7 8e 09 3e 88 26 28 3d
       -0.13868736 0.12108092 0.13433348 0.04105237
000130 1e 84 b8 3d 4d 36 39 3e 6a 80 82 3d 58 b2 39 3d
       0.09009574 0.1808712 0.06372149 0.045336097
000140 b8 b3 e6 3c 4f f6 a9 bd 57 ad 8f bd 75 72 10 3e
       0.028161868 -0.08298933 -0.07015484 0.14106162
000150 88 7b 0c 3d 0d f4 26 3e ab f3 33 3e 1b b0 13 3e
       0.034297496 0.16304035 0.1757342 0.14422648
000160 e8 cc e3 3c 04 a8 b9 bd 00 cc 61 bb 6c 5e ca bd
       0.027807668 -0.090652496 -0.003445387 -0.09881291
000170 70 54 42 bc 40 15 62 bc 52 9b 9e 3d da 07 13 be
       -0.011860952 -0.013799012 0.07744469 -0.14358464
000180 96 d1 86 3d 65 f8 b8 bd 7c fe 59 bd 60 5f 02 bd
       0.06582944 -0.090317525 -0.05322121 -0.031829238
000190 a8 37 0e be e6 1c ee 3d 45 08 01 3e 54 ba 86 bd
       -0.13888419 0.11626606 0.12600811 -0.06578508
0001a0 8e 2d c8 3d bb 5d 06 be 49 52 3a 3e 45 c4 0b 3e
       0.09774314 -0.13121693 0.18195452 0.1364909
0001b0 a2 68 9e 3d f4 af 0d 3d e8 2d f4 bc 9f f5 3e 3e
       0.07734801 0.03459163 -0.029807046 0.18648385
0001c0 60 ef e2 bc 95 1d 33 3e 1a f1 df 3d c8 64 2a 3d
       -0.027702034 0.17491753 0.10934658 0.04160002
0001d0 6d b3 32 be 5f 02 3c 3e 48 dc 1e be 26 55 ef 3d
       -0.17451258 0.1836028 -0.15513718 0.11686163
0001e0 20 ac 7a bd b6 0d 13 be 68 51 eb 3c 98 68 64 bd
       -0.061199307 -0.14360699 0.028725341 -0.05576381
0001f0 63 d3 38 3e 77 03 1f be e0 2a ed bc 9a 48 b1 bd
       0.18049388 -0.15528665 -0.028951108 -0.08656426
000200 34 6b 1f bd b1 d0 34 be 49 2c 11 3e 74 f8 2f bd
       -0.038920596 -0.17657734 0.1417705 -0.042961553
000210 53 2b 1e 3e 1a 66 97 bd e2 64 02 be 3b b8 05 3e
       0.15446214 -0.07392521 -0.12733796 0.1305856
000220 05 24 9e bd c6 a4 39 be 46 f8 d4 3d 70 48 5d 3c
       -0.07721714 -0.18129262 0.10398917 0.01350604
000230 45 86 b1 bd 46 a7 ce 3d 30 af 57 3c 81 72 a9 bd
       -0.08668188 0.100904986 0.013164327 -0.08273793
000240 1e 33 9f 3d 40 cd f4 3b 91 20 23 3e 63 b0 37 be
       0.07773422 0.007470757 0.15930392 -0.1793838
000250 e7 bf c7 bd 4d 08 ea bd 54 b3 51 bd 05 f9 8d bd
       -0.09753399 -0.114273645 -0.05119641 -0.06932262
000260 8a d8 fe 3d a0 06 55 bd d5 6c f5 bd d2 18 dc 3d
       0.12443645 -0.05200827 -0.11983649 0.107469216
000270 3a 30 f8 3d f0 03 36 3c 60 16 20 3d f3 74 25 3e
       0.121185735 0.011109337 0.03908384 0.16157894
000280 e8 92 15 be 54 cd 41 3d 14 af 48 bd 34 c1 3e bd
       -0.14606822 0.047314957 -0.048995093 -0.04657097
000290 c6 4b 2b be d4 e2 27 bd 80 be 44 bb cb eb 8c bd
       -0.16728124 -0.040987805 -0.0030020773 -0.068809114
0002a0 93 02 20 3e fc 49 0c 3d 5b e5 1c be 4c f9 5d 3d
       0.15625982 0.034250244 -0.15321867 0.054192826
0002b0 30 93 36 be 00 1a cb bd 66 65 31 be d0 bc 9b bc
       -0.17829585 -0.099170685 -0.17323837 -0.019010931
0002c0 60 18 65 bd a4 7d 3c 3d 68 06 82 bc a8 8b 4a 3d
       -0.05593145 0.046018258 -0.015872195 0.049449593
0002d0 9a 2f a6 3d b1 9f 33 3e 7b 04 24 3e e7 5d 2d be
       0.08114548 0.17541386 0.16017334 -0.16930352
0002e0 d6 4b ef 3d bf a8 0f 3e 90 31 5e bd 34 78 25 be
       0.116843864 0.14029215 -0.054246485 -0.16159135
0002f0 a8 b1 19 bd c6 28 8c 3d c0 fd 5a bc 58 58 6d bd
       -0.03752294 0.068437144 -0.013366163 -0.05794558
000300 a8 0c f1 bc 7c fd 73 3d ef bc 99 bd e4 7b 09 3d
       -0.02942498 0.059567913 -0.07506739 0.033565417
000310 e3 3e 02 be 89 94 e3 bd 48 2f 23 bd 52 ed dd 3d
       -0.12719302 -0.11112315 -0.039840013 0.10836281
000320 be d8 dc 3d c8 2f 7f bd 97 61 a9 bd a2 3a 21 be
       0.10783528 -0.062301427 -0.08270567 -0.15745023
000330 90 aa 28 bd 8e 18 d0 3d bd 0a 43 3e fe cf 93 3d
       -0.041178286 0.101609334 0.19047065 0.07217406
000340 d8 dd ec bc b6 80 0d be c8 e7 67 bd 39 3f 37 3e
       -0.028914377 -0.1381863 -0.05661753 0.17895211
000350 7a a8 8f 3d f7 51 12 3e c8 ef 29 be e8 e8 c8 3c
       0.07014556 0.1428908 -0.16595376 0.02452512
000360 fc 6c 2f be f9 c9 28 3e ba e3 9d bd f8 dc 7c bd
       -0.17131418 0.16483296 -0.07709451 -0.06173417
000370 1a d2 e1 3d 54 e9 b7 bd 9e a4 c8 bd 61 e0 1f be
       0.11026402 -0.08980051 -0.09797023 -0.15612938
000380 19 83 44 3e 05 28 98 bd 6c e8 b1 bd e8 f6 0a 3d
       0.19190635 -0.07429508 -0.08686909 0.033926874
000390 8e 18 d9 3d 45 89 31 3e 79 6a 35 3e b4 e2 36 3d
       0.106003866 0.1733752 0.17716397 0.044649795
0003a0 6c e7 00 be 7d 58 17 3e 06 f3 8f 3d 00 52 26 be
       -0.1258828 0.1477985 0.07028775 -0.16242218
0003b0 20 0e 81 3b b7 1e 3d 3e 6c ca 00 bd 4d 80 12 be
       0.0039384514 0.18468748 -0.031443045 -0.14306755
0003c0 76 85 a4 3d 9f 03 26 be 63 c5 1c 3e dc 77 f3 bd
       0.08033268 -0.16212319 0.15309672 -0.11888096
0003d0 07 1d 13 3e 2d 3f 28 3e 58 ea ab bc 4a 12 2d be
       0.14366542 0.1643035 -0.020985767 -0.16901508
0003e0 c0 f2 db bc 98 ee 5f bd 40 9c b6 3b 2c 7e 1b be
       -0.02684915 -0.0546709 0.0055728257 -0.1518485
0003f0 80 1d b6 3a 01 b7 8e bd 26 be f7 3d 88 35 2d bd
       0.001389429 -0.06968499 0.12096815 -0.04228738

fc1.bias f4 [128]
000000 f8 f2 f8 3c b0 c3 f7 bc 60 f5 5f bc 93 a1 3b 3e
       0.030389294 -0.030244678 -0.013669342 0.18323354
000010 71 46 0b 3e 36 59 d3 3d f0 cd 51 bc 09 8e 0b 3e
       0.1360109 0.1031975 -0.012805447 0.13628401
000020 50 0c 64 bc 40 bf 3d 3c 37 c9 df bd 78 46 30 be
       -0.013918951 0.011581242 -0.109270506 -0.17214382
000030 17 1a 27 be 73 5f c2 bd 30 2c f4 3c 46 30 8e bd
       -0.16318546 -0.09490862 0.029806226 -0.06942801
000040 05 eb 33 be 00 7a ef 3a 22 16 d8 3d 80 3b 22 3d
       -0.17570122 0.0018270612 0.105510965 0.039607525
000050 49 70 bc bd 50 56 1e bc 14 e3 c6 bd 00 9c dd ba
       -0.09201104 -0.009664133 -0.097112805 -0.0016907454
000060 64 aa fa bd 44 2d 1b bd 0e 43 d6 bd 0b af 27 3e
       -0.12239531 -0.037884966 -0.104620084 0.16375367
000070 92 f7 b5 3d 80 0b 83 bc dc c0 72 bd 51 c4 2c 3e
       0.08885111 -0.015996695 -0.059265956 0.16871764
000080 88 69 94 bc 6f ce 2f 3e 00 4c 7c 3c 68 19 64 bd
       -0.018116727 0.17168592 0.015398979 -0.05568829
000090 b4 49 2e be 15 5f 26 3e 70 4c 0b be f3 13 b9 bd
       -0.17020303 0.16247208 -0.13603377 -0.09037008
0000a0 9a 90 94 3d d5 0e 15 3e 00 2e 2c 3c c8 a7 17 3d
       0.07254143 0.14556439 0.010509014 0.037025243
0000b0 30 43 36 bd 94 b4 ba bd d2 48 16 be 40 c5 23 3c
       -0.04449767 -0.09116474 -0.14676216 0.0099957585
0000c0 b8 c4 b7 3c 16 98 83 3d 60 17 8c bc 00 b6 cf 3a
       0.02243267 0.064254925 -0.01710099 0.0015847087
0000d0 75 4d 2c be 6a ec f7 3d 80 ec fc ba 14 de 1c 3d
       -0.16826423 0.12105639 -0.0019296557 0.038297728
0000e0 d4 31 7b bd ed d4 2e 3e 3c 1b 10 bd 27 6e 27 3e
       -0.061326817 0.17073412 -0.035182223 0.16350614
0000f0 cf 91 32 3e d3 11 2b 3e e0 13 6e 3c 12 e6 a9 bd
       0.17438434 0.16706018 0.014531106 -0.082958356
000100 3a 85 8a 3d ca db 9f 3d 5d e7 44 3e 4f 6b 21 3e
       0.06763692 0.07805593 0.19228883 0.15763591
000110 85 c1 b6 bd aa 44 9e 3d e4 de 6f 3d 61 f8 40 3e
       -0.0892363 0.077279404 0.058562174 0.18844749
000120 88 e6 a6 3c 5e 28 8d 3d 1f b6 23 be a4 e7 7a 3d
       0.020373598 0.06892465 -0.15987442 0.061256066
000130 d6 f6 db bd 7e ec a0 3d 3d ce cc bd cf 84 f2 bd
       -0.107404396 0.07857607 -0.10000274 -0.118417375
000140 d9 62 07 3e e0 8f e2 bc 2b dc 26 3e 81 69 40 3e
       0.13221301 -0.027656496 0.16294925 0.18790247
000150 18 1d 9d bd c2 ce 26 be 29 8b 13 3e 48 93 3f 3d
       -0.07671565 -0.1628981 0.14408554 0.046771318
000160 8a d4 f7 bd 0b c6 35 be 87 f2 23 be c5 2b 21 3e
       -0.121010855 -0.17751329 -0.16010486 0.15739353
000170 00 57 23 bd 80 37 1e 3c 9f 19 2c 3e c7 c6 43 3e
       -0.03987789 0.009656787 0.16806649 0.19118796
000180 50 a6 f3 bc ae 02 cf bd 5a d9 fe bd 0e bc 8f 3d
       -0.02974239 -0.10107933 -0.124438 0.070182905
000190 a6 31 a8 3d ab a4 07 3e cc 1f 87 bd a6 5b 2a be
       0.08212595 0.1324641 -0.06597862 -0.16636524
0001a0 7a 8a e5 3d 40 f3 87 3c 98 68 44 be 09 b0 41 3e
       0.11208053 0.016595483 -0.19180524 0.18914808
0001b0 10 f1 38 bc 16 6d d7 bd 7b 14 33 be 2e f4 34 be
       -0.0112879425 -0.10518853 -0.17488281 -0.17671272
0001c0 e4 70 26 3d 30 43 16 bc 03 72 1e 3e d3 85 02 3e
       0.040635005 -0.009171292 0.1547318 0.12746362
0001d0 cc 83 56 bd 90 24 7e 3c 53 86 ae bd 41 a1 18 3e
       -0.052371785 0.015511647 -0.08521714 0.14905263
0001e0 88 25 ec 3c 68 aa 3e be 60 f7 1f bc c4 bd 3c be
       0.02882649 -0.18619692 -0.009763569 -0.18431765
0001f0 9a a9 b8 3d 8c 62 51 3d d0 88 f8 3c 80 f3 1b 3c
       0.09016724 0.051119372 0.030338675 0.009518504

fc2.weight f4 [128, 128]
000000 59 b9 3c bd 9e 25 03 bd 60 b7 26 3b b6 57 1c 3d
       -0.0460752 -0.032018296 0.002543889 0.038169585
000010 d0 c6 3a 3c 68 5a 12 3d 91 95 a0 3d 90 7a b3 bb
       0.01139994 0.03573075 0.078410275 -0.005477257
000020 7c 50 e7 3c 20 8e a8 3c d8 79 00 3c 68 54 0a bc
       0.02823662 0.020575583 0.00784155 -0.008442976
000030 92 c3 e6 bc c4 e2 ef bc 65 e6 11 bd 71 cc 4c bd
       -0.028169427 -0.029282935 -0.035620112 -0.049999658
000040 53 54 9f 3d f2 b2 51 3d 36 33 36 3d f3 e3 79 bd
       0.077797554 0.051196046 0.044482432 -0.061008405
000050 28 ff 99 bd 6f 60 8f 3d bc b9 d0 3c e0 0d b1 3b
       -0.0751937 0.07000815 0.02547919 0.0054032654
000060 83 f8 af bd 00 44 e7 3a 7f 0c 0d bd 9d 26 1c bd
       -0.08592322 0.0017644167 -0.034435745 -0.038122762
000070 3c a6 98 3c b2 f1 32 3d 28 0a 79 bc e0 c5 07 3b
       0.018633954 0.04368753 -0.015200175 0.0020717308
000080 82 29 52 3d 06 4f 1c 3d d2 ad 56 3d d6 95 74 3d
       0.051309116 0.0381613 0.05241186 0.059713207
000090 45 55 8b 3d ea eb 63 3d 3a 53 6c 3d 8d cf 97 bd
       0.06803373 0.055644907 0.05769656 -0.07412634
0000a0 79 7d 93 3d fe 60 4f bd f1 c6 3f bd 50 35 51 3c
       0.072016664 -0.05062961 -0.046820585 0.012769058
0000b0 f2 46 3a 3d 5a 4f 06 3d 64 90 ee bc 7c 5d ab 3c
       0.045477815 0.03279052 -0.029121585 0.0209186
0000c0 a4 0f f1 3c c2 69 6e 3d ff 59 a9 3d 40 02 22 3c
       0.029426403 0.058206327 0.082691185 0.009888232
0000d0 20 eb 84 3c ac d0 ad bd 72 18 a1 bd 84 45 e7 bc
       0.016225398 -0.084870666 -0.07865991 -0.02823139
0000e0 3e b4 26 3d 8e a0 dc bc 7e f9 84 bd be 7c 3d 3d
       0.040699236 -0.026932027 -0.06492899 0.04626154
0000f0 e0 f0 4b bd f0 4f b0 bb 60 a9 27 bc aa 4c f7 bc
       -0.049790263 -0.005380623 -0.010233253 -0.030187923
000100 ed 6d 9b 3d 68 1f 6c bc c2 64 33 3d 8e dc 5b 3d
       0.07589326 -0.014411785 0.043797262 0.053677134
000110 c4 d3 82 bc e3 53 53 bd 8c 04 3a bd 28 72 59 bc
       -0.015970118 -0.051593672 -0.045414492 -0.013271846
000120 00 a7 e1 bb 0f 7f 78 bd e0 ba cf 3b 73 ba 91 bd
       -0.006886363 -0.060668048 0.006339416 -0.071156405
000130 3d ce 75 bd d6 20 52 3d e8 47 ef bc cf 56 89 3d
       -0.060011137 0.051300846 -0.029209092 0.067060106
000140 9a 80 62 bd be 9e f9 bc b1 1e 8b bd 7b ec 90 3d
       -0.055298425 -0.030471202 -0.06792963 0.07076355
000150 48 db 25 3c b9 be 69 bd cc 5a b8 3c 8d b6 60 bd
       0.0101230815 -0.057066653 0.022504233 -0.054861594
000160 27 03 8d 3d 08 6b 84 bd 79 07 36 bd 04 37 a6 3c
       0.06885367 -0.06465727 -0.04444072 0.020289905
000170 41 99 a4 bd d7 21 80 3d 60 91 5b 3b 88 05 18 bc
       -0.08037043 0.062564544 0.0033503398 -0.0092786625
000180 e2 be 3e bd 1d ec 9a 3d 90 1b 8c bb 6e f7 2c 3d
       -0.04656876 0.07564566 -0.0042757466 0.042228155
000190 80 4a e0 3c a2 4f 63 3d 52 ba 17 3d 40 ee 43 bb
       0.027379274 0.055495866 0.037042923 -0.0029896647
0001a0 1c e0 a8 bd ea 1f 9f bd 70 74 9e 3b e5 a7 76 bd
       -0.082458705 -0.07769759 0.004835658 -0.06021871
0001b0 30 da 1a bc 4f 48 9d 3d 18 c9 bc 3c 60 ef 16 bd
       -0.009451434 0.076798074 0.023045108 -0.03684938
0001c0 67 17 52 bd e3 3d b3 3d cc 05 aa 3c 20 8c 0e bd
       -0.05129185 0.08752038 0.020754717 -0.034801602
0001d0 32 a2 12 3d 19 5d 69 bd f4 f5 54 bd c3 5e 1c bd
       0.035799213 -0.05697355 -0.05199237 -0.03817631
0001e0 aa 9c 6b 3d 00 4e a1 bb 86 a1 e0 bc cd 02 8e bd
       0.057522453 -0.0049226284 -0.02742077 -0.06934128
0001f0 50 8e b0 bc fc 1b b2 3c 70 23 6a 3c 73 a0 a3 3d
       -0.021552235 0.02174186 0.0142906755 0.07989588
000200 06 56 63 bd d2 ac 0f bd 1d 9e 89 3d d4 5a e2 3c
       -0.05550196 -0.035076924 0.06719611 0.0276312
000210 5b 62 92 3d 85 27 11 bd 80 5a 55 bb b3 f6 53 bd
       0.07147666 -0.03543808 -0.0032555163 -0.051748943
000220 0c a5 f7 3c 79 11 8f 3d ec fd 9f 3c 53 58 8b 3d
       0.030230068 0.069857545 0.01953026 0.06803956
000230 00 81 a1 bb 6e c7 18 3d 88 aa 12 3d f2 3c 76 3d
       -0.004928708 0.037299566 0.035807163 0.060116716
000240 90 28 9e 3b ec 5f 14 3d 16 9b 11 3d dc a4 88 bc
       0.004826613 0.03622429 0.035548292 -0.016680174
000250 f6 92 33 3d a6 78 85 bd d6 ca 72 3d 25 e4 98 3d
       0.043841325 -0.065171525 0.05927547 0.0746539
000260 97 20 25 bd dc 30 f3 bc ca a2 01 3d 78 97 4b bd
       -0.040314283 -0.029686384 0.03164939 -0.049705
000270 54 5e 6a bd 54 c0 a1 bd a9 71 3f bd e7 17 0a bd
       -0.057218865 -0.07898012 -0.046739254 -0.0337142
000280 14 c5 21 bd c3 d5 a9 3d 3b a8 38 bd d4 e7 97 bc
       -0.03949459 0.08292725 -0.045082312 -0.018543161
000290 2c 61 8a bc cf a7 8a 3d 8b ff 85 3d d4 f9 03 3d
       -0.016892038 0.06770288 0.065428816 0.032220677
0002a0 60 03 06 3d 20 00 ad 3c e2 ff 97 bd 70 03 95 3c
       0.032718062 0.021118224 -0.07421853 0.018190116
0002b0 40 fb 7f 3b 66 ed 0d 3d 54 62 a8 3c d8 dd 07 3d
       0.0039059669 0.03465023 0.020554699 0.03317055
0002c0 aa 04 74 bd 60 04 62 3b 82 6d 33 3d 6b af 89 3d
       -0.05957476 0.003448747 0.043805607 0.067229114
0002d0 16 c8 59 bd 68 31 fc 3c c8 03 60 3c ce a3 27 3d
       -0.053169332 0.030785277 0.0136727765 0.0409277
0002e0 df 36 2e bd 20 45 77 3c 94 e2 f2 3c 5d 36 96 3d
       -0.042532798 0.015092164 0.029649056 0.07334588
0002f0 60 60 40 bb bd 86 8f bd 18 8c 9f 3c 1e 79 9a bd
       -0.002935432 -0.07008121 0.019475982 -0.075426325
000300 42 a0 07 3d 28 0f 1b 3c 15 83 a6 3d 51 43 95 3d
       0.033111818 0.009464063 0.08130471 0.0728823
000310 70 31 96 3b 42 f8 37 3d e8 92 2b bc e0 58 8b bc
       0.00458353 0.04491449 -0.010472037 -0.017010152
000320 00 26 40 bc 0a d7 34 3d 26 94 02 3d 9e 7e 2e 3d
       -0.01172781 0.04415039 0.031879567 0.04260122
000330 67 08 47 bd e8 0d 51 3c ed 7e a9 3d 46 0b 7f 3d
       -0.048591997 0.012759663 0.08276162 0.06226661
000340 60 72 9a bb 55 57 aa 3d 32 1b 6b 3d b7 06 3e bd
       -0.0047133416 0.083174385 0.057398982 -0.046393123
000350 00 4c ce ba 72 98 5a 3d 6a 60 6b 3d 52 00 2f 3d
       -0.0015739202 0.05336804 0.057464994 0.042724915
000360 08 c2 fc 3c b8 80 0e 3d d0 12 81 3c e2 dc 9d bd
       0.03085424 0.034790725 0.01575604 -0.07708146
000370 85 ef a3 3d 6b f2 8e 3d c2 f2 35 3d f8 04 2f bc
       0.08004669 0.06979831 0.044420965 -0.010682337
000380 57 54 85 3d 68 48 e4 bc 86 a9 e9 bc 72 5c 15 bd
       0.06510227 -0.027866557 -0.028523218 -0.036465116
000390 71 bf 8c 3d 08 80 6f bc 22 45 6c 3d d2 5a 19 3d
       0.06872452 -0.014617927 0.057683118 0.03744013
0003a0 68 a4 45 3c 44 b5 04 bd 00 92 32 b9 24 3d be bc
       0.012063123 -0.03239943 -0.00017029792 -0.023222513
0003b0 2f e2 a7 3d 0c c8 db 3c c6 d8 4d 3d 57 04 8e 3d
       0.08197438 0.026828788 0.05025556 0.069344215
0003c0 72 80 21 3d 70 8b f1 3b 00 3a 05 3d ce aa 90 bd
       0.039429136 0.0073713586 0.032526016 -0.070638284
0003d0 cd 3d 8f bd b9 68 0a bd 43 8a a3 bd 30 12 a6 bd
       -0.069942094 -0.033791278 -0.07985356 -0.08108938
0003e0 18 ea 20 3c 52 0d e8 bc be ae 58 3d 68 a2 aa bc
       0.009821437 -0.028326664 0.052901022 -0.020829394
0003f0 82 cf 2a 3d 54 ea 1a bd 80 4e 53 3a 9c 1d d3 bc
       0.0417018 -0.03782113 0.00080607086 -0.025770955

fc2.bias f4 [128]
000000 50 ac e7 3b 9c 37 3f bd 52 4f 63 3d 10 c4 6d bc
       0.007070102 -0.046683893 0.055495568 -0.014512077
000010 21 35 92 bd 0c bf df 3c 2c 14 2f bd 10 7e 7d 3c
       -0.0713904 0.027312778 -0.042743847 0.01547195
000020 40 e3 65 bb 84 fa ac bc 99 19 3e bd e8 e3 62 bd
       -0.0035078079 -0.021115549 -0.04641113 -0.05539313
000030 41 fa 86 3d 2e b6 ea bc e5 9b 9a 3d 0a 0c 3e bd
       0.06590701 -0.028651323 0.07549266 -0.0463982
000040 19 f2 9f 3d 0c f6 ed bc 46 f6 66 3d 05 4c 0e bd
       0.07809848 -0.029047988 0.05638721 -0.034740467
000050 57 a5 9a 3d 58 4f 3c 3c 04 9a 5b bd 3c ef 07 3d
       0.07551067 0.011493526 -0.053613678 0.033187136
000060 88 53 4f 3c cd d5 98 3d 80 72 1f 3a 4b 65 81 3d
       0.012654193 0.07462654 0.00060824305 0.06318148
000070 70 20 0b bc d8 cb 8e bd 80 85 32 3c d2 20 03 bd
       -0.00849162 -0.06972474 0.010896087 -0.03201372
000080 49 d1 45 bd 88 ee ba bc 9f ca a5 3d 97 60 94 3d
       -0.048295293 -0.022818819 0.080952875 0.072449856
000090 de ce 26 3d 88 4f b1 bc 40 e5 c6 3a 9b 98 93 3d
       0.040724628 -0.021644369 0.0015174523 0.072068416
0000a0 10 41 4d bc d8 3f 78 3c 8a dd a1 bd 60 75 e2 bb
       -0.012527719 0.01515194 -0.07903583 -0.006910965
0000b0 80 24 08 ba 20 f0 2d bd c7 b5 68 bd 90 19 6a bd
       -0.0005193427 -0.04246533 -0.05681398 -0.057153285
0000c0 a6 24 70 3d 23 01 55 bd 90 39 68 3c 95 47 16 bd
       0.0586287 -0.052003037 0.01417388 -0.03668936
0000d0 dc 43 ce 3c d2 27 8d bd e7 c2 3c bd b4 d0 af bd
       0.025178842 -0.06892361 -0.04608431 -0.08584729
0000e0 62 b0 19 3d 11 b7 a7 3d 76 8a 81 bd e0 82 24 bc
       0.037521727 0.08189214 -0.063252375 -0.010040969
0000f0 d2 12 39 3d 7d 02 a9 bd a2 97 3e 3d b6 da 92 bd
       0.045183964 -0.08252428 0.046531327 -0.07170622
000100 40 50 cb 3c 40 69 48 3b ac a2 f1 3c 4c 9d 92 bd
       0.02481854 0.0030580312 0.029496513 -0.07158908
000110 40 00 e9 ba 69 6a 93 bd 8b e0 9e bd 74 b9 34 bd
       -0.0017776564 -0.071980305 -0.07757672 -0.044122174
000120 b1 59 1a bd a8 6e 3d 3c 5e ab 37 3d 2c 52 00 3d
       -0.037683193 0.011562027 0.044841163 0.031328365
000130 64 0a ac bc 9a 0f 19 3d a4 e4 06 bd 5e bf 77 bd
       -0.021001048 0.037368394 -0.032932892 -0.060485236
000140 5f 16 a4 3d 9a 90 23 3d 88 73 77 3c 90 10 1b 3c
       0.080120794 0.039932825 0.015103228 0.009464398
000150 ec b2 04 3d 7b 40 b4 3d b3 cf b2 bd 56 2a e4 bc
       0.032397196 0.08801361 -0.08731022 -0.027852219
000160 60 f1 99 bd 23 44 99 3d 25 7b 05 bd ea 33 77 bd
       -0.07516742 0.07483699 -0.032588143 -0.060352243
000170 a5 79 1c bd a8 83 8f bc 0f a7 b2 3d 00 f9 be 3a
       -0.038201947 -0.017518833 0.0872327 0.0014570057
000180 74 e7 c0 3c 19 3b ad bd 5e 2b 44 3d d6 98 ed bc
       0.023547865 -0.084585376 0.04789292 -0.029003542
000190 2a 0e 2f 3d d4 3e 8d 3c e8 bd 5a 3c a0 19 9e 3b
       0.042738117 0.017241873 0.013350941 0.004824832
0001a0 60 74 96 3b b5 a0 97 3d 7a 33 88 bd 48 8e b1 bd
       0.0045915097 0.07403699 -0.066504434 -0.08669716
0001b0 32 9d 7b 3d 2a 1b 60 3d fe 07 ad bd 33 f9 a6 3d
       0.06142921 0.054713406 -0.0844879 0.08153
0001c0 d2 fa ab bd 6e 2d 30 3d 4a bd 56 3d 2b da ab bd
       -0.083974496 0.043012075 0.052426614 -0.083912216
0001d0 b4 b4 ee 3c d0 66 a3 bd e8 ea 81 bd 70 ec 97 bc
       0.0291389 -0.07978594 -0.06343633 -0.01854536
0001e0 26 e0 61 3d 54 81 a5 bd c0 3b a6 3a 00 de 4d 3a
       0.055145405 -0.08081308 0.0012682602 0.000785321
0001f0 e6 31 1f bd 40 eb f3 3c 50 08 93 3c af ab 9d 3d
       -0.038865946 0.029775262 0.0179483 0.07698762
